trained_models/evolvegcn_email-eu.pt (torch, 467126 bytes, 9 tensors)

pre.weight f4 [128, 1]
000000 dd f7 c8 be 81 63 4a be da 5c 0e be dc 97 11 be
       -0.39251605 -0.1976452 -0.13902608 -0.14218086
000010 b4 39 16 bf 2f 2d 6c 3e a7 23 17 bf 33 6f 92 be
       -0.586818 0.23064111 -0.59038776 -0.28600463
000020 f8 0d d7 3d 89 7b 28 bf 05 84 02 bd d3 da 8c bc
       0.10500711 -0.658135 -0.031864185 -0.017194187
000030 f6 49 82 3e 14 49 1a 3f 3d cb 6f 3e 18 50 5e 3c
       0.25447053 0.6026776 0.23417373 0.0135689005
000040 ec 47 e4 be 70 e7 4d bd 5b cc c7 bd 1f ff 8e 3e
       -0.44586122 -0.050269544 -0.097557746 0.27929017
000050 a8 5e 88 3e 6a fc 34 bf c6 2f 08 bf e0 ea 42 3d
       0.26634717 -0.70697653 -0.53197896 0.047587276
000060 7c cf 7d 3f 8e 36 cd bd 84 80 28 bf b5 7a b4 3e
       0.9914472 -0.10020171 -0.658211 0.35249868
000070 d5 d2 1b 3e f2 6a 32 bf 8d 1b 27 3e dd 96 e1 bd
       0.15217145 -0.69694436 0.16319104 -0.11015103
000080 42 f9 ff 3e 1d 68 27 be 3b f8 2b 3d 5a 27 b4 bd
       0.49994856 -0.1634831 0.041984778 -0.08796568
000090 52 8e 00 3e 6d 43 98 bc 6e 19 08 3f 87 b3 81 be
       0.12554291 -0.018586839 0.531638 -0.2533228
0000a0 6f 26 00 bf ff 50 cf be 6e 94 11 3f e8 4d 81 be
       -0.50058645 -0.40491483 0.5686711 -0.2525475
0000b0 ac af 1e bf 52 97 9b 3e df 6d 91 be a0 e9 47 bf
       -0.61986804 0.30388886 -0.28404137 -0.7809086
0000c0 ba e8 53 3e 66 13 8d 3e b8 dc a0 be 8c 27 f6 3e
       0.20694247 0.27553862 -0.31418395 0.48077047
0000d0 9d 0f 35 3f 41 94 ee 3e 51 ea 77 3e c9 7a ae be
       0.7072695 0.46597484 0.24210478 -0.34078053
0000e0 a4 24 78 be 56 80 d6 be c9 9a b6 bc 48 56 97 be
       -0.24232727 -0.41894788 -0.022290604 -0.29558015
0000f0 ef a9 94 3e 57 65 81 3e 8a fe ef 3e 22 5a b0 be
       0.290359 0.2527263 0.46873885 -0.34443766
000100 56 fe 41 3e 8d 32 1d 3e c8 b9 29 3e 04 4b 8c 3c
       0.18944678 0.15351315 0.16574776 0.017125614
000110 b3 d2 85 be fd 49 7c be df aa 22 ba 0d 91 da 3d
       -0.26137313 -0.246376 -0.00062052713 0.106721975
000120 d7 1d 27 bf 68 26 94 3e 41 d5 27 3d 5e 4e 5f be
       -0.65279907 0.28935552 0.04097486 -0.21807238
000130 3c 64 9f be 2d d2 41 be c9 d8 95 3e e0 5f 14 bd
       -0.3113116 -0.18927832 0.29266956 -0.036224246
000140 e6 12 48 be 8f 3d a8 bd c8 50 26 be f2 e9 6d be
       -0.19538459 -0.08214866 -0.16241753 -0.23233774
000150 fd 37 04 bf 64 44 18 3f 39 67 e6 3b e4 0a c6 be
       -0.5164793 0.59479356 0.007031348 -0.38680184
000160 06 10 a2 bd c8 4a f3 3e f6 ee 1b be 37 90 ec 3d
       -0.079132125 0.4751799 -0.15227875 0.11550944
000170 96 e5 89 be c3 19 b2 be a6 a7 17 3e 29 e4 b6 be
       -0.26932973 -0.3478528 0.14810047 -0.35720947
000180 79 51 86 be 1a 46 e1 3e 1a cc 94 3e d5 4d a4 3c
       -0.26234034 0.43998796 0.29061967 0.020056644
000190 91 dd d6 3d 02 80 e0 be 59 a5 c4 3d 0a d6 1a be
       0.10491479 -0.43847662 0.0960185 -0.15120712
0001a0 1c 2a f6 3e d5 27 0d 3f 80 5b cf 3e 24 4f 23 3e
       0.48079002 0.55138904 0.40499496 0.15948159
0001b0 4d d7 cc be ce 59 5b bf a6 e8 c5 bd 23 84 2c be
       -0.4000801 -0.85683906 -0.09663515 -0.16847281
0001c0 84 42 1c bf d0 00 87 be 8a b7 ce 3e 4e 11 e5 3c
       -0.61038995 -0.26367807 0.40374404 0.027962353
0001d0 f4 11 1e 3e dc 7c 33 bf b5 e9 96 be e8 8b 45 be
       0.15436536 -0.70112395 -0.2947518 -0.19291651
0001e0 04 33 a6 be 86 6a 4c bc 66 b1 8d 3e f0 0d 01 3e
       -0.32460797 -0.012476569 0.27674407 0.12602973
0001f0 6b 74 1d bf 9e c5 16 be b6 6f b7 be ef ca 40 bf
       -0.61505765 -0.14723822 -0.35827416 -0.7530965

pre.bias f4 [128]
000000 73 0f 02 3f b2 36 4f 3c ce fd fd 3e ce 7e a4 bd
       0.50804824 0.012647318 0.496077 -0.080319986
000010 5e 01 d7 3e 5c e0 5e bf 90 32 38 be 3d 99 4e 3e
       0.4199323 -0.87061095 -0.17988038 0.20175643
000020 a1 69 b0 3e 89 5d c8 be e1 be e3 be 07 c9 10 3f
       0.34455588 -0.39133862 -0.44481567 0.56556743
000030 73 1c 8c bf d3 2e 20 3f 58 56 1e bf 83 69 b1 be
       -1.0946182 0.6257145 -0.618505 -0.34650812
000040 a5 e7 14 3e 92 3b 50 bf 07 7c a6 be 9f 4e dc 3e
       0.1454149 -0.813409 -0.325165 0.43028733
000050 a7 97 ca 3e af dd 9a bd a5 be 2b 3e 29 5f dc 3e
       0.39568827 -0.07561814 0.16771944 0.4304135
000060 a4 19 93 3e ff d5 89 3e bc 55 20 bf af ab d0 3e
       0.287305 0.2692108 -0.6263082 0.40755984
000070 d6 9e bf bd c3 b5 77 3e 37 75 7c 3f c0 52 be 3e
       -0.093564674 0.2419043 0.98616356 0.37172508
000080 de 38 d3 3e b8 7e fd 3e c4 aa ef 3e ed 06 18 bf
       0.41254324 0.4951074 0.4680997 -0.5938557
000090 ef e0 84 bf 68 98 00 bf ce 26 30 bf 2f 7a ec bd
       -1.0381144 -0.50232553 -0.6880921 -0.11546742
0000a0 56 91 b1 3e 02 34 8e 3e c1 e5 f1 bd b8 74 03 bf
       0.34681195 0.27774054 -0.118114 -0.51349974
0000b0 ef 31 3c 3f 9c 22 60 3f b6 2d 8f 3e 01 69 8d 3f
       0.7351369 0.8755281 0.27964562 1.104767
0000c0 50 c6 f9 be 5c 2b 0b bf 85 d0 4d bf d7 da 2a be
       -0.48784113 -0.54363036 -0.803963 -0.16685043
0000d0 95 fc 0f bf 36 28 03 3f bf 4e da 3d c7 1d c0 3e
       -0.56244785 0.5123323 0.10659551 0.37522718
0000e0 ec 30 34 bf f9 34 e2 3d 56 60 5d 3d 4d 1f 00 bf
       -0.7038715 0.1104526 0.05404695 -0.5004776
0000f0 ec 26 31 3f d9 86 e3 be 31 a8 80 3d 97 d3 48 bf
       0.69200015 -0.44438818 0.0628208 -0.7844786
000100 76 e0 80 be ad 5d 83 be c4 9f c2 3e 7c db 18 3f
       -0.2517125 -0.25657406 0.38012516 0.59709907
000110 42 e9 1d 3f 24 b7 cc be a4 97 c2 bd db bb 60 3f
       0.6168405 -0.39983475 -0.095015794 0.87786645
000120 ae e6 2a bb 9f 08 96 3e 88 9a 0a bf de cd 68 3f
       -0.0026077437 0.29303452 -0.54142046 0.9093913
000130 31 0a 77 3f c3 9b 59 3e 29 4f 5c 3e 7e ec 94 3e
       0.96499926 0.21250825 0.21514572 0.2908668
000140 16 ab 39 be df 39 d3 bd 6d ac 00 3f 36 4a d7 bc
       -0.1813167 -0.103137724 0.502631 -0.026280504
000150 87 aa 54 3e 50 95 a0 3e 3b 56 9c bf 55 db b4 be
       0.20768176 0.31363916 -1.2213815 -0.35323587
000160 8e 08 22 bf 58 c1 83 be 7a 5a 0c bf 81 91 40 3d
       -0.63294303 -0.25733447 -0.54825556 0.047013763
000170 84 44 93 3e 79 a3 5f bf 98 aa 15 be 98 27 5f 3f
       0.2876321 -0.87358814 -0.14615858 0.8716979
000180 00 35 07 bf ba f4 2b 3e 8f 6e 22 3e 1c c4 2d 3f
       -0.52815247 0.16792575 0.15862487 0.67877364
000190 b1 d1 76 bf 99 5b a0 bf 4a e0 b0 bd 55 74 12 bf
       -0.96413714 -1.2527953 -0.0863653 -0.5720876
0001a0 b4 e6 52 bf 3f d2 0a 3f 19 40 53 3c 45 5c 89 bf
       -0.82383275 0.5422706 0.0128937 -1.0731283
0001b0 e2 39 45 3f b7 08 c0 be 2b e9 2f 3f 28 dc c7 be
       0.7704145 -0.3750665 0.6871516 -0.39035153
0001c0 2a 45 31 bf e0 64 04 bf 01 e6 9a be b8 b4 40 bf
       -0.6924616 -0.51716423 -0.30253604 -0.75275755
0001d0 8b 30 a2 be 08 3b 7b bf ce 3e cf b8 34 e1 78 be
       -0.3167766 -0.9813695 -9.8822275e-05 -0.24304658
0001e0 9f ea c6 be 9d 5f 9f bf 2d 1f 05 3f d9 1c f0 be
       -0.38850877 -1.2451054 0.52000695 -0.4689701
0001f0 40 37 76 3e 9b 72 e2 3e 51 e9 d3 be de ee 99 3e
       0.24044514 0.44228062 -0.41388944 0.30065054

evolve.initial_weight f4 [128, 128]
000000 2f 02 4c 3b 86 08 91 bd ab 54 8b 3c f3 ad 40 3d
       0.0031129231 -0.07081704 0.017008146 0.04704089
000010 02 d6 e0 3d ab 90 d3 39 45 22 08 bc db 20 0f be
       0.10978319 0.00040352842 -0.008308952 -0.13977377
000020 3a c6 c1 bc b2 9d 0d 3d 5c 6d 19 3e d9 4f 04 3e
       -0.023654092 0.034574218 0.14983124 0.12921084
000030 e3 43 f1 bb 3a ba 13 3d d2 f3 1b 3e c3 6a ee 3d
       -0.007362829 0.03606627 0.15229729 0.11641457
000040 28 ee f4 bc fb 0b 2f bd ac 28 be bd a8 0c bf bb
       -0.029898718 -0.042736035 -0.09285101 -0.005830366
000050 4d bd e2 3d fa b4 c4 3d 3e 6c 07 3d 36 8f ae bd
       0.110712625 0.09604831 0.033062212 -0.08523409
000060 5b 92 ee 3d 6f 60 07 3e 4f 18 16 be 1c 1d 78 bc
       0.11649009 0.1322038 -0.1465771 -0.015143659
000070 fa 41 60 bd e4 97 1b 3e 77 e1 00 be 13 11 fa 3c
       -0.05475042 0.1519466 -0.12586008 0.03052572
000080 61 ed 8e 3d 8d 12 18 be 99 0e 0c bd 6c ed 03 be
       0.0697887 -0.14850827 -0.03419361 -0.12883538
000090 a4 6c 2f bd 16 96 d9 bd 7a ca aa 3b 2c c1 e8 3d
       -0.042828217 -0.1062433 0.0052121254 0.113649696
0000a0 a9 3b 07 3e 00 2b de 3d 0b b0 e9 bd fd e4 03 3e
       0.13206352 0.10848045 -0.11410531 0.12880321
0000b0 44 77 52 bd b4 50 e7 bd 98 91 1c 3e 68 34 28 bd
       -0.05138327 -0.1129469 0.15289915 -0.041065603
0000c0 23 ae 95 bd e5 7d 9c 3d 8a 69 e1 3d 28 05 71 bd
       -0.073086046 0.076412 0.11006458 -0.058842808
0000d0 6b a4 86 3c 81 4c 04 bd d9 67 95 3d e7 2d 7b bd
       0.016435822 -0.032299522 0.07295198 -0.061323073
0000e0 94 c4 bf bd b4 16 a9 bd 26 9b 1a 3e d2 6d 4d bd
       -0.09363666 -0.082562834 0.15098247 -0.05015356
0000f0 8b a3 ad 3c 26 91 8c bc 0b ab c1 3d 7c 49 d8 3d
       0.021196147 -0.017159056 0.09456452 0.10560891
000100 ca 1d df bd 00 98 08 bc c9 18 98 3b 72 98 f8 bd
       -0.10894354 -0.008337021 0.0046416265 -0.12138452
000110 25 59 e7 3d b7 c9 17 3e 79 bb 00 3d 20 54 f5 3d
       0.112963 0.14823042 0.031428788 0.11978936
000120 13 4e b6 bd 0f 89 16 3c ae 81 0f bc 78 3c b8 3c
       -0.0890161 0.009187951 -0.008758945 0.022489771
000130 3a bd 61 bd 20 45 d0 3c eb 52 06 be ad a5 0a be
       -0.0551121 0.025423586 -0.13117568 -0.13539763
000140 5f 45 09 3e b5 60 f5 3b e9 25 94 3c 2a 69 8c bd
       0.13405369 0.007488335 0.018084483 -0.06855996
000150 fe 1b 4d 3d ff 52 f8 ba d1 51 39 3d 49 e2 b5 bd
       0.050075524 -0.0018945633 0.04524404 -0.08881051
000160 63 ff 3d 3d 78 a6 12 bd 02 f7 01 be 15 b0 0d 3d
       0.046386134 -0.03580329 -0.12691882 0.034591753
000170 29 93 d8 bd 8a d9 05 be 99 ae b3 3d 08 43 e7 bd
       -0.105749436 -0.13071266 0.08773536 -0.11292082
000180 37 fe e5 bd f0 30 9b 3d 33 17 ce 3d e2 c4 7c 3d
       -0.11230128 0.075776935 0.10063019 0.0617112
000190 1a 93 91 bd 65 0a b7 bd 7e 23 87 3d 6a 84 28 39
       -0.071081355 -0.089375295 0.065985665 0.00016071057
0001a0 0d 13 73 3d a7 f1 8a 3a 2a 69 d5 3d 1f 46 cf bd
       0.05934434 0.0010600582 0.10420449 -0.101207964
0001b0 22 06 26 3d a0 e4 92 3d 3a f3 29 bb 26 00 15 be
       0.040533192 0.07172513 -0.0025932328 -0.14550838
0001c0 5b 8c c2 bd eb 87 0f 3e fd 47 e6 3c f9 4f 46 bd
       -0.09499427 0.14016692 0.028110499 -0.04841611
0001d0 90 1e c9 bd 40 ad 24 3c 65 aa cb 3d e8 3b ef bc
       -0.098202825 0.010051072 0.099446096 -0.02920337
0001e0 64 ee 19 be 8a 9c df 3c ea 15 61 bd 4d b9 ab 3d
       -0.15032345 0.027296323 -0.05495254 0.08384953
0001f0 1f d1 bc 3c b5 3c 13 3e 17 f8 b5 bd 73 3e 67 bd
       0.023048935 0.14378627 -0.0888521 -0.05645604
000200 2b 41 f3 bd 0b 8a 73 3d ef 07 2a 3d 6c 9a 11 be
       -0.11877664 0.05945782 0.041511472 -0.14219064
000210 a9 f5 9d bd f1 ca a7 bd 59 d6 db bd 87 3d 1a 3e
       -0.077128716 -0.08193005 -0.10734243 0.15062533
000220 59 c7 01 bb 4f 77 81 bd e7 9e c3 3c 38 4a ee 3d
       -0.0019802658 -0.063215844 0.023879481 0.1163525
000230 fa ea bf 3d 5c 3f 23 3d 72 a9 3f bd 8f d1 e7 bd
       0.0937099 0.039855346 -0.046792455 -0.11319267
000240 9e 35 07 3e 85 c7 17 be 5d bf 09 3e c5 e9 05 be
       0.13204047 -0.14822204 0.13451906 -0.13077457
000250 71 e3 1b be f5 ad fc 3d 37 2b eb 3c dd a0 96 3c
       -0.15223481 0.12337867 0.02870713 0.018387252
000260 f3 2e a1 bd 75 b8 a7 bd 2f f1 fc bb 5b 2c 07 be
       -0.07870283 -0.08189479 -0.007719181 -0.13200514
000270 c8 39 05 be a8 42 85 ba f2 2d 27 3d 78 2d 27 3d
       -0.13010323 -0.001016696 0.0408153 0.040814847
000280 5f 7d 14 3e 10 0a b8 3c 0b 69 5d 3c 79 9b ee 3d
       0.1450095 0.022465736 0.013513814 0.11650748
000290 85 5d dd 3d 9d e8 8d bc 0a b6 c8 bd a3 b8 bd 3c
       0.10808853 -0.017322833 -0.09800346 0.02315933
0002a0 7d a2 c0 bd 0a ea ea bb 67 ba e4 bd 3e de 24 bd
       -0.09405992 -0.007169013 -0.11168366 -0.04025101
0002b0 15 12 d9 3d a7 a3 b4 bc 58 e7 2f 3d cc 6c e4 3d
       0.10599152 -0.022050692 0.042945236 0.11153564
0002c0 00 cf 04 be 7a c3 cf bd 31 e1 5a bd 94 42 1b be
       -0.12969589 -0.10144706 -0.053437416 -0.15162116
0002d0 69 a5 fe bd 1b a4 00 3e 5f cd 25 bc 1d 97 c1 3d
       -0.12433893 0.12562601 -0.010119765 0.09452651
0002e0 c0 f6 fb bd b5 4f 0a be 79 cb f5 bd f9 5c c1 3c
       -0.12302923 -0.13506968 -0.120017 0.023603903
0002f0 ec 30 ef 3d 66 6a 03 3e 18 7f ec bd 38 6d 07 be
       0.11679253 0.12833557 -0.11547679 -0.13225257
000300 e7 26 55 3d fa c0 98 bd 82 85 32 3c 94 a9 a4 3c
       0.052039053 -0.07458682 0.010896089 0.020100392
000310 0b 5a 14 3e 30 a2 a2 bd f5 f2 bd bd 92 b7 b2 3b
       0.14487474 -0.07941091 -0.09274856 0.005454012
000320 c5 67 fa 3d 59 87 99 bd c4 e1 ac bd 30 bf cf 3d
       0.12226824 -0.07496519 -0.08441499 0.10143888
000330 a5 6d c5 bd 3d fa eb 3d cb e3 c4 bd 75 40 04 3e
       -0.09640054 0.115223385 -0.096137606 0.12915213
000340 75 b8 05 3e ad 22 dd bd c3 36 0d 3e 5e 85 84 3d
       0.13058646 -0.107976295 0.13790421 0.0647075
000350 00 22 e2 3d 21 aa b1 3a bb d7 b3 3d 26 66 ea bc
       0.11041641 0.0013554731 0.08781382 -0.028613161
000360 12 7e ec 3d 7c 17 b3 3d 2c c6 00 3e 43 23 9c 3d
       0.115474835 0.08744714 0.12575597 0.07623913
000370 95 57 0c 3e 89 70 b4 3d 5a e8 06 3d 8f b3 44 3d
       0.13705285 0.08810527 0.03293643 0.048022803
000380 03 ad 25 3d 0e 92 0e 3e 4e 48 a7 bd 5c fb 0e 3e
       0.0404482 0.13922903 -0.08168088 0.13963073
000390 d6 99 e9 3d 76 74 bb 3d 1f eb a4 bd ce d1 f0 3d
       0.11406295 0.091530725 -0.08052658 0.11758767
0003a0 46 02 b5 bd c2 57 3c 3a 4e e1 94 3d d9 42 00 be
       -0.08838324 0.0007184708 0.07269536 -0.125255
0003b0 66 9b dc 3c e7 6b f2 3d 4e 5f e3 bd 10 95 8e bd
       0.026929568 0.11836987 -0.11102162 -0.06962025
0003c0 08 f5 eb 3b ae e5 db bd 60 09 6a bc 5e f7 8c 3d
       0.007200841 -0.10737167 -0.014284462 0.06883119
0003d0 48 98 19 3d 5f 5c a7 3c c8 ac 89 bd 83 2b b7 3d
       0.037498742 0.020429788 -0.067224085 0.08943846
0003e0 fe b8 17 be 92 d7 84 3d ac 7e 37 3d 6e 2d de bd
       -0.14816663 0.06486429 0.044798538 -0.10848509
0003f0 c6 13 54 3d 7e 9d 01 3e 77 16 ee 3d f6 23 4e bc
       0.05177667 0.12657735 0.116253786 -0.012581816

evolve.recurrent_layer.weight_ih_l0 f4 [384, 128]
000000 2d 5f 85 3e 7c e9 1e bd 03 e4 40 3e be 95 19 bd
       0.26049176 -0.038796887 0.1883698 -0.03749632
000010 76 67 1c be c8 e7 80 3b 71 ba 8b bc 5d 7b 74 3d
       -0.15273842 0.0039338805 -0.017056676 0.05968796
000020 8f b9 2d be fa f6 88 3d 59 aa 5d 3e 02 35 e8 3c
       -0.16965316 0.06687732 0.21647014 0.028345589
000030 be f1 c3 3e f6 f4 1c be 56 1b 18 be 6c 9d 61 be
       0.38270372 -0.1532782 -0.14854178 -0.22032708
000040 73 32 e7 3e ab 8c a7 bd 3b ad 3b be 71 71 9c be
       0.45155677 -0.08181127 -0.18327801 -0.305553
000050 ea e2 54 3c 0b 0b 65 3d c1 b7 05 bd 25 28 9c 3e
       0.012993554 0.055918735 -0.032645945 0.30499378
000060 94 61 1e be 51 4c 91 be d7 32 55 be 57 61 6e 3e
       -0.1546691 -0.28378537 -0.20820175 0.2327932
000070 2a 80 b6 3d 96 50 98 3d 78 74 f9 3b 44 ae b6 bc
       0.08911164 0.074372455 0.007612761 -0.022299893
000080 8e 7d 57 3d d5 c6 bf bd b2 d6 4b bc b7 e2 12 3d
       0.052609973 -0.09364096 -0.012441324 0.035860743
000090 8a 72 88 3e 6c da bc be 59 be 59 3e b9 86 00 3e
       0.26649886 -0.36885393 0.21264018 0.12551393
0000a0 7c fd ab bd 02 72 2f 3e e7 18 5d be 6f 6b 48 bd
       -0.08397958 0.17133334 -0.2159153 -0.04893058
0000b0 c1 a3 8d 3c 05 6a 33 3e 48 22 98 3e 62 1d 83 3e
       0.017289998 0.17520912 0.29713655 0.25608355
0000c0 7b a3 67 be b3 d7 8a be 2c ca f5 3c 2c 4a fb 3d
       -0.22620957 -0.2711769 0.03000363 0.122700065
0000d0 e9 c9 b6 3e 42 16 9d bc cb e9 39 be 02 82 91 be
       0.3570092 -0.019175652 -0.18155591 -0.284195
0000e0 b0 dd 23 3e 88 f0 09 bc 71 bf 9a be 6e 8a 06 be
       0.16002536 -0.0084191635 -0.30224183 -0.13138744
0000f0 f1 a5 c9 3e 37 7a 45 3e 5d 40 fa 3e 75 d0 f4 3d
       0.39384416 0.19284903 0.4887723 0.119538225
000100 f4 39 93 3c 5d 14 ae 3d b5 6a 97 3c 51 a8 17 be
       0.01797197 0.08499978 0.018483499 -0.14810301
000110 7b 63 86 bd ef 41 36 bd b7 50 2f bd 03 e6 45 be
       -0.06561943 -0.044496473 -0.042801585 -0.19326024
000120 43 5c f6 bd ed bf 6c 3d a5 ea 09 3c 0c a6 08 be
       -0.12029316 0.057800222 0.00841776 -0.13344592
000130 0f cf 62 be 7b 8f b9 3e 7b ff b0 be 75 75 1f bf
       -0.22149299 0.3624228 -0.34569916 -0.622886
000140 a8 c4 88 3e d2 df bc 3e c8 1e 1f be 1c dc 6c 3d
       0.26712537 0.3688951 -0.15539086 0.0578271
000150 d8 21 1d 3f 54 46 5b 3e 4f 70 be bd 25 1d 08 3f
       0.61379766 0.21413547 -0.09298765 0.5316947
000160 20 d5 b6 3e 3a 37 e0 be 89 5f 11 be ab 98 2f be
       0.35709476 -0.43792135 -0.141966 -0.17148082
000170 c8 45 5f be 52 6e 09 be a6 9e 5c 3d f7 fd 04 be
       -0.21803963 -0.1342099 0.053862236 -0.12987505
000180 36 4d c2 be bf aa a1 bd de bc 25 3e 5d c9 cb 3e
       -0.37949532 -0.07893895 0.16185328 0.39802065
000190 e1 57 1f bc 77 31 bb 3e 1f 16 5b bd c2 5f 84 3d
       -0.009725542 0.36561176 -0.053487893 0.06463577
0001a0 9a 01 9c 3e 36 ac d7 3e 3f c7 e1 3d e1 4d 23 be
       0.30469972 0.42123574 0.11024331 -0.15947677
0001b0 58 83 64 3d 6d 42 78 3d d5 95 b5 bd 08 ef e1 bd
       0.05578932 0.060610224 -0.08866469 -0.1103192
0001c0 c0 8e 9a be ba 10 b5 bd 7a ab 5e be 12 09 e0 bc
       -0.30187035 -0.08841081 -0.217451 -0.027348075
0001d0 11 fa a8 3d f1 98 57 3e 65 e5 1e be ea 84 a7 bd
       0.082508214 0.21054436 -0.15517195 -0.08179648
0001e0 94 fd 9b 3e 26 fc aa bc 7a cd 32 3e 8c ba 4c 3d
       0.30466902 -0.020872187 0.17461196 0.049982592
0001f0 8a 5f 9a 3d e5 13 b6 bc ba 77 ab 3c 41 94 83 3b
       0.07537754 -0.022226283 0.020931114 0.004015476
000200 5c 1d 01 3e cb 3e 98 bc 69 28 be 3d 3b ef 9d 3d
       0.12608856 -0.01858463 0.092850514 0.07711645
000210 3e 22 2b be 41 52 0d be ef 54 f3 3d 83 7b df 3d
       -0.16712281 -0.13800909 0.11881434 0.1091223
000220 88 ff 84 3e 2b dc 11 bd 77 a5 9d bc 2f 3f 50 be
       0.25976205 -0.03561036 -0.019243939 -0.20336603
000230 76 08 cb 3d a9 4d ce 3d ae 07 d2 bd 15 16 03 3e
       0.09913723 0.10073406 -0.10255371 0.12801392
000240 5d 16 7d bd 8d cd 24 bb 6f 46 e3 3b bd 97 9a bd
       -0.061788905 -0.0025146932 0.0069358866 -0.07548473
000250 84 7d 3e be c9 50 95 3d c7 01 f3 bd a1 d5 27 3e
       -0.18602568 0.07290799 -0.118655734 0.16390087
000260 cd 1e 1d 3e a8 33 00 be d7 04 67 3e a6 bb 7b 3c
       0.15343781 -0.12519705 0.2256044 0.015364563
000270 85 82 22 be 72 86 94 be 9b b0 8a 3e 24 c5 15 be
       -0.15870102 -0.29008824 0.27087864 -0.14625984
000280 4d 0d 87 be ea b9 1d 3d 39 aa a2 be 36 e4 25 3e
       -0.26377335 0.03850738 -0.31770495 0.16200337
000290 dd 4d 3c 3e a8 3d 87 3a f7 c9 35 3e 47 44 0c 3e
       0.18389077 0.0010318058 0.17752825 0.1369792
0002a0 ee 90 63 be 2f 50 e8 3d f8 62 05 3d 26 ba 1f 3b
       -0.22223255 0.11343419 0.032565087 0.0024372428
0002b0 45 63 94 bc 3b cb 15 3e a1 fe 24 3e 95 ac 1d be
       -0.018113742 0.14628308 0.16112758 -0.15397866
0002c0 2e 92 a2 3d 90 e1 2c 3b 99 74 64 bc 2d ad cb bd
       0.07938038 0.0026379563 -0.013943815 -0.0994514
0002d0 20 33 37 be 4c 11 2f be dc 52 b4 3d 16 52 07 bd
       -0.17890596 -0.17096442 0.08804867 -0.033037268
0002e0 76 12 d7 bd 25 17 0f be dd 5b c2 bb 78 7c 49 be
       -0.10501568 -0.13973673 -0.005931361 -0.19676387
0002f0 90 33 ca 3b f0 86 bf bd ad b0 04 bc 2c 86 a3 3c
       0.0061706975 -0.09351909 -0.008098763 0.01996144
000300 95 28 c1 3c 52 2f 14 3e 11 73 0c bd 8d 84 f1 bd
       0.023578921 0.14471176 -0.034289423 -0.1179286
000310 f3 b5 51 be c4 01 48 3c 42 91 4e bd 7c 4c 89 bd
       -0.20479564 0.012207452 -0.050431497 -0.06704041
000320 77 81 fb bd a9 ad b2 bc 59 35 84 be d7 bc 84 3e
       -0.12280553 -0.021811323 -0.2582195 0.25925323
000330 d8 4f 0a be 7f b9 44 3e 8f 0d e9 bd 16 0d 3c be
       -0.1350702 0.19211386 -0.11379539 -0.18364367
000340 47 da 15 3c a7 0c 54 bc f8 13 8a bd 83 5f 37 3d
       0.00914628 -0.01294247 -0.0674209 0.04476882
000350 e7 c6 0a be 52 48 73 bb 7b 45 ce bd cf 92 9a bd
       -0.13552438 -0.0037121964 -0.10071846 -0.07547533
000360 ba fa 86 3d a7 58 96 3e 7a b8 a7 3e 1c 43 b6 3e
       0.06590791 0.2936451 0.32757932 0.35598075
000370 d8 7c 7c 3e 6f 52 70 be 55 7c 57 be 9b 75 7b 3e
       0.24656999 -0.23468946 -0.21043523 0.24556582
000380 fc 0d 81 be 55 d9 37 be 7b fa 29 3d 9f f4 0e 3d
       -0.25205982 -0.17954 0.041498642 0.034901258
000390 03 96 a3 3d 26 e5 f9 3d 78 b0 d6 be e3 a8 a1 3b
       0.07987597 0.1220191 -0.4193151 0.004933463
0003a0 d9 d5 01 3c 65 76 08 3e 95 04 16 be f3 57 3b bd
       0.00792452 0.13326414 -0.14650185 -0.04573817
0003b0 fc 81 a1 3e dd b5 c0 bc aa 32 c5 bc b2 0f 32 3e
       0.31544483 -0.02352422 -0.02407201 0.173888
0003c0 87 96 3c bd 1f 81 c7 3c 82 f4 02 3d ba af 27 3d
       -0.04604199 0.024353562 0.031971462 0.04093907
0003d0 8d b9 85 bd 65 63 88 3d ec 9a a2 bb 28 e9 4c 3e
       -0.06529532 0.06659583 -0.004962316 0.20010817
0003e0 13 1a f5 3c c2 93 bf 3d c2 e9 1a 3e 45 63 cd bd
       0.02991966 0.093543544 0.15128234 -0.100287
0003f0 2e 07 b9 3c b8 2c af 3b 6e 89 80 bd 11 07 83 3d
       0.022586431 0.005345907 -0.06276213 0.06397832

evolve.recurrent_layer.weight_hh_l0 f4 [384, 128]
000000 86 19 18 3e 5a 5b c3 bd 90 d9 55 3e 13 c5 43 bd
       0.14853486 -0.09538908 0.20883775 -0.047795366
000010 9a d6 df bd e7 ba fd 3d 81 98 76 3d 37 3b f8 3c
       -0.10929604 0.123891644 0.060204033 0.030301673
000020 54 26 e1 bd e9 61 06 3e f0 74 05 3e 26 19 9a bc
       -0.10993639 0.13123287 0.1303289 -0.01881082
000030 02 da fa 3e 5c 2e a6 bd 1c 92 09 be 73 68 be be
       0.48994452 -0.08114311 -0.13434643 -0.37189063
000040 be f7 b3 3e 9a 73 4a be da 8c 88 be e3 94 94 be
       0.3514995 -0.19770661 -0.2666996 -0.29019842
000050 49 2d d7 3c da 55 b2 3d 46 f8 cc bc 6b 08 8b 3e
       0.02626671 0.08707781 -0.02502073 0.2715486
000060 a3 7a 19 be e3 c1 ae be e8 49 25 be b6 7c 9c 3e
       -0.14988188 -0.341323 -0.16141474 0.30563897
000070 6d 7f 57 3e 65 f2 86 ba 96 06 58 bc 39 82 f6 bc
       0.21044703 -0.0010295628 -0.013185164 -0.030091392
000080 e1 dd 89 bd 86 c0 bb bd 01 3d 1d 3d 0c e4 60 bb
       -0.06731773 -0.0916758 0.038388256 -0.0034315614
000090 0a 87 82 3e 5e 13 ef be 51 0e 94 3e 2c 36 0e 3e
       0.25493652 -0.46694463 0.28917173 0.13887852
0000a0 df 59 b0 bd 96 3c 6f 3e 57 28 b1 be 38 51 d7 bd
       -0.086108916 0.23362955 -0.3460109 -0.10513538
0000b0 55 af db 3d 17 dd 80 3e 35 03 0f 3e 31 a7 2b 3e
       0.10726801 0.25168678 0.13966067 0.16762997
0000c0 67 bf 79 be e5 e7 8e be 00 91 85 3d fa 7c 6a 3e
       -0.2438942 -0.27911296 0.06521797 0.22899237
0000d0 fc a1 a6 3e 28 04 f9 bc 03 b7 d9 bd be 08 6b be
       0.3254546 -0.03039749 -0.1063061 -0.22952554
0000e0 c5 9a 2e 3b 56 d2 39 bd 63 6c a2 be c2 a3 5b be
       0.0026642543 -0.045366608 -0.31723318 -0.21449187
0000f0 67 65 b4 3e 9f ad 2a 3e c9 b8 d6 3e e1 93 b2 3b
       0.35233614 0.16667794 0.41937855 0.0054497574
000100 bd a7 ac bd c2 72 ad bc a7 84 48 3d e8 bd ef bd
       -0.08430431 -0.021172885 0.048954632 -0.117061436
000110 ad c5 1c be 30 62 fb bd 3c 16 bf bc 52 e7 6c be
       -0.15309782 -0.12274587 -0.023326032 -0.23135117
000120 53 a0 1b be eb 31 51 bd 95 2b 42 bd c2 00 29 be
       -0.15197878 -0.051072996 -0.047404844 -0.16504195
000130 b1 d2 87 be 49 7a a9 3e 6c 5b 91 be 36 93 eb be
       -0.26527932 0.3310111 -0.28390062 -0.4601075
000140 e0 3c 75 3e 93 18 93 3e 50 1a 19 be 85 dd 20 bd
       0.23949003 0.28729686 -0.14951444 -0.039273757
000150 e8 7d 04 3f ad df 84 3e a5 4b c7 bd 1d f9 fd 3e
       0.5175462 0.259519 -0.09731225 0.4960412
000160 1b 14 c9 3e c1 70 b1 be b3 80 78 bd 34 08 54 be
       0.39273152 -0.34656337 -0.060669612 -0.20706254
000170 f9 bf 2f be 0f 16 3a be 32 22 51 3e af 06 60 be
       -0.17163076 -0.18172477 0.204232 -0.2187755
000180 b0 bd f6 be 36 49 b2 bd 5d 44 60 3e 75 74 9e 3e
       -0.48191595 -0.0870537 0.21901079 0.30948225
000190 a2 a8 ed bb ff 19 c0 3e ae 3c 82 bd 24 33 f1 3d
       -0.0072527686 0.37519833 -0.0635923 0.117773324
0001a0 de 43 b2 3e d2 11 d3 3e 65 34 20 3e df 4a 47 be
       0.34817404 0.41224533 0.15644987 -0.19462155
0001b0 48 04 3b 3e e8 cf 10 3c 7a 97 9e bd 57 a8 80 bd
       0.18263352 0.008838631 -0.077437356 -0.06282108
0001c0 2a 3b aa be ee c0 6e bd d1 a5 a3 be 2c 13 b6 bd
       -0.33248264 -0.05828946 -0.31962445 -0.088903755
0001d0 cf 3c 81 bd 73 f0 b9 3e 1e d7 c3 bc 49 b2 02 bd
       -0.063104264 0.3631626 -0.023906287 -0.031908307
0001e0 7f c7 5c 3e ac 3c 1e bc b5 64 1a 3e a1 56 3f bd
       0.21560477 -0.00965802 0.15077479 -0.046713475
0001f0 8b 97 56 3e 55 04 c4 3c c2 10 11 3e 72 62 19 bc
       0.20956247 0.023927847 0.14166549 -0.00936185
000200 da c9 f8 3d 52 82 a6 bd 11 d3 45 3d 9d 6a 1a bd
       0.12147875 -0.081303254 0.04829699 -0.03769933
000210 ef d5 e9 bd 2b 83 00 be b5 68 79 3c b6 95 e3 ba
       -0.11417758 -0.12550037 0.015222718 -0.0017363343
000220 a8 e0 4c 3e ab 79 1f bc 8c 00 83 3d 0e fa 3b be
       0.20007575 -0.009733598 0.06396589 -0.18357107
000230 78 50 d6 3d fa 84 41 3e 33 66 73 3d 82 5e f1 3d
       0.10464567 0.18898383 0.059423637 0.11785604
000240 7d de a1 bc d0 c1 bc 3d 99 c0 8a bd 26 01 86 bd
       -0.019759411 0.09216654 -0.06775016 -0.06543188
000250 f2 a3 94 be 10 ff c3 bc 9c 26 8a bd dd 8f 19 3e
       -0.2903133 -0.023925334 -0.067456454 0.14996286
000260 c4 ff b5 3d 8b 63 c0 bc e2 3f 9d 3e e8 ae 7b 3b
       0.08886674 -0.023484966 0.307128 0.0038403813
000270 cb 7d a2 bd 05 82 84 be 40 8a 74 3e 09 23 9c bd
       -0.07934149 -0.25880447 0.23880863 -0.0762387
000280 8b f7 97 be 9d 9d 2c 3d fd 0b 95 be ad 0f 28 3e
       -0.29681048 0.0421425 -0.2911071 0.1641223
000290 00 f9 0b 3e bd 57 5f bd 9a b5 9d 3d 15 36 54 3e
       0.13669205 -0.054527033 0.077006534 0.20723756
0002a0 97 4c 39 be b2 62 81 3d 2d c2 05 3e e3 a7 56 3c
       -0.18095623 0.06317653 0.13062353 0.013101551
0002b0 f3 f8 1a bd c6 ba 84 3e 25 ba c3 3c b9 24 2f be
       -0.037835073 0.25923747 0.023892472 -0.17103852
0002c0 0e 35 3e 3d 79 a7 89 bd 9c f2 9c 3d 79 65 07 be
       0.046437316 -0.06721396 0.076634616 -0.13222302
0002d0 9a 9d a6 be 3e ef a1 bd 12 d3 9f 3d 55 c8 07 be
       -0.32542115 -0.0790696 0.0780393 -0.13260014
0002e0 39 ec 02 be 0e 54 b8 3c ed 6f a6 bb d2 0c 1d be
       -0.12785424 0.022501018 -0.0050792606 -0.15336922
0002f0 b0 50 1b 3e 0b 6c 16 be 26 af 68 bd e4 c9 2a 3d
       0.15167499 -0.14689653 -0.05680766 0.041696444
000300 18 cc 36 3e 2e 62 1f 3e f3 5a 1e bd 4f f5 14 be
       0.17851293 0.15564796 -0.038660955 -0.14546703
000310 95 81 1a be bf 0c 88 bd 27 1f 47 bd 4c b0 a5 3d
       -0.15088494 -0.06643056 -0.048613694 0.080902666
000320 55 62 4b bc 16 53 8e 3d 05 2e 91 be 15 3b 38 3e
       -0.012413581 0.06949441 -0.28355423 0.17991288
000330 62 41 5d be 4e a0 5f 3e 73 74 0a be 19 3c 4a be
       -0.21606973 0.21838495 -0.13520984 -0.19749488
000340 f7 00 b5 3d 49 45 31 3c 12 e0 0a be d5 f6 d0 3d
       0.08838075 0.0108197415 -0.13562039 0.102033295
000350 c5 70 3a bd 11 2b 68 bd fc 01 67 bc b1 3f b1 bc
       -0.0455177 -0.056681696 -0.014099594 -0.021636816
000360 d0 71 22 3e 55 e2 80 3e cf 71 8f 3e 17 0a b0 3e
       0.15863729 0.25172678 0.28016517 0.34382698
000370 3b 1d 61 3e 6d e7 41 be 0f 78 07 be 29 43 86 3e
       0.21983807 -0.18935938 -0.13229392 0.26223114
000380 8b 98 3e be 22 dc ab bd 72 32 5b bd 75 d7 73 bd
       -0.18612878 -0.083915964 -0.053514905 -0.059531648
000390 a0 70 3a 3e 37 05 b7 3d 43 ad a8 be d3 fd 3a 3d
       0.18207026 0.089365415 -0.32944688 0.045652222
0003a0 d4 0d 35 3d 58 65 20 3c 84 0f d0 bd 70 50 20 be
       0.04420264 0.009789787 -0.10159209 -0.15655684
0003b0 3f fc 8b 3e 35 31 99 3d ac 57 d4 3d b5 d2 3e 3e
       0.27340886 0.074800886 0.103682846 0.18635066
0003c0 47 7a f2 bc 6c c0 38 3d c5 35 c6 bd 15 1e db 3c
       -0.029599322 0.045105383 -0.096782245 0.026747743
0003d0 a5 20 01 be dd 29 1b bd 44 eb 05 bd e3 78 4a 3e
       -0.12610109 -0.03788172 -0.03269507 0.19772677
0003e0 50 d8 31 3d 7e 1b d0 3d ba 74 33 3d 1d f7 fa bd
       0.043419182 0.10161494 0.04381249 -0.12254164
0003f0 a3 f3 b3 bd 19 33 2b bd 23 08 8b bd e3 de b0 3d
       -0.087867044 -0.041796777 -0.06788661 0.08636262

evolve.recurrent_layer.bias_ih_l0 f4 [384]
000000 b1 0a de 3e 05 31 05 be e3 99 f5 3e 48 b0 05 3f
       0.43367532 -0.1300698 0.4796897 0.5222211
000010 5a d7 9c 3e 13 82 9e bb d3 ce c9 3d 17 3c 0a 3c
       0.3063305 -0.0048372834 0.09853902 0.008437178
000020 d5 40 5e be be e4 4d 3a 51 82 c6 be 30 b7 0f 3e
       -0.21704419 0.00078542146 -0.387713 0.14034724
000030 7f 1b 36 3d 27 f6 68 bb f0 e1 8f 3c 40 d1 ce 3d
       0.044459816 -0.003554711 0.01756379 0.10098505
000040 9f 96 f8 3b ea 2d c5 bd 37 29 a3 bd 39 11 79 3d
       0.007586315 -0.09627898 -0.079668455 0.06080744
000050 65 1b 1b bd e1 9b c7 3e 86 94 29 3c 35 4f 68 3d
       -0.037867922 0.38986114 0.010350352 0.056716163
000060 ee 86 97 3e df b9 df 3e 1d 9e 30 3d ae 1d 13 bd
       0.2959513 0.43696496 0.04311954 -0.035916977
000070 97 39 4c 3f 4d fd 39 3d 22 83 49 3d 34 e2 68 3e
       0.79775375 0.045407582 0.049197324 0.2274254
000080 e4 9c 9a bc 25 49 41 3d 45 f2 34 3c 4c b4 19 3d
       -0.01887364 0.047188897 0.01104409 0.03752546
000090 22 70 36 bd 80 2f 82 bd 1c b8 49 3d 3d e0 89 bc
       -0.044540532 -0.06356716 0.049247846 -0.016830558
0000a0 59 55 50 bd cb e1 19 bd 63 08 c6 3e a1 01 37 be
       -0.050862644 -0.03756885 0.38678274 -0.17871715
0000b0 e6 d3 81 bc 59 c5 a5 3d 28 69 d1 3c 06 e8 c4 bd
       -0.015848111 0.08094282 0.025562838 -0.096145675
0000c0 e4 ff 00 bd 99 76 ff 3d dd 34 5b 3d e3 0f b8 bc
       -0.031494036 0.124737926 0.05351721 -0.022468513
0000d0 6f 9d fa bc cf 70 94 3e 09 c4 28 3e b8 b7 89 bd
       -0.030592648 0.28992316 0.16481031 -0.06724495
0000e0 9a b7 6f bd 2b ad 23 be dc 72 41 bd 3f 1c b4 bd
       -0.058524705 -0.15984027 -0.04722868 -0.0879445
0000f0 11 e9 c1 bb 3f d5 45 bd 6e 2b 38 bd c0 d2 4a 3d
       -0.0059176763 -0.04829907 -0.044963293 0.049517393
000100 d4 4c 61 bb 48 b4 e1 3e 53 8d 0a 3e b4 6a 28 3e
       -0.0034378069 0.44082856 0.13530473 0.16446954
000110 4b c2 b9 3c b0 f7 5d bd c7 28 f6 3e e8 11 20 3f
       0.022675654 -0.05419129 0.48077986 0.6252732
000120 5f 35 86 3e 78 4a 54 bd 03 ce bd 3d 86 e6 90 bd
       0.26212594 -0.05182883 0.09267809 -0.07075219
000130 88 c3 b4 39 17 c2 09 3e da 68 77 3d 57 7e 93 3c
       0.00034477958 0.13452946 0.06040273 0.01800458
000140 eb c1 68 bc 8d 13 62 3d 06 61 02 3d b5 af a7 3e
       -0.01420639 0.055194426 0.03183081 0.3275124
000150 e0 8a 98 3c 03 b3 f4 3e 9c 8a 0e be c3 ab 3e 3e
       0.018620908 0.47792825 -0.13920063 0.1862021
000160 c3 78 40 3d b0 4d 2c 3d fc 6c 14 3d a5 a2 0b 3e
       0.046990167 0.042066276 0.036236748 0.13636263
000170 00 a2 4d bd c6 a2 2d 3d 0d bf 24 bd ac 3f 9c 3d
       -0.050203323 0.04239156 -0.040221263 0.07629332
000180 1a d9 b0 3d 43 87 d0 3d b5 25 27 3c ff f1 05 be
       0.08635159 0.10182049 0.010201861 -0.13080595
000190 58 6f f4 3c 07 64 25 3d 2d da 3a 3e 03 ca da 3d
       0.02983825 0.040378597 0.1824729 0.10683062
0001a0 7d 2f ff bd 1e 18 3c bd 35 75 01 bd 13 30 b2 bc
       -0.124602295 -0.045921437 -0.031605918 -0.02175144
0001b0 f4 06 8e bd 2c b5 32 3d 32 30 47 3f e0 8b e9 bd
       -0.0693492 0.04362981 0.77807915 -0.11403632
0001c0 1a cf 70 3e 46 bc 30 3e ad 04 ce 3e c7 37 e7 3c
       0.23516503 0.1725932 0.40237942 0.028224839
0001d0 26 49 35 3d f1 2d 20 bd 36 05 8e bd 08 80 78 bd
       0.044259213 -0.039106313 -0.06934588 -0.060668975
0001e0 e0 1b cc 3d ca 6a 24 bc 62 0d 7d 3e 39 20 ef 3d
       0.09966254 -0.010035226 0.24712136 0.11676068
0001f0 56 6b c1 bd 26 31 cf 3d fa ff 22 bd f9 4c 4d 3c
       -0.09444301 0.10116796 -0.0397949 0.012530559
000200 73 ad 1a bf f0 cc 1c bc ed 56 03 bf f2 52 ef be
       -0.6042091 -0.009570345 -0.51304513 -0.4674297
000210 94 17 85 bd 8f a4 ed bd 74 c1 09 bd 8e 76 c8 b9
       -0.06498638 -0.11603653 -0.033631757 -0.00038235303
000220 19 4c 1f 3e 82 cb dd bc 90 78 36 3e 9a a9 20 be
       0.15556373 -0.02707458 0.17819428 -0.15689698
000230 97 a7 bd bc a2 59 c9 3d 13 93 09 3d 2c 14 a1 bc
       -0.023151202 0.09831549 0.033587527 -0.019662939
000240 ea 86 bc 3c c2 d1 b5 3c cc c5 9b 3d f4 07 0b be
       0.02301355 0.022194747 0.07606086 -0.13577253
000250 04 80 ee 3d fa ce c4 be ab b9 2b 3e f7 72 30 be
       0.11645511 -0.3843916 0.16770045 -0.17231356
000260 b2 cc bc be 23 9d d5 be c7 4e d4 3c 03 9f 30 bc
       -0.3687492 -0.41721448 0.02591647 -0.010780099
000270 12 b7 a6 be a1 60 83 3c 11 7f 8a 3d b7 05 a6 be
       -0.32561547 0.016037287 0.06762517 -0.32426235
000280 67 d0 3c 3c f8 4f f3 bc b9 8a d5 bc 39 22 b9 3c
       0.011524296 -0.029701218 -0.026067125 0.022599326
000290 d5 d3 eb 3d 04 64 b2 3d 97 94 96 bc 81 2d 83 bc
       0.11515013 0.08710483 -0.0183814 -0.016012909
0002a0 94 42 7f 3e f7 85 0d 3e 87 88 c5 bd 8d 40 19 3e
       0.24927741 0.13820635 -0.09645181 0.1496603
0002b0 05 10 dd bc e6 53 7d 3d 6f a6 76 3d 13 63 8b bc
       -0.026985178 0.06184759 0.060217317 -0.017015016
0002c0 04 5f 8f bd 9d 39 a7 be 3e fc 61 3d f1 bf 67 3d
       -0.07000545 -0.32661143 0.055172198 0.056579534
0002d0 98 26 a2 bd 3b 63 02 bf 57 2d 4c 3c 31 e9 b2 bd
       -0.079175174 -0.50932664 0.012461982 -0.08735884
0002e0 96 3c ad 3d de 60 43 3d a9 7d c7 3d 64 27 a5 3d
       0.084588215 0.0476998 0.09740765 0.08064154
0002f0 df 61 6a 3d d1 99 2b bd 83 b9 82 bd 37 c0 b7 3d
       0.057222243 -0.041894738 -0.0638304 0.08972209
000300 42 84 8f bd 65 f6 02 be 29 e7 d5 3c 82 53 70 be
       -0.07007648 -0.12789305 0.026111202 -0.23469356
000310 89 33 5a 3e 9c 4a 37 bd bc de 33 bf 99 a1 32 bf
       0.21308722 -0.044748887 -0.7026174 -0.6977783
000320 41 55 89 be af 1f 78 bd 5b 50 07 bd cb bb 12 be
       -0.26822856 -0.06057709 -0.033035617 -0.1432945
000330 ad 06 db 3d ae 78 25 be b5 69 93 bd 99 8b 3b bd
       0.10694633 -0.16159317 -0.071978964 -0.045787428
000340 38 77 61 bd 9e db e5 bb 4c a3 cc bd 6b b0 82 be
       -0.055045336 -0.007014706 -0.09992084 -0.2552522
000350 8b 19 66 bc 81 75 4a be 51 4f 04 3e 91 22 7c be
       -0.014044176 -0.19771387 0.12920882 -0.24622561
000360 33 d1 b5 bd 50 0b e2 3c 49 7a d0 bd 77 92 ab 3c
       -0.08877792 0.027593285 -0.10179574 0.020943863
000370 b0 62 46 bd 96 77 38 be 39 69 ac bd a0 99 a6 bd
       -0.04843396 -0.18014368 -0.08418507 -0.081347704
000380 5d 42 f6 3d da 19 2b be 55 c0 82 3d cc be ad 3c
       0.120243765 -0.1670908 0.06384341 0.021209143
000390 d7 f1 c1 3d 6a ae 3b 3d 26 35 84 be 7e 30 e1 3c
       0.094699554 0.04582063 -0.258218 0.027488943
0003a0 27 61 5a 3d 58 65 3c bb 2a c7 83 bd 63 99 cd bd
       0.053315308 -0.002874693 -0.06434472 -0.10039022
0003b0 e2 2c e6 3d db 73 e6 3c 01 23 7d bf 97 38 df 3d
       0.112390295 0.028131416 -0.98881537 0.108994655
0003c0 fb f6 f0 bd 90 3b 0f be d7 a1 cd be 50 d4 d2 bb
       -0.11765858 -0.13987565 -0.40162537 -0.006434001
0003d0 af 47 34 bd 2e 1d 8f bc 03 24 a4 bd 43 26 6c bb
       -0.044013675 -0.017469969 -0.08014681 -0.0036033548
0003e0 e1 13 f3 bd a6 20 54 bd d8 3d 7b 3d 85 f9 a2 bd
       -0.11869026 -0.05178895 0.061338276 -0.07957748
0003f0 38 13 3f 3e 27 66 6d bc b1 91 5a bc 28 48 85 3c
       0.18659675 -0.014489687 -0.0133404 0.016269758

evolve.recurrent_layer.bias_hh_l0 f4 [384]
000000 e4 de f0 3e d4 43 c5 3b 8b 65 fd 3e 94 f1 b9 3e
       0.47045052 0.0060200486 0.49491534 0.36317122
000010 dd 58 b7 3e c5 fd d2 bc 79 0d 3f 3d 5e e1 3b bc
       0.35809985 -0.025755772 0.046643708 -0.011467306
000020 89 ee 3d be 90 ac 9c bd 91 7b b6 be f6 ef bf 3d
       -0.18548025 -0.07650101 -0.3564115 0.09371941
000030 14 fc b6 3c ef c4 86 bd d0 af 18 bd a2 9f 45 3d
       0.022336997 -0.06580531 -0.037277043 0.04824794
000040 2a 72 db bd 6c 97 2c be 4a 49 f0 bc 28 ab b5 3d
       -0.107151344 -0.16854638 -0.029331822 0.08870536
000050 ce c3 d1 bd 39 2e ad 3e d4 b1 1f ba 1c 48 a0 3d
       -0.10242425 0.33824328 -0.0006091867 0.07826254
000060 62 79 bb 3e 2e 9f e0 3e b9 fd 02 bd 88 62 9b 3d
       0.36616045 0.43871444 -0.03198025 0.07587153
000070 2d 93 73 3f 82 c6 5f 3d d5 30 b4 bc 8e 40 84 3e
       0.9514645 0.05463267 -0.021995941 0.258305
000080 c3 2b 3b 3c 90 2a 9a 3d e6 a6 6b bc 2d 4c 89 3d
       0.011424008 0.075276494 -0.014383053 0.067039825
000090 45 ba 76 3c 43 87 1b bd 8d 7a 51 3c 3f 35 55 bd
       0.015059059 -0.037970793 0.012785566 -0.052052733
0000a0 88 d7 a4 bd 1c 43 cb bd 88 9c c4 3e 41 57 0e be
       -0.08048922 -0.099249095 0.38400674 -0.13900472
0000b0 e8 fb 84 bb 24 c8 a0 bd ba ab fd bd 51 e5 88 3d
       -0.00405835 -0.07850674 -0.1238627 0.06684364
0000c0 fc 07 4a bd 20 2f 11 3e 9f d5 ae bc 5e d1 a7 3d
       -0.04932402 0.14178133 -0.021342097 0.081942305
0000d0 74 69 9f bd 1c 10 77 3e fc 0b 05 3d 14 20 81 3a
       -0.077837855 0.24127239 0.032482132 0.0009851479
0000e0 78 dc 60 3d a5 6b bc bd 48 45 85 bd b5 2b 44 3d
       0.054897755 -0.09200219 -0.06507355 0.047893245
0000f0 ab 70 5e 3d 4e 7a 63 3d 96 f8 85 bd 72 96 2d 3c
       0.054306667 0.05553656 -0.06541555 0.010594951
000100 6d 3a 5b 3d 11 c3 ca 3e 86 8c f5 3d cc 0c 3a 3e
       0.053522516 0.3960195 0.11989693 0.18168944
000110 be a8 a8 3b b6 11 a3 bd f2 4a e3 3e e1 cf 10 3f
       0.0051470688 -0.079623625 0.44393116 0.565672
000120 02 3f bd 3e 87 43 2b bd 7e dc 57 bd 0b 1e 2d 3c
       0.36962134 -0.041812446 -0.052700512 0.010566245
000130 6a 3b 32 3c 3a b8 16 3e 39 f4 e4 3d bf 7b 7b 3d
       0.010878423 0.14718714 0.11179394 0.06139731
000140 d1 b4 ae 3c 25 b3 85 bd 34 95 51 3d 09 8b d4 3e
       0.021326454 -0.0652831 0.05116768 0.41512325
000150 ad b2 9b 3d e4 70 ef 3e 12 63 8b bd 79 f4 95 3e
       0.07602439 0.46765816 -0.068060055 0.2928808
000160 0d 56 56 bd fd 9f d5 bd 5e b6 11 bd 41 e8 03 3e
       -0.05232816 -0.10430906 -0.03557431 0.12881567
000170 31 5b 75 3b 2a e4 e5 3d 40 5f b4 3c 14 e9 6a 3d
       0.0037438388 0.112251595 0.022018075 0.057351187
000180 b2 6c fb 3d f8 a9 7f 3e d6 bc 3a 3d 87 94 1d be
       0.12276591 0.24967182 0.045590244 -0.1538869
000190 14 eb 59 3d 46 b0 ee bd 7a 3a 8a 3e db 17 7d 3d
       0.053202704 -0.11654715 0.2699774 0.06179033
0001a0 5d 57 80 bc 96 14 3e 3c de 58 60 3d c3 72 70 bd
       -0.015666658 0.011601588 0.05477225 -0.058703195
0001b0 ac a1 5f 3d ce d6 21 3d 08 7b 5b 3f b2 05 78 bc
       0.05459754 0.039511494 0.85734606 -0.015138077
0001c0 c9 20 15 3e 0d ec 1e 3e 37 b8 c4 3e 9a e6 8e bd
       0.14563288 0.15519734 0.38421795 -0.069775775
0001d0 cc b9 7e 3c c9 c0 14 bc 2e f2 65 bd 0a a0 d9 bd
       0.015547227 -0.009079167 -0.056139164 -0.10626228
0001e0 dd 79 ad 3d 40 d9 b7 bd 09 2a 56 3e ba 0f 23 3e
       0.08470509 -0.08976984 0.20914473 0.15923968
0001f0 fe 12 32 be 22 40 63 3d 01 84 ad 3c b4 1a 53 bd
       -0.17390057 0.055481084 0.021181108 -0.051539138
000200 4a 3e f4 be 26 5b 52 3c 67 00 17 bf c3 66 09 bf
       -0.47703773 0.012839114 -0.5898499 -0.53672427
000210 44 ba 22 be 96 51 bd bd c9 8d 63 3d 09 ec 44 bc
       -0.15891367 -0.09244077 0.05555514 -0.012019166
000220 30 d8 ea 3d 63 98 9e bc ef f1 48 3e fe 7a d4 bc
       0.11467016 -0.019359773 0.1962354 -0.025937553
000230 b9 73 7a bb 4a bb 5e 3d 6b 13 2d bd cc 85 d1 bd
       -0.0038215949 0.05437783 -0.042254847 -0.10230598
000240 20 97 90 3b 12 33 d1 3d 76 4e 50 3e bc 78 27 be
       0.0044125468 0.10214819 0.2034243 -0.1635465
000250 b5 ee 95 3d ab f2 b7 be 1b 69 1c 3e c5 31 60 be
       0.073209204 -0.35927328 0.1527447 -0.21893986
000260 78 75 9c be e4 89 be be 49 18 9d bb 1d 88 b2 bd
       -0.30558372 -0.37214577 -0.004794155 -0.08717368
000270 d1 ef 50 be 35 48 a6 3c 9d 6b 68 3d bf c0 b2 be
       -0.20403983 0.020298103 0.056743253 -0.3491268
000280 84 ad 87 3d 11 63 90 bd 9c 59 e5 3c e1 bc 25 3c
       0.06624892 -0.070501454 0.02799683 0.010115833
000290 b8 8f 4a 3d 6e 7f 0f 3d 6e d7 2b bd de df 18 bc
       0.049453467 0.035033636 -0.041953497 -0.009330718
0002a0 60 13 6d 3e 9a 07 88 3d e6 cb 4e be 7a 98 1c 3e
       0.23151922 0.06642075 -0.20194969 0.1529254
0002b0 2f ca 86 bd 86 f9 29 bc 80 14 bf 3d ed f9 2b 3b
       -0.06581532 -0.010374432 0.09330082 0.0026241497
0002c0 d5 2c 54 bd 06 a6 b8 be eb c2 0b bc e8 8b 90 bd
       -0.051800568 -0.36064166 -0.008530359 -0.07057935
0002d0 3b c2 31 bd dc d7 d6 be 44 45 7a bc 3e 3b 4c bd
       -0.043398123 -0.41961563 -0.015275303 -0.049861185
0002e0 29 59 a7 3c 57 0a ac 3d 26 d6 b5 bc 81 ee 09 3e
       0.020428257 0.0840041 -0.02219684 0.13469888
0002f0 1b 8a 17 3c b4 29 a1 bb a1 cf 44 3d 03 bd 38 3d
       0.0092492355 -0.0049183015 0.048049573 0.04510213
000300 60 66 b9 3a 9e 99 58 be 52 a8 c7 3c 0c 5a bb be
       0.001414489 -0.2115235 0.024372254 -0.36592138
000310 45 2f 5b 3e 70 90 35 bd bd 78 28 bf 23 01 48 bf
       0.2140475 -0.0443272 -0.6580923 -0.78126734
000320 61 07 a6 be fb 95 7e 3d b4 fd 57 3d 65 4e 24 be
       -0.32427505 0.06215475 0.052732185 -0.1604553
000330 65 14 34 3d a8 18 b4 bd d3 24 0c bd 4b fb 3b 3d
       0.043964762 -0.08793765 -0.034214806 0.04589395
000340 6a 1d 1b 3c b6 b3 16 3c 9d f5 42 bd c4 25 40 be
       0.009467462 0.00919812 -0.047597516 -0.18764406
000350 3f e6 35 bd 42 ac 32 be 1b 40 2a 3e f2 a8 a9 be
       -0.044409033 -0.17448524 0.16626017 -0.33136708
000360 f8 4b 80 3d f6 78 75 bd 1d 4c b4 bd b6 45 f4 bd
       0.0626449 -0.05992981 -0.0880358 -0.11927359
000370 52 e6 bd 3c f0 e7 35 be fa b2 bc bc 7a 57 8e 3d
       0.023181114 -0.17764258 -0.023034561 0.069502786
000380 f1 5c de 3d 92 ae 58 be 54 55 1a 3b 78 8e b0 3d
       0.10857571 -0.21160343 0.0023549395 0.08620924
000390 0d ac 27 3d cb af 52 bd 76 a4 ca be fb 24 f8 3d
       0.040935565 -0.05143718 -0.395786 0.121164285
0003a0 e4 f6 e8 3d 36 d5 a8 bc d5 c6 9c bd 8a cf 09 bc
       0.11375216 -0.02060948 -0.07655112 -0.008411298
0003b0 5d 3a 8e 3d 32 24 54 bd 34 36 77 bf 6c aa 86 3d
       0.06944726 -0.05179233 -0.9656708 0.06575474
0003c0 f0 8c 1e be f5 62 54 be 01 e3 c0 be 68 c5 40 bd
       -0.15483451 -0.20740874 -0.3767319 -0.04706326
0003d0 5c 47 94 bd 97 d9 95 bc 66 7d 80 bd ef 8a a1 bc
       -0.07240173 -0.018292231 -0.06273918 -0.019719569
0003e0 f0 cb 92 bd 38 7a c3 bd 14 3d 89 3d 85 98 d6 bd
       -0.07167804 -0.09544796 0.06701103 -0.104783095
0003f0 df 9b b6 3d e9 5c aa bc 1c 0f 3e 3d c3 ab da 3d
       0.08916449 -0.020796256 0.04640113 0.10677292

post.weight f4 [2, 128]
000000 79 59 db be 7a 55 00 bb ce 66 33 3f 24 2c f9 3d
       -0.428417 -0.0019582198 0.7007874 0.12166622
000010 29 40 d0 3c 74 0f 6b 3d 6d f7 f7 bd 49 6b 37 3d
       0.025421219 0.057387784 -0.121077396 0.04478005
000020 d0 26 d6 bc 3a 04 c0 bc 87 32 5f bd 4b 00 32 3e
       -0.026141554 -0.023439515 -0.054491546 0.17382924
000030 5f d7 94 bd da 97 38 3d 4a 98 8a be a2 e4 11 3e
       -0.07267641 0.045066692 -0.27069312 0.14247373
000040 57 eb 85 3d 1b 37 9e 3c ed 07 d6 bc 43 5b ad bd
       0.06539028 0.019313386 -0.026126826 -0.084646724
000050 83 ac 97 bc 85 a6 9d 3e d0 d6 df 3d 18 b8 51 be
       -0.018514877 0.30791107 0.10929644 -0.20480382
000060 c1 8c 46 be 23 ff d4 be 0f 9d 55 bd 1a 06 45 bd
       -0.19389631 -0.41600904 -0.052151736 -0.048101522
000070 1b bb 94 3e 1e a2 22 bd 03 c0 8b bd ff af 80 be
       0.29049 -0.03970539 -0.06823733 -0.25134274
000080 dd 76 e3 3d be 2f 40 3e 95 6a 13 3d 72 71 d9 3d
       0.11106656 0.18768212 0.035990316 0.10617341
000090 40 75 71 3d ec 41 0d be 56 63 f3 3c 85 c4 c0 bb
       0.05894971 -0.13794678 0.029710453 -0.005882802
0000a0 23 36 41 3c 5a 0b 53 3d 93 8e 0a 3e b7 b8 11 3e
       0.011792692 0.051524498 0.1353095 0.1423062
0000b0 0d e7 10 3d b9 53 34 3d 25 96 fa bb 24 72 f4 bb
       0.035376597 0.044025157 -0.007647293 -0.0074598957
0000c0 e7 dc a9 bd 0d 85 12 3e 62 71 83 3d ba db 6e bd
       -0.08294087 0.14308567 0.064181104 -0.058315016
0000d0 ca 36 85 3d 5b 5d d9 3e 92 9c 3b be 36 a2 5c bd
       0.06504591 0.42454037 -0.18321446 -0.053865634
0000e0 ac 53 73 3d b6 7d 05 3d bc 34 b2 39 ae ab 96 bd
       0.059405968 0.03259059 0.00033990096 -0.07356964
0000f0 79 6f 27 3b ee a8 87 bc 31 c0 69 3d 8b 3c 4c 3d
       0.002554862 -0.016560044 0.057068054 0.049862426
000100 8d 17 d6 bd 4e a5 3f 3e 48 84 cf 3d bb 37 83 3e
       -0.10453711 0.18715402 0.101326525 0.25628456
000110 2c 51 b6 3d 3d f4 89 bd 3c 0e b8 3e 06 dd 51 3f
       0.08902201 -0.06736038 0.3594836 0.8197788
000120 f1 84 fe bd e0 0c 3e bd 5d b4 12 be 1e 91 5b bd
       -0.124277 -0.046398997 -0.14326616 -0.05360519
000130 78 10 dc 3d 42 e0 53 be b6 d1 1a be b8 13 4d 3d
       0.10745329 -0.20691016 -0.15119061 0.050067633
000140 c7 db 23 bd 7d 49 e3 ba 27 12 5b 3e 8c b1 37 be
       -0.040004518 -0.0017340627 0.21393643 -0.17938823
000150 8b b9 be bc 51 07 80 3e 3b 12 14 3d 0b dc a1 3e
       -0.023281833 0.25005582 0.0361502 0.31613192
000160 70 46 e8 3d 5f 9c 75 bd 0c df 4f 3d 3f ea 80 bd
       0.1134156 -0.05996358 0.050749823 -0.06294679
000170 72 7e 0b be ce dc f0 3c 81 ed 59 3d a8 ae 26 bd
       -0.13622454 0.029402163 0.053205017 -0.04069391
000180 14 ef a8 bd d5 fc 71 be c1 d2 ef 3d 80 44 5e 3c
       -0.082487255 -0.23631604 0.1171012 0.013566136
000190 24 37 2a 3d b6 fb 5b 3a aa 58 8f 3e 5e b5 06 3c
       0.041556492 0.0008391695 0.27997333 0.008221952
0001a0 48 ed c4 3a 0d 5d 96 3c 1b 5c a3 3b 3c 17 0d 3e
       0.0015024329 0.018354917 0.004985345 0.13778394
0001b0 85 ca 33 3d 58 7e a6 bd 16 65 94 be 9b 6c 53 3c
       0.04389431 -0.08129567 -0.28983372 0.0129043115
0001c0 98 7e f2 bd f0 87 eb bd 52 ef 09 be 9f 6b 0d 3e
       -0.11840552 -0.115005374 -0.134702 0.13810585
0001d0 e8 de 09 3e d2 37 8a 3a 78 30 af 3d 9b 52 71 3d
       0.13463938 0.00105452 0.085541666 0.05891667
0001e0 b9 98 8a 3e cd 1c 24 bd 61 50 82 bd 96 cc 47 be
       0.27069643 -0.04006653 -0.06362987 -0.19511637
0001f0 ba b5 dc 3c 1c cd e3 bd 6e 49 3b bd d1 9e 35 bd
       0.026942123 -0.11123106 -0.045724325 -0.044340912
000200 a9 65 cf be 33 5c 0f bd 56 cf 3d 3f c1 77 0b 3e
       -0.40507248 -0.035000037 0.74144495 0.13619901
000210 11 78 0c 3e 4e 2e 20 3d f6 a7 04 be dc 45 d8 bd
       0.13717677 0.03910666 -0.12954697 -0.105601996
000220 83 a0 55 3a 58 76 2a 3d 02 03 05 be bd 8a 19 3e
       0.0008149223 0.041616768 -0.12989429 0.1499433
000230 94 b0 49 3d 5e cb 10 3c bc 39 cf bd 27 24 b2 3d
       0.049240664 0.008837549 -0.10118434 0.08698302
000240 83 47 65 bd be 88 ca 3c cc fc 85 3d 12 c9 11 bd
       -0.055976402 0.024723407 0.06542358 -0.035592146
000250 20 1c fb 3d 94 c2 58 3e db d2 8b 3d aa 7d 51 be
       0.12261224 0.21167976 0.06827327 -0.20458093
000260 7d 6d 50 be 3e bb db be d2 d6 8d bd 4a aa 9b bb
       -0.20354266 -0.42916292 -0.06925739 -0.0047505246
000270 38 7c ba 3e e1 72 c2 b8 e6 8b c5 bd 73 8c b3 be
       0.36422896 -9.272039e-05 -0.09645824 -0.35068092
000280 14 9a 76 3d 7a 07 ff 3d e1 b8 b7 3d 28 12 e7 bc
       0.060205534 0.12452598 0.0897081 -0.0282069
000290 f5 0a 98 bd 2e 1a 1e be a1 bf 2f 3a af 68 87 bc
       -0.07423965 -0.15439674 0.0006704275 -0.01652941
0002a0 18 91 b2 bd b6 07 51 3d d3 68 52 3e 80 c3 81 3d
       -0.08719081 0.051032744 0.205478 0.06336117
0002b0 f4 09 c9 bc a3 29 9b bc 03 36 9b bc 53 59 00 3d
       -0.024540879 -0.018940752 -0.018946653 0.031335186
0002c0 b4 89 8d 3d d6 bc 20 3e a7 bb 2c 3c d3 95 32 3d
       0.069110304 0.15697035 0.010542787 0.043599915
0002d0 8c 61 92 3d 88 89 02 3f b8 cf dd bc 25 8b 30 3d
       0.07147512 0.50991106 -0.027076587 0.04310145
0002e0 6f dc b1 bd 4a 85 9d 3c 95 d5 1b 3e 7d 64 51 bd
       -0.086846225 0.019228596 0.15218194 -0.051121224
0002f0 56 e4 88 3d e1 8d 89 bb 4a 0f 83 3d 65 1b 84 3d
       0.066841766 -0.0041978215 0.063994005 0.064505376
000300 80 38 1d bd f8 ee 73 3e 77 b1 0c 3e c4 01 1e 3e
       -0.03838396 0.23821628 0.13739572 0.15430361
000310 02 71 03 3e cf 0f eb 3c 03 ae a8 3e 7c a5 52 3f
       0.12836078 0.028694062 0.3294526 0.8228376
000320 d8 94 a4 ba 84 5e dd 3d 46 29 cd bd 7c 85 be bb
       -0.0012556566 0.10809043 -0.10017638 -0.0058142524
000330 3f fe e1 3d d7 b4 1f be a1 0e 43 be 05 64 6f 3c
       0.11034822 -0.15596329 -0.19048549 0.014611249
000340 fa a9 fa bd 97 5f 0e 3d 94 17 b7 3d 8e 99 89 be
       -0.12239452 0.03475913 0.08940044 -0.26874965
000350 1f d5 58 3c 2a b1 4d 3e cc ce cc bc 49 98 77 3e
       0.013234406 0.20087114 -0.025000952 0.24179186
000360 5a c6 5d 3d 03 5e 45 3d 71 1f 41 bd 89 93 ae bd
       0.05414424 0.04818536 -0.047149125 -0.08524234
000370 31 d4 e6 bd b5 92 2e 3e 49 98 cc 3c e6 19 52 3c
       -0.11270941 0.17048152 0.024974959 0.0128235575
000380 50 a7 04 be a5 1d 7f be d4 4d a1 3d 4e cf 4b 3b
       -0.1295445 -0.24913652 0.07876173 0.0031098905
000390 33 9d e9 3d 15 fd be 3c 63 38 71 3e 5f 6f c0 bc
       0.114069365 0.023314038 0.23556666 -0.023490606
0003a0 42 31 85 3c 33 56 23 bc e5 cb 78 3c cd 98 0a 3d
       0.01625884 -0.009969282 0.015185331 0.03383713
0003b0 26 56 d9 bd 48 a0 84 bd d6 fe 90 be a7 e0 b3 3d
       -0.10612135 -0.06475884 -0.28319424 0.087830834
0003c0 d2 31 e6 bd 24 3e bb bd 46 2b 44 be d2 e7 ac 3d
       -0.11239971 -0.09142712 -0.19157133 0.08442654
0003d0 6e 86 ce 3d 19 6e 01 bd 2a 72 9b bd db c0 28 3c
       0.10084234 -0.031599138 -0.075901344 0.010299887
0003e0 45 69 2a 3e d2 f0 05 3d b8 7c e2 bd 4b 81 ee bd
       0.1664172 0.032700367 -0.110589445 -0.116457544
0003f0 7d ff 7b bd 0a 5b c6 bd 4e f7 d7 bd 7b a4 3a 3d
       -0.06152295 -0.09685333 -0.105452165 0.045567017

post.bias f4 [2]
000000 1c fd e8 bf 5a bc da bf
       -1.8202243 -1.708873
