trained_models/evolvegcn_reddit-title.pt (torch, 656286 bytes, 9 tensors)

pre.weight f4 [152, 1]
0	0x40093eb6	2.1444526
1	0xbf899d9d	-1.0751225
2	0xbffe9d5f	-1.9891776
3	0x3fc37d9d	1.5272709
4	0xbfa12d6e	-1.2591989
5	0x40654489	3.582308
6	0x404298d9	3.040579
7	0x408a5cfb	4.32385
8	0xc068438d	-3.629123
9	0x405a3f2f	3.4101064
10	0x3fba58ae	1.4558313
11	0xbe3e5f12	-0.18590954
12	0xbf336118	-0.7007003
13	0xc0273cd3	-2.6130874
14	0xbfebe99c	-1.8430667
15	0xbe457fed	-0.19287081
16	0x3ffb4def	1.9633158
17	0xbf65c696	-0.89756143
18	0x3f9139dd	1.1345783
19	0xc0114567	-2.269861
20	0xbf1d3606	-0.6141056
21	0x3eca438f	0.39504668
22	0x3f933cf2	1.1502974
23	0x3f9a8074	1.2070451
24	0x3f424417	0.75885147
25	0xbe98cee3	-0.29845342
26	0x3e0f0930	0.13968349
27	0xbf7f708d	-0.99781114
28	0xbfb3ec43	-1.4056476
29	0x3fa34ad1	1.2757207
30	0x3ef20c35	0.47274938
31	0x3faf8731	1.3713132
32	0x3fc438e4	1.5329862
33	0x40ad79d9	5.421124
34	0xbfd6db08	-1.6785593
35	0x402b84fd	2.679992
36	0xc0bd6e21	-5.9196935
37	0xbfb55062	-1.4165156
38	0xc09d5141	-4.9161687
39	0x40165c11	2.3493693
40	0x3ec54915	0.3853232
41	0xbf814a8d	-1.0100876
42	0x3fde1e3c	1.7352977
43	0xbf898f40	-1.0746841
44	0xbebd6364	-0.36989892
45	0x402722bf	2.6114957
46	0xc0ce2e07	-6.4431186
47	0xc057fb6d	-3.3747208
48	0x4069c5cf	3.6526983
49	0xbf774384	-0.96587396
50	0x40020fce	2.0322146
51	0x4014b362	2.3234487
52	0x3c115c55	0.008872111
53	0xbfc07208	-1.50348
54	0xbfba4341	-1.4551774
55	0x3f27f89e	0.65613735
56	0x3fe36325	1.7764632
57	0x406bdcc1	3.6853487
58	0xc01d45d7	-2.4573877
59	0xbedad711	-0.42742208
60	0x40796827	3.896982
61	0x3fb0c15e	1.3809011
62	0x3fef6b91	1.8704702
63	0xbfd2cc30	-1.6468563
64	0x3fb112c6	1.3833854
65	0xbfc0a39e	-1.5049932
66	0xbe485dcc	-0.1956703
67	0x406f10d6	3.7354026
68	0xbf1f807f	-0.62305444
69	0x400e4c1f	2.223396
70	0x404295e0	3.0403976
71	0x3ff2e9a9	1.8977557
72	0xbf0e15ce	-0.5550202
73	0x3fd4a599	1.6613036
74	0xc0455644	-3.0833902
75	0xbfda6567	-1.7062196
76	0x3f0c7059	0.5485893
77	0x407408a8	3.8130283
78	0x3e769cbf	0.24083231
79	0xc06dde98	-3.716711
80	0x3f01edf1	0.50753695
81	0x3f61c759	0.88194805
82	0x3f987d27	1.1913193
83	0xbff5ddbe	-1.9208295
84	0xbff95c64	-1.948132
85	0xc05d27b2	-3.4555478
86	0x4031c73d	2.7777855
87	0xc065aa11	-3.588505
88	0x3e94c7fe	0.29058832
89	0xbf05ebee	-0.52313125
90	0x4002556b	2.0364635
91	0xbd539af2	-0.05166144
92	0x4020eb1d	2.5143502
93	0x3d1bdc61	0.038051967
94	0xc0195969	-2.3960822
95	0x3fcf3d00	1.6190491
96	0x40b0c2df	5.523788
97	0x3ee6e7e8	0.45098805
98	0x3f6eac5e	0.9323176
99	0xbf2c8989	-0.6739736
100	0x3f0cbe01	0.5497742
101	0x3e646898	0.22305524
102	0xbf7dc66c	-0.9913089
103	0xc0623f39	-3.5351088
104	0x3f161c7c	0.58637214
105	0x40a2aa0c	5.0832577
106	0x3e151bd4	0.14561397
107	0xbf8b2fdb	-1.0873979
108	0xbfbb2dbb	-1.4623331
109	0xbe057cb8	-0.13035858
110	0x3dd44549	0.103647776
111	0x401e447a	2.4729295
112	0xbd8b71e2	-0.06808831
113	0xbfb4cf3c	-1.4125743
114	0xbed540c4	-0.41650975
115	0x3fca9060	1.582531
116	0xc017f39a	-2.3742433
117	0xbfa1675b	-1.2609667
118	0xbf9a72b3	-1.2066253
119	0xbf00c941	-0.5030709
120	0x400cdf2c	2.2011213
121	0xbf019853	-0.50623053
122	0x3f8f0148	1.1172266
123	0x3fc71bdd	1.5555378
124	0x3fc7c4e2	1.5606959
125	0xc0ad557f	-5.4166865
126	0x4092b251	4.584267
127	0xbff78de9	-1.9340183
128	0xbfc23746	-1.5173118
129	0x40258bab	2.5866497
130	0x405a79d2	3.4136853
131	0x3ebe7e6d	0.3720583
132	0xbe7304d3	-0.23732309
133	0x3f9c89e1	1.2229577
134	0xbfac8081	-1.3476716
135	0xc04ddb8d	-3.2165253
136	0xbf970870	-1.179945
137	0xbfed9861	-1.8562127
138	0xbfb7e63d	-1.4367138
139	0xc0706fc8	-3.7568226
140	0x3d90a0a0	0.07061887
141	0x408c58d1	4.385842
142	0xbf5c974e	-0.8616837
143	0x3f40d518	0.75325155
144	0x3eedf9af	0.46479556
145	0x3ff084e8	1.879056
146	0xc01af38b	-2.4211147
147	0x3f9027e8	1.1262178
148	0xbfce1232	-1.6099303
149	0xbf81d10e	-1.0141923
150	0xbed2d652	-0.41179138
151	0x3f861318	1.0474577

pre.bias f4 [152]
0	0x3fb51991	1.4148427
1	0xc01ecd1c	-2.481269
2	0xc00c2448	-2.1897144
3	0x3fb431e3	1.4077724
4	0xc010281d	-2.2524483
5	0x40b77c5f	5.733932
6	0x40b206bc	5.563322
7	0x40d6cd60	6.71257
8	0x3fbada28	1.4597826
9	0x41254888	10.330208
10	0x408b09f9	4.3449674
11	0xbf701628	-0.9378381
12	0xc078f4cf	-3.889942
13	0xc087e41f	-4.246597
14	0xc084caf0	-4.1497726
15	0xbfb461cc	-1.4092345
16	0xbf287493	-0.6580288
17	0x406cff95	3.7030995
18	0x40cf46bd	6.477385
19	0xc12934b1	-10.575364
20	0x413d621e	11.836454
21	0x4058aff6	3.3857398
22	0x3fd822f9	1.6885673
23	0x4107f51a	8.497339
24	0x3f0f128c	0.55887675
25	0xc0756cf3	-3.8347747
26	0x3f69996a	0.91249716
27	0xc070b6a6	-3.761148
28	0xc0a1a3a8	-5.0512276
29	0x409c656b	4.88738
30	0x3f1e07c1	0.6173058
31	0x4007220b	2.1114528
32	0xc055c1f1	-3.3399622
33	0x40a9b295	5.3030496
34	0xbf9dfdbc	-1.2343059
35	0xbd9ac03d	-0.07556198
36	0x4008ea4f	2.139301
37	0xc03c35da	-2.9407868
38	0xc0dc8c17	-6.892101
39	0x401a5355	2.4113362
40	0x3f4717a1	0.7777043
41	0xbff5762f	-1.9176692
42	0x409131e3	4.5373397
43	0x401a82e4	2.414239
44	0x40065307	2.0988176
45	0xc0434565	-3.0511105
46	0xc0fc187a	-7.877988
47	0xc004a2bf	-2.0724332
48	0x40b9a7de	5.8017416
49	0x4053a52b	3.306956
50	0xbf8d65ce	-1.1046693
51	0x41270a35	10.439992
52	0x40cc6c04	6.3881855
53	0x3ea9f1c3	0.33192262
54	0x402b01af	2.6719778
55	0x40b19114	5.5489597
56	0x4062789e	3.538612
57	0x40a5eec5	5.1853967
58	0x3f4e4f52	0.80589783
59	0x40903044	4.505892
60	0x3f6e0354	0.9297383
61	0x402a778a	2.663546
62	0xbfc94c77	-1.572646
63	0xbfabdd3a	-1.3426888
64	0xbdf5e9f9	-0.12007517
65	0xc06931d5	-3.6436665
66	0xbf5211cb	-0.820584
67	0x40c2ab54	6.083414
68	0xc08689f2	-4.204339
69	0x3f244c96	0.6417936
70	0x409292ec	4.580435
71	0x407375ce	3.8040652
72	0xc059d239	-3.403456
73	0x40e77989	7.233586
74	0x404e2d0b	3.2214992
75	0x404df41f	3.218025
76	0xc0d16c69	-6.5444837
77	0x3eab44de	0.3345098
78	0xbfcef494	-1.6168389
79	0xc1272188	-10.445686
80	0x3f1adb06	0.60490453
81	0x3f913bd3	1.1346382
82	0x401951b6	2.3956122
83	0xc03af6cf	-2.921314
84	0x403422c8	2.8146229
85	0xc09a0581	-4.813172
86	0x40ce2294	6.441721
87	0xc0cd0d06	-6.40784
88	0xc0150ebc	-2.3290243
89	0xbf449107	-0.76783794
90	0xbe45edac	-0.19328946
91	0xbff1520a	-1.8853161
92	0xbe6a233e	-0.22865006
93	0xb953173f	-0.00020131188
94	0xbffc694a	-1.9719632
95	0xbf9050dc	-1.1274676
96	0x4084262c	4.1296597
97	0xbfe92c4c	-1.8216643
98	0x41326c1b	11.151393
99	0xbfb052e6	-1.3775299
100	0x409c8f6a	4.8925066
101	0x40a9f05c	5.3105907
102	0xc109eec3	-8.620791
103	0xc05b5325	-3.4269497
104	0x3fee4a50	1.8616428
105	0xbe50d1e5	-0.20392568
106	0xc05fe60d	-3.4984162
107	0x3fd86b70	1.6907787
108	0x4007bac2	2.1207738
109	0xc0bace91	-5.8377156
110	0xbff22584	-1.8917699
111	0x40c74212	6.226815
112	0xc0f4672c	-7.637594
113	0xc0760035	-3.8437626
114	0xc0ad9022	-5.4238443
115	0x40041016	2.0634818
116	0xc03fa7e0	-2.9946213
117	0xc0e195bd	-7.0495286
118	0xbfb2690a	-1.3938305
119	0x40d61230	6.68972
120	0xc064339f	-3.5656507
121	0x4042969a	3.040442
122	0xbeb1e3d5	-0.34744135
123	0x3f55b25f	0.834753
124	0x3eb25c13	0.34835872
125	0x413e4b01	11.8933115
126	0x40595a67	3.3961427
127	0xbfd7f08c	-1.6870284
128	0xc069f538	-3.655592
129	0x411284f3	9.157458
130	0x40d3b30c	6.6156063
131	0xbef40f13	-0.4766775
132	0xc114fc33	-9.311572
133	0x3fa7862e	1.3087823
134	0x40f6cca5	7.712481
135	0x3f91892f	1.136999
136	0xc0ba7d53	-5.8277984
137	0xbfe8de48	-1.8192835
138	0x40683db1	3.6287653
139	0xc076b858	-3.8550014
140	0xbf88ba45	-1.0681845
141	0x40ed1ece	7.4100103
142	0xc09bb7b3	-4.866174
143	0x4086f436	4.217311
144	0xc009e221	-2.1544268
145	0x3fd347a3	1.6506237
146	0xbfc256f0	-1.5182781
147	0x40ef3d28	7.4762154
148	0x409cb812	4.8974695
149	0x3f8441a2	1.033253
150	0x4105a4da	8.352747
151	0x3f82d294	1.0220513

evolve.initial_weight f4 [152, 152]
0	0x3d705758	0.058677047
1	0x3da8600a	0.08221443
2	0x3d49f176	0.04930254
3	0xbcb0725c	-0.021538906
4	0x3d247c9f	0.04015791
5	0x3bac08fb	0.005250094
6	0x3dee0d10	0.11623585
7	0xbb6d9e67	-0.0036257745
8	0xbdd12e3a	-0.10213895
9	0xbc4d63e7	-0.012536026
10	0xbd8a9eb7	-0.06768554
11	0xbdf88a7f	-0.12135791
12	0xbd608d36	-0.05482217
13	0x3d1a9b50	0.037745774
14	0xbbd28565	-0.0064245933
15	0x3d2f505c	0.042801246
16	0xbded0edc	-0.115751
17	0xbdd07cee	-0.101800784
18	0x3c8011b0	0.015633434
19	0x3d4835b7	0.04887935
20	0x3e0a77e6	0.135223
21	0x3d461b23	0.048365723
22	0x3bcafebe	0.0061949184
23	0xbdda29fa	-0.10652538
24	0xbdbbd850	-0.09172118
25	0x3ca80a16	0.020512622
26	0xbdb91a7a	-0.09038253
27	0x3df0b213	0.11752715
28	0x3d0406f0	0.03223318
29	0xbd669e72	-0.05630345
30	0xbdaaf634	-0.08347741
31	0x3d326429	0.04355255
32	0xbe0929b4	-0.13394815
33	0xbd8eaabf	-0.06966161
34	0x3cb4930a	0.02204277
35	0x3d9787fc	0.07398984
36	0x3d4bfceb	0.04980175
37	0xbdcd989a	-0.10038872
38	0x3c77f2e0	0.0151335895
39	0xbd8e432b	-0.06946405
40	0x3daa99ee	0.08330141
41	0xbd1e63fa	-0.038669564
42	0x3dfb12c3	0.12259438
43	0xbcd5af60	-0.026084602
44	0x3d895c41	0.06707049
45	0xbd862228	-0.065494835
46	0x3dc06771	0.0939473
47	0xbd7eb1ee	-0.062181406
48	0xbda1ba15	-0.078968205
49	0xbd96695d	-0.07344315
50	0xbdc5168f	-0.09623443
51	0xbe0cb0a1	-0.13739254
52	0x3ce68e5c	0.028144054
53	0x3b41a444	0.0029547373
54	0xbd339f50	-0.043853104
55	0x3dd450f9	0.10367007
56	0x3d911f3c	0.070860356
57	0xbda2c7da	-0.07948275
58	0xbd98f5a1	-0.07468725
59	0x3d68b0c0	0.056809187
60	0xbdf6f6d3	-0.12058797
61	0x3d8d390b	0.06895646
62	0x3d368b8d	0.04456668
63	0xbdf86f43	-0.121305965
64	0xbdf3797d	-0.118884064
65	0xbd1e2c4f	-0.038616475
66	0x3d1661cd	0.036714364
67	0xbd18e934	-0.037331775
68	0xbdc015fa	-0.09379192
69	0xbdd94dc5	-0.106105365
70	0x3caa2c69	0.02077313
71	0x3d86f9dc	0.06590626
72	0x3de09416	0.10965745
73	0xbca07b5c	-0.019590072
74	0xbd8a8d1d	-0.067651965
75	0x3d7e38bd	0.06206583
76	0xbe0c94c1	-0.1372862
77	0xbd9c49eb	-0.07631286
78	0x3d98cc1d	0.074608065
79	0xbdb6e8c3	-0.089311145
80	0xbe0376a4	-0.12838227
81	0x3bd85624	0.0066020656
82	0xbcdfadc4	-0.027304538
83	0x3b999c61	0.0046878313
84	0x3d9e419e	0.07727359
85	0xbc3f54e2	-0.0116779525
86	0xbd24c76a	-0.04022924
87	0xbdf3b4e8	-0.118997395
88	0xbe0c1ebb	-0.13683598
89	0xbe0ab847	-0.13546859
90	0xbd19ac92	-0.03751809
91	0xbdcaadcb	-0.0989643
92	0xbdb55d00	-0.08855629
93	0xbdccc345	-0.09998182
94	0x3da6310a	0.08114822
95	0xbd55c01c	-0.052185163
96	0xbcefb7ce	-0.02926245
97	0xbdae7048	-0.0851751
98	0x3e006a50	0.12540555
99	0x3deeb2eb	0.1165522
100	0x3d90ca5d	0.07069848
101	0xbdb61c5f	-0.0889213
102	0xbd5b24f3	-0.053502034
103	0x3dc30da3	0.095240854
104	0x3dc739ef	0.09727847
105	0xbd92d9f9	-0.07170481
106	0xbdee365c	-0.11631462
107	0x3d7665f2	0.060155816
108	0x3d845f55	0.06463496
109	0x3e07ab22	0.13248876
110	0x3d154508	0.036442786
111	0xbdad37b9	-0.08457894
112	0x3e06b7f9	0.13156117
113	0x3d920fb9	0.07131905
114	0xbda5d5c8	-0.08097416
115	0xbd1f2da1	-0.038861874
116	0x3d6fb3fe	0.058521263
117	0xbe052fbd	-0.13006492
118	0x3d21e64a	0.03952626
119	0x3d370b84	0.044688717
120	0x3e0a20c0	0.13489056
121	0x3daa78ec	0.08323845
122	0xbc6fe657	-0.01464232
123	0xbd55cfef	-0.052200254
124	0xbbecc679	-0.007225808
125	0x3dad3a56	0.08458392
126	0xbcf66ef4	-0.030082203
127	0xbe025073	-0.12726001
128	0x3de56dc7	0.11202579
129	0xbe0d93d7	-0.13825928
130	0xbd26a1bc	-0.040681586
131	0x3df851df	0.12124991
132	0xbdb4621b	-0.08807775
133	0xbd1f9461	-0.038959865
134	0x3bc8259c	0.006107999
135	0x3e0730c1	0.13202192
136	0xbda9c096	-0.08288686
137	0x3dbf195e	0.0933101
138	0xbbe1c814	-0.0068903062
139	0x3cf827c5	0.030292401
140	0x3d246818	0.040138334
141	0xbd844443	-0.064583324
142	0xbcdad4df	-0.026712833
143	0xbdccf51e	-0.1000769
144	0x3dd7544b	0.105141245
145	0xbb6a5918	-0.003575867
146	0x3e05144f	0.12996028
147	0x3c481c56	0.012213787
148	0x3dceb742	0.100935474
149	0x3d3cb1f6	0.046068154
150	0x3da35d45	0.07976774
151	0x3d1bd7eb	0.038047712
152	0xbccd53ec	-0.025064431
153	0x3dab6109	0.08368117
154	0xbe0f64bf	-0.14003275
155	0x3dc1bc24	0.09459713
156	0xbdad3e92	-0.084592
157	0xbdca9137	-0.09890979
158	0xbcfa334c	-0.030542038
159	0xbd58d656	-0.05293878
160	0x3d55b34b	0.05217294
161	0x3de70eab	0.112820946
162	0x3e00bf8a	0.12573066
163	0xbc978f33	-0.0185009
164	0x3c881012	0.016609225
165	0x3dfa9a5b	0.12236472
166	0x3d8c2500	0.06842995
167	0xbdbf3b0b	-0.093374334
168	0x3dab90e8	0.08377248
169	0x3c8d683f	0.017261622
170	0xbde0adaa	-0.10970624
171	0xbd23d2e0	-0.039996028
172	0x3dcc461d	0.099743105
173	0x3df553b4	0.11978856
174	0xbdb3a8d0	-0.08772433
175	0x3d525d95	0.051358778
176	0x3c42d9b1	0.011892722
177	0xbcc5e010	-0.024154693
178	0xbe055dbe	-0.13024041
179	0xbbf8b831	-0.0075903167
180	0xbdec8a1b	-0.11549779
181	0x3d95a0d3	0.073060654
182	0x3c766d95	0.015040775
183	0xbd0a1a67	-0.033716585
184	0x3b9f3fc1	0.004859895
185	0xbdd9006a	-0.10595782
186	0xbd2016e4	-0.03908433
187	0x3dca1e62	0.09869076
188	0xbd2abc06	-0.04168322
189	0xbbc9b0f1	-0.0061551263
190	0xbde40b5b	-0.111349784
191	0x3da994f2	0.08280362
192	0xbe05925e	-0.13044116
193	0x3dc0dc39	0.09417004
194	0x3cb5e27d	0.022202725
195	0xbdd3bc66	-0.103386685
196	0xbd2ac824	-0.041694775
197	0xbdbf9aa7	-0.093556695
198	0xb9cd52b1	-0.00039162257
199	0xbba3c80b	-0.004998212
200	0x3c04c2e5	0.008103107
201	0x3d6c70cf	0.05772477
202	0xbcad01d1	-0.02111903
203	0xbdbbcd29	-0.091699906
204	0x3d08794b	0.0333188
205	0xbd971c4d	-0.07378445
206	0xbd850625	-0.064953126
207	0xbc20f409	-0.0098238075
208	0x3cdebdf4	0.027190186
209	0xbd9a5304	-0.07535365
210	0xbd8e96a3	-0.069623254
211	0xbcee5e73	-0.029097771
212	0xbd8afc92	-0.06786455
213	0x3c7f62c4	0.015587512
214	0xbd996164	-0.07489279
215	0xbd0092f9	-0.031390164
216	0x3ddac8c5	0.10682825
217	0x3d1b6579	0.03793857
218	0xb984939f	-0.00025286988
219	0x3d883903	0.06651499
220	0xbe05f683	-0.13082318
221	0x3d8d9940	0.06913996
222	0xbdedf35d	-0.116186835
223	0xbe0d4dd8	-0.13799226
224	0x3d6f0315	0.05835255
225	0x3daf22b5	0.08551542
226	0x3e0e4572	0.13893679
227	0xbdc2443b	-0.0948567
228	0x3dc9e857	0.098587684
229	0x3c93abe1	0.018026294
230	0xbae50076	-0.0017471451
231	0x3e05995c	0.13046783
232	0x3da73cfe	0.0816593
233	0x3dd19607	0.102336936
234	0x3db5b6fe	0.088727936
235	0x3e0c4af5	0.13700469
236	0xbdd38429	-0.10327942
237	0xbd5a9984	-0.05336906
238	0xbd3dbc97	-0.04632243
239	0xbc609577	-0.01370751
240	0x3d1a71ad	0.037706066
241	0x3dc3d4f6	0.095621035
242	0x3c0c58dc	0.008566108
243	0xbcb834dc	-0.022486143
244	0xbda277e8	-0.079330266
245	0xbd42debb	-0.047575694
246	0xbdc4d324	-0.096105844
247	0xbe088e66	-0.1333557
248	0xbd754f3c	-0.059890017
249	0xbdb8bd0b	-0.09020432
250	0x3d418d6c	0.04725401
251	0x3e09c866	0.13455352
252	0x3d5dddfb	0.054166775
253	0xbdecfdad	-0.11571822
254	0xbdf5e270	-0.1200608
255	0x3a82258a	0.00099294

evolve.recurrent_layer.weight_ih_l0 f4 [456, 152]
0	0x3d8fff79	0.070311494
1	0xbf229718	-0.635118
2	0xbe47260f	-0.19448112
3	0xbdcdb2bb	-0.10043856
4	0x3ef76b80	0.48324203
5	0xbe8e9fe2	-0.27856356
6	0xbe5d4c69	-0.2161118
7	0xbf34f4b0	-0.70685863
8	0x3ea44b47	0.32088682
9	0xbedcf748	-0.4315741
10	0x3f274e20	0.65353584
11	0x3e82779a	0.25481874
12	0xbe24a535	-0.16078646
13	0x3f1b3e61	0.6064206
14	0xbe134b11	-0.14384104
15	0x3f5487e6	0.83019865
16	0xbf0358f8	-0.5130763
17	0x3f1c722c	0.6111171
18	0x3ccb02f2	0.024781678
19	0xbee732ee	-0.45156044
20	0xbcacdcf8	-0.02110146
21	0xbeca16a2	-0.39470392
22	0x3f2485fa	0.6426693
23	0xbecd7103	-0.40125284
24	0xbdeefee3	-0.116697095
25	0xbdbd75bb	-0.09250971
26	0x3f1940be	0.59864414
27	0xbf3246a2	-0.6963903
28	0x3ef1cebe	0.47228044
29	0xbe8080fa	-0.250984
30	0x3f354eaa	0.70823157
31	0xbb27dd3c	-0.0025614044
32	0xbdb80db1	-0.089869864
33	0xbda727cc	-0.081618875
34	0x3edb5108	0.4283526
35	0xbdb2741f	-0.087135546
36	0x3ee0fb1f	0.4394159
37	0x3e0c9347	0.13728057
38	0x3f0ed48c	0.5579307
39	0x3eeab976	0.4584462
40	0x3e7b73dd	0.24555917
41	0xbed090e5	-0.40735546
42	0xbf1bc335	-0.6084474
43	0x3f033a12	0.51260483
44	0x3f01589e	0.50525844
45	0x3f090742	0.535267
46	0x3f2f9321	0.68583876
47	0xbf3bf13d	-0.73414975
48	0xbf319bd9	-0.6937843
49	0x3f3c92eb	0.7366168
50	0xbe17e879	-0.14834775
51	0x3d2b321f	0.041795846
52	0x3deb0c13	0.11476912
53	0x3ef0eeb2	0.4705711
54	0xbefe1aae	-0.4962973
55	0x3ebe86d6	0.37212247
56	0x3e519a8c	0.20469111
57	0x3eecd5bd	0.4625682
58	0xbe963a21	-0.29341224
59	0x3de99d0a	0.11406906
60	0x3ee5609e	0.44800276
61	0xbd2963ce	-0.041354947
62	0xbc995639	-0.018717872
63	0x3ec03670	0.37541533
64	0x3f0632c7	0.5242123
65	0xbe3b254b	-0.18275945
66	0x3d8892c1	0.06668616
67	0x3e844215	0.25831667
68	0xbedd6a63	-0.4324523
69	0x3f08f306	0.53495824
70	0xbecf1bd6	-0.40450925
71	0x3ee14494	0.43997633
72	0x3f045098	0.51685476
73	0xbf1e7097	-0.6189055
74	0xbd153514	-0.036427572
75	0x3d0ba2e3	0.034090888
76	0x3e909928	0.2824185
77	0xbf1c583d	-0.6107214
78	0xbf3ef1c2	-0.74587643
79	0x3ef572c3	0.4793912
80	0xbeae6f86	-0.3406946
81	0x3f3e3030	0.7429228
82	0xbeb9d839	-0.36297777
83	0x3cc8f3c2	0.024530295
84	0x3f5daeb1	0.8659468
85	0xbf0e47c6	-0.5557827
86	0xbf02c956	-0.51088464
87	0x3ee7777c	0.45208347
88	0xbc927836	-0.017879587
89	0x3f0ac153	0.5420124
90	0x3f00b2ef	0.5027303
91	0x3ec1d559	0.37858084
92	0x3ebfd9bd	0.3747081
93	0xbd2e01ab	-0.04248206
94	0x3f0e8011	0.55664164
95	0x3f157302	0.58378613
96	0x3e8cd145	0.2750341
97	0x3e37adb3	0.17937355
98	0xbf094a82	-0.53629315
99	0xbd82c622	-0.06385447
100	0x3f0c04ef	0.5469503
101	0x3f480f8f	0.7814874
102	0xbd93e8cb	-0.07222136
103	0xbea9f29c	-0.3319291
104	0xbefeb02f	-0.49743792
105	0x3e3b6815	0.18301423
106	0x3ec53772	0.38518864
107	0xbe9706c8	-0.2949736
108	0xbedb7ea2	-0.4287005
109	0x3ef90b3f	0.48641393
110	0xbf3cf603	-0.73812884
111	0x3f0ba45f	0.54547685
112	0x3e52ccea	0.20585981
113	0x3ea80c3b	0.3282183
114	0xbecd357b	-0.40079865
115	0xbe9176aa	-0.28410846
116	0xbf1fb125	-0.62379676
117	0x3f57925f	0.8420772
118	0xbed3105c	-0.4122342
119	0xbee1cab6	-0.4409997
120	0x3ecef861	0.40423873
121	0xbee04f19	-0.43810347
122	0xbe77498e	-0.24149153
123	0x3f128840	0.5723915
124	0xbe957aed	-0.29195347
125	0xbd09c739	-0.03363726
126	0xbedf96a6	-0.43669623
127	0xbe0ee25a	-0.13953534
128	0xbe27dd27	-0.16392957
129	0x3db45809	0.08805854
130	0x3e1d0dbe	0.15337273
131	0xbed47603	-0.41496286
132	0xbec9ade2	-0.39390475
133	0x3f294ba2	0.6613103
134	0xbf28297b	-0.65688294
135	0xbec11f53	-0.3771921
136	0x3e9bf328	0.3045895
137	0xbea552da	-0.32289773
138	0x3f048e7a	0.517799
139	0xbf20c2cd	-0.6279724
140	0xbea31d20	-0.31858158
141	0xbf14551e	-0.5794238
142	0x3f0c242f	0.5474271
143	0xbec78fd3	-0.38976917
144	0x3e93bbf5	0.28854337
145	0xbebf92b5	-0.37416616
146	0x3ea978a7	0.33099863
147	0xbedad578	-0.4274099
148	0xbee4c616	-0.44682378
149	0xbe8ed1b8	-0.27894378
150	0x3ee7a1c1	0.45240596
151	0x3e4a7db9	0.19774522
152	0xbc2d4a83	-0.010576847
153	0xbf64c5ab	-0.8936412
154	0xbbbbb4ca	-0.005728339
155	0x3fc217f7	1.5163563
156	0x3ee3ed2a	0.4451688
157	0x3ef62a59	0.48079184
158	0x4046a190	3.103611
159	0xbda03f4c	-0.07824573
160	0xbd8542f6	-0.065069124
161	0xbe16b6da	-0.1471819
162	0xbfcb4555	-1.5880533
163	0x3f410649	0.75400215
164	0x3f8c3455	1.095347
165	0xbf7ef5de	-0.99593914
166	0x3f0769e6	0.52895963
167	0x3eae0076	0.33984727
168	0xbf8d200e	-1.1025407
169	0x3e8a9e6a	0.27073985
170	0xbec9d0bf	-0.39417073
171	0xbe22029c	-0.15821308
172	0xbe794317	-0.24341999
173	0x3f59b334	0.8503907
174	0xc02f07fc	-2.7348623
175	0x3f7b32a4	0.98124146
176	0xbec7edc6	-0.39048594
177	0xbfd22cfb	-1.6419977
178	0x3ff0cee3	1.8813137
179	0x3af1e2fd	0.0018454489
180	0x3e906ce4	0.28208077
181	0xbbb0eb61	-0.005399153
182	0xbed71399	-0.4200714
183	0xbf051c39	-0.5199619
184	0xbf2800c2	-0.65626156
185	0x3fca2c93	1.5794853
186	0xbfacc071	-1.3496228
187	0xbec1e1f7	-0.3786771
188	0x3fdedfde	1.7412069
189	0x400c4e13	2.1922653
190	0xc01309df	-2.2974775
191	0x3fbca973	1.4739212
192	0xbfc4de7c	-1.5380397
193	0x3fa472b3	1.2847503
194	0x3f21095e	0.6290492
195	0x3fbe3afe	1.4861753
196	0x3f4a04dd	0.7891367
197	0x3e8ac6c4	0.2710477
198	0xc005b39d	-2.0890877
199	0x3ffc9b0b	1.9734815
200	0xc012ed30	-2.2957268
201	0x3d919792	0.07108988
202	0xbf2bdfc5	-0.6713832
203	0x3ec17ac9	0.3778899
204	0xbec83b6c	-0.39107835
205	0x3f1a02ec	0.6016071
206	0xbe983a18	-0.29731822
207	0xbeb540b1	-0.35400918
208	0xc0018fed	-2.0244095
209	0x3fc008a9	1.5002643
210	0x3f43ee48	0.76535463
211	0x406098fc	3.5093374
212	0x3fc5dc68	1.5457888
213	0xc02cbea4	-2.6991358
214	0xbfcd29b3	-1.602835
215	0x3f2a8c20	0.66620064
216	0x3edd6629	0.43242005
217	0xc0062189	-2.0957968
218	0xbf7f9760	-0.99840355
219	0x3e21bdbb	0.15795033
220	0x405849ba	3.3795
221	0x4032a6fb	2.7914417
222	0xbff0ad90	-1.8802967
223	0x3f848564	1.0353208
224	0xbf6ad6c8	-0.9173398
225	0x3f24c55b	0.6436364
226	0xbf2335e0	-0.6375408
227	0xbf19020a	-0.59768736
228	0x3f8db5bf	1.107109
229	0xbe73c6b6	-0.23806271
230	0xbfdfad25	-1.7474715
231	0xbcad6085	-0.021164188
232	0x3fa24175	1.2676226
233	0x3fc8ef77	1.5698079
234	0xbe81ea42	-0.25374037
235	0xbe42522a	-0.18976656
236	0xc0185f10	-2.3808022
237	0x400e0b2d	2.219432
238	0x3f66a767	0.90099186
239	0xc003d8d5	-2.0601094
240	0x3f6025d3	0.87557715
241	0xbf68edd1	-0.9098788
242	0xbe812326	-0.2522213
243	0x3f400c52	0.750188
244	0xbf204f2e	-0.6262082
245	0x3f95dc3f	1.1707839
246	0xbff7f658	-1.9372053
247	0x3eb87bab	0.3603185
248	0xbf4496aa	-0.76792395
249	0x3f935507	1.1510323
250	0xbedbf64b	-0.42961344
251	0x4031a865	2.775903
252	0xc00b52a0	-2.176918
253	0x3eba9c83	0.36447534
254	0x3e659f78	0.22424114
255	0xbf990548	-1.1954737

evolve.recurrent_layer.weight_hh_l0 f4 [456, 152]
0	0x3e081752	0.13290146
1	0xbf409201	-0.75222784
2	0xbe3c61b2	-0.18396643
3	0xbdfbfc97	-0.12304037
4	0x3f0764ca	0.52888167
5	0xbebb6deb	-0.36607298
6	0xbe0fcb5a	-0.14042416
7	0xbf3995e5	-0.72494346
8	0x3e64433d	0.22291274
9	0xbeccef41	-0.40026286
10	0x3f499fd6	0.78759515
11	0x3e85389d	0.26019755
12	0xbdc6f4c7	-0.09714656
13	0x3f019db5	0.50631267
14	0xbe48bfa4	-0.19604355
15	0x3f454592	0.7705928
16	0xbef5b8e5	-0.47992626
17	0x3f1cc7e2	0.61242497
18	0x3cc32511	0.023821386
19	0xbecbf956	-0.39838666
20	0xbdcb9855	-0.099411644
21	0xbeecf2bd	-0.46278945
22	0x3f2b7ca9	0.6698709
23	0xbea0fc41	-0.31442454
24	0xbdab7bb6	-0.08373205
25	0xbe1d32a3	-0.15351348
26	0x3f07317e	0.52809894
27	0xbf2bf189	-0.6716543
28	0x3ee38bfa	0.4444273
29	0xbe938e44	-0.28819478
30	0x3f33783d	0.70105344
31	0x3e0a13e7	0.13484155
32	0xbe0eed0e	-0.13957617
33	0xbe486846	-0.19571027
34	0x3f1020c1	0.5629998
35	0xbd15a793	-0.036536764
36	0x3ec5dd4f	0.38645408
37	0x3e135bc5	0.14390476
38	0x3f0c2812	0.5474864
39	0x3ed7b9ba	0.42133886
40	0x3e817d4f	0.25290915
41	0xbea18f9a	-0.31554872
42	0xbeec6aa1	-0.461751
43	0x3f033fad	0.51269037
44	0x3f0dfcb5	0.55463725
45	0x3f0449bc	0.5167501
46	0x3f3c930b	0.7366187
47	0xbf523ce3	-0.82124156
48	0xbf3bd367	-0.7336945
49	0x3f3fc906	0.7491611
50	0xbe2a1c82	-0.16612437
51	0xbd52fd27	-0.051510956
52	0x3e45e63f	0.19326113
53	0x3ee331e6	0.44374007
54	0xbefc5259	-0.49281576
55	0x3eceba45	0.40376487
56	0x3e8191ab	0.25306448
57	0x3eef5ead	0.4675192
58	0xbeaa19e9	-0.33222893
59	0x3dcc206d	0.09967122
60	0x3f02c80e	0.5108651
61	0xbd498afc	-0.04920481
62	0xbc0ab157	-0.008465133
63	0x3ef10d85	0.47080627
64	0x3edbf493	0.42960033
65	0xbe556625	-0.20839746
66	0x3d922946	0.071367785
67	0x3e42892d	0.18997641
68	0xbee256e0	-0.44206905
69	0x3f0f843e	0.5606116
70	0xbeb8d928	-0.36103177
71	0x3eb0ec7b	0.3455542
72	0x3ed3b398	0.41347957
73	0xbf301a22	-0.68789876
74	0xbc39d964	-0.011343334
75	0x3c3de472	0.01159011
76	0x3ea7f47c	0.32803714
77	0xbf1785fe	-0.5918883
78	0xbf445afe	-0.76701343
79	0x3ef16983	0.47150812
80	0xbedf2db1	-0.43589547
81	0x3f2ea99c	0.68227553
82	0xbef1a807	-0.47198507
83	0xbd8c1898	-0.068406284
84	0x3f6cfe5f	0.9257564
85	0xbf134baa	-0.5753733
86	0xbf0f038e	-0.558648
87	0x3eae697d	0.34064856
88	0xbd9c3e05	-0.07629017
89	0x3f178560	0.5918789
90	0x3f00b8f1	0.502822
91	0x3e94ce89	0.29063824
92	0x3edf9ce7	0.43674394
93	0x3d6bcd11	0.057568613
94	0x3f111ca8	0.5668435
95	0x3f1da9a2	0.61586964
96	0x3e76db7b	0.24107163
97	0x3e78f751	0.24313094
98	0xbef78b7c	-0.48348606
99	0xbd377d09	-0.044796977
100	0x3ef3c25a	0.47609216
101	0x3f2d19fa	0.6761776
102	0xbd90d65f	-0.07072138
103	0xbeb2b68a	-0.3490489
104	0xbf0b87d1	-0.54504114
105	0x3e284648	0.1643306
106	0x3eb9674a	0.36211616
107	0xbebfd66b	-0.37468275
108	0xbed41230	-0.41420126
109	0x3f009dcf	0.50240797
110	0xbf4fb30a	-0.81132567
111	0x3f1a1731	0.6019164
112	0x3e891be0	0.2677908
113	0x3ea423ba	0.32058507
114	0xbf05673e	-0.5211066
115	0xbe9eac5d	-0.30990878
116	0xbf2745fa	-0.6534115
117	0x3f5a88fe	0.85365283
118	0xbed014aa	-0.40640765
119	0xbec146e4	-0.37749398
120	0x3ec57301	0.38564304
121	0xbed3271f	-0.41240785
122	0xbe2309fd	-0.15921779
123	0x3edf0f13	0.43566188
124	0xbe920bb5	-0.28524557
125	0x3d3fa315	0.046786387
126	0xbf073385	-0.5281299
127	0xbdd635e0	-0.104594946
128	0xbd9ca68c	-0.07648954
129	0xbd137418	-0.035999388
130	0x3e88851d	0.26664057
131	0xbecb0890	-0.3965497
132	0xbefc27c3	-0.49249086
133	0x3f21e7da	0.632444
134	0xbf1f1687	-0.6214375
135	0xbef5c29c	-0.48000038
136	0x3e99755d	0.29972354
137	0xbe8ee03f	-0.2790546
138	0x3f1f6285	0.62259704
139	0xbf02a93f	-0.510395
140	0xbe9a65c7	-0.30155775
141	0xbf000431	-0.50006396
142	0x3f0ce104	0.55030847
143	0xbe771df7	-0.24132524
144	0x3eb718f9	0.3576124
145	0xbee421b0	-0.44556952
146	0x3e9be782	0.30450064
147	0xbeff52eb	-0.4986795
148	0xbec66600	-0.38749695
149	0xbea66f24	-0.3250667
150	0x3f054a68	0.5206666
151	0x3eacd19b	0.33753666
152	0x3d2fba8f	0.042902526
153	0xbf65ee4e	-0.8981675
154	0xbd0dcc45	-0.034618635
155	0x3fb733e3	1.431271
156	0x3ec2ebb5	0.38070455
157	0x3f003f19	0.5009628
158	0x40428a5f	3.0396955
159	0xbe217853	-0.15768556
160	0xbda94b1d	-0.0826628
161	0xbdd4e589	-0.10395343
162	0xbfc37d8c	-1.5272689
163	0x3f32b491	0.6980677
164	0x3f92d0ec	1.1470008
165	0xbf79a094	-0.9751065
166	0x3f119bdb	0.5687844
167	0x3ea2cd09	0.31797054
168	0xbf8b57e9	-1.0886203
169	0x3e502ad7	0.20328842
170	0xbf023771	-0.50865847
171	0xbe0d9911	-0.13827921
172	0xbe82bdd5	-0.25535455
173	0x3f612b39	0.8795658
174	0xc02c336f	-2.6906393
175	0x3f8a2bb1	1.0794584
176	0xbee9d4be	-0.45670122
177	0xbfc50b4f	-1.5394076
178	0x3ff4f6ca	1.9137814
179	0x3b1f9d8c	0.002435538
180	0x3ec5ab62	0.38607317
181	0x3db41c8e	0.08794509
182	0xbee2ed3b	-0.44321617
183	0xbeff39ed	-0.4984888
184	0xbf2eb04b	-0.6823775
185	0x3fb9c778	1.4513998
186	0xbfa2833a	-1.2696297
187	0xbeafcc2c	-0.34335458
188	0x3fdc5a16	1.7214992
189	0x400c5ea9	2.1932776
190	0xc010f364	-2.2648554
191	0x3fbd68ee	1.4797647
192	0xbfc3f462	-1.5308955
193	0x3f98f311	1.1949178
194	0x3f18daad	0.5970867
195	0x3fc12e79	1.5092307
196	0x3f5d497e	0.86440265
197	0x3e82116f	0.25403926
198	0xbffda111	-1.9814779
199	0x3ffd60c5	1.9795157
200	0xc00d0496	-2.203405
201	0x3d8799e3	0.066211484
202	0xbf4ba946	-0.79555166
203	0x3e997e9b	0.29979405
204	0xbf041f17	-0.5160994
205	0x3f1f312d	0.6218441
206	0xbecccde1	-0.40000823
207	0xbea34c9a	-0.3189438
208	0xc00abf57	-2.1679285
209	0x3fb0e224	1.3819013
210	0x3f5d536f	0.86455435
211	0x405a2e5b	3.4090793
212	0x3fc37c8b	1.5272382
213	0xc02a8083	-2.6640937
214	0xbfcd5f5b	-1.6044725
215	0x3f2750de	0.6535777
216	0x3eff4961	0.4986067
217	0xc0034d3c	-2.051589
218	0xbf773243	-0.9656107
219	0x3e2a32ef	0.16620992
220	0x40597e66	3.3983397
221	0x40350552	2.8284497
222	0xbffe15cf	-1.9850405
223	0x3f831008	1.0239267
224	0xbf59b6fc	-0.85044837
225	0x3f103c1f	0.5634174
226	0xbf2b3051	-0.668706
227	0xbf0e9af0	-0.55705166
228	0x3f8ab0bb	1.0835184
229	0xbe0af21b	-0.13568918
230	0xbfe43c1a	-1.7830842
231	0x3d80db8c	0.06291875
232	0x3fa31742	1.2741473
233	0x3fcb781c	1.589603
234	0xbe86bc1f	-0.263154
235	0xbe90995b	-0.28242
236	0xc016af89	-2.3544638
237	0x40094c60	2.1452866
238	0x3f4e9da7	0.8070931
239	0xc0029195	-2.0401356
240	0x3f7b98f0	0.9828024
241	0xbf4750e6	-0.77857816
242	0xbe9e2dda	-0.30894357
243	0x3f36f029	0.71460205
244	0xbf1ef04a	-0.620854
245	0x3f93f013	1.155764
246	0xbff13996	-1.8845699
247	0x3ed491df	0.4151754
248	0xbf4c587e	-0.7982253
249	0x3f9a1cd7	1.2040051
250	0xbee49b27	-0.44649622
251	0x40319d03	2.7752082
252	0xc00d04fb	-2.203429
253	0x3e9c38a4	0.30511963
254	0x3dad50e3	0.084626935
255	0xbf8fc809	-1.1232921

evolve.recurrent_layer.bias_ih_l0 f4 [456]
0	0xbf16663b	-0.5874974
1	0xbf0e6ecc	-0.5563781
2	0xc040b678	-3.011137
3	0xc0633e9c	-3.5506964
4	0xbf1cc533	-0.612384
5	0xbe971341	-0.29506877
6	0xbf766235	-0.962436
7	0xbed35935	-0.41278997
8	0xbc01468f	-0.007890358
9	0xbf1dd103	-0.6164705
10	0xbf1fb629	-0.6238733
11	0xbc7a0c78	-0.015261762
12	0xbf3f5fb8	-0.7475543
13	0xbea654ca	-0.32486564
14	0xbf81c321	-1.0137674
15	0xc056bcf1	-3.355282
16	0xc000edcd	-2.0145142
17	0xbf1dc120	-0.6162281
18	0xbf99cf60	-1.2016411
19	0xbefe2e30	-0.49644613
20	0xbf7303ba	-0.9492756
21	0xbf3bd903	-0.7337801
22	0xbdb15f3c	-0.08660743
23	0xbeef558d	-0.46744958
24	0xbedf1ebd	-0.4357814
25	0xc0c259af	-6.0734477
26	0xbf2a75ae	-0.66585815
27	0xbeec8ddb	-0.46201977
28	0xbf421cb4	-0.7582505
29	0xbeedd56d	-0.46451893
30	0xc050d783	-3.2631538
31	0x408029fe	4.005126
32	0xbf137e74	-0.5761483
33	0xbebc79b5	-0.36811605
34	0xbefe716d	-0.49695912
35	0x3c0829ea	0.008310774
36	0xbf4badb6	-0.79561937
37	0xbf51b8f3	-0.81922835
38	0xbf054dda	-0.5207192
39	0xbed30cf4	-0.4122082
40	0xbf17ab27	-0.5924553
41	0xbeb25b71	-0.3483539
42	0xc0722891	-3.783726
43	0xbf12e050	-0.57373524
44	0xbc848560	-0.01617688
45	0x3d0a86f1	0.033820096
46	0xbf874db2	-1.0570586
47	0x4009729a	2.1476197
48	0x3eede44d	0.46463242
49	0xbec71c4f	-0.38888785
50	0xc08f269d	-4.4734635
51	0xbf8b2aee	-1.0872476
52	0xbf172f9d	-0.5905703
53	0x3f030e80	0.51194
54	0xbef39f7a	-0.47582608
55	0xc0ae5f25	-5.4491143
56	0x3fbd1bf9	1.4774162
57	0xbeef97da	-0.4679554
58	0xbf49bed3	-0.788068
59	0xbed5d604	-0.41764843
60	0xbedb1f3e	-0.42797273
61	0xbfd03dcd	-1.626886
62	0xbec27999	-0.37983397
63	0xbef9a330	-0.48757315
64	0xbeaeb7a0	-0.3412447
65	0xbf26d5ef	-0.65170187
66	0xbf1eeb95	-0.6207822
67	0xbedee7a5	-0.43536106
68	0xbf08274a	-0.5318495
69	0xbef950e6	-0.48694533
70	0xbf895219	-1.0728179
71	0xbebe4ca1	-0.37167838
72	0xc0aaf498	-5.3423576
73	0xbf8b82c1	-1.0899278
74	0x4036df8c	2.8573942
75	0xbeb97efc	-0.36229694
76	0x3fa554f8	1.2916555
77	0xc0317a42	-2.773087
78	0xbebb4ba1	-0.36581138
79	0xbf8da6ef	-1.1066569
80	0xc0d61793	-6.6903777
81	0xbf122efb	-0.57102937
82	0xbeb92dc7	-0.36167738
83	0xc0899696	-4.299632
84	0xbeb4284c	-0.35186994
85	0xbef9b701	-0.48772433
86	0xc00ef991	-2.2339823
87	0xbd9feb1c	-0.078085154
88	0xc052dc61	-3.2947009
89	0xbebbfbf3	-0.3671566
90	0xbf5391e4	-0.82644486
91	0xc028b95f	-2.6363142
92	0xbf287bdd	-0.65814
93	0xbc2f1251	-0.010685519
94	0xbf5d55ef	-0.8645925
95	0xbf6dae23	-0.92843837
96	0xc07994e3	-3.8997123
97	0xbeed8555	-0.46390787
98	0xbf39eba0	-0.7262516
99	0xbfa9a8a9	-1.3254596
100	0xc0526804	-3.2875986
101	0xbf54bb74	-0.8309853
102	0xbf2c40b8	-0.6728625
103	0xbeb065cf	-0.34452674
104	0xbea5bd41	-0.32370952
105	0xbf4f3132	-0.8093444
106	0xbfbe1e4e	-1.4852998
107	0xbf1e7f42	-0.6191293
108	0xbf0f8778	-0.56066084
109	0xbf4b9874	-0.795295
110	0xbf09749c	-0.53693557
111	0xbef881bd	-0.48536482
112	0xbeed996f	-0.46406123
113	0xbeb5eee4	-0.35533822
114	0xc03c940e	-2.9465365
115	0xbf2a3d7c	-0.6650007
116	0xbde9eb78	-0.11421865
117	0xbf21272e	-0.6295041
118	0xbec2222f	-0.37916705
119	0xbee2b272	-0.44276768
120	0xbf6a5548	-0.9153638
121	0xbf0ab625	-0.5418418
122	0xbf34d4c6	-0.70637167
123	0xbf36d886	-0.7142414
124	0xbf520982	-0.8204576
125	0xbf0f167c	-0.55893683
126	0x400940a7	2.144571
127	0xbedd6feb	-0.4324945
128	0xbf10f553	-0.56624335
129	0xbf1faf2e	-0.6237668
130	0xbf8f3760	-1.1188774
131	0xbf520b61	-0.8204861
132	0xbea5efab	-0.32409415
133	0xbf15d40d	-0.5852669
134	0xc02903fc	-2.6408682
135	0x4086dbaf	4.214317
136	0xbeb42761	-0.35186294
137	0xbf96e8af	-1.1789759
138	0xbf6bd2c2	-0.92118466
139	0xbf1cf6ea	-0.6131426
140	0xbf1d6502	-0.6148225
141	0xbf5851df	-0.84499925
142	0xbf680c52	-0.906438
143	0xc03f651d	-2.9905465
144	0xbf3795ec	-0.7171314
145	0xc0096be4	-2.1472101
146	0xbf0f40d7	-0.5595831
147	0xc0810976	-4.032405
148	0xc0057742	-2.085404
149	0xc0497c0f	-3.148197
150	0xc0548ae1	-3.3209765
151	0xc0530b08	-3.2975483
152	0x3f22533b	0.6340825
153	0x3f18b82c	0.59656024
154	0x4036259b	2.8460453
155	0x405bfc96	3.4372916
156	0x3f1d1847	0.6136517
157	0x3f086f66	0.5329498
158	0x3f88fe46	1.0702598
159	0x3ec24ada	0.37947732
160	0x40ab6b4b	5.3568473
161	0x3ea39ff6	0.31957978
162	0x3f3ca181	0.73683935
163	0x3f14df25	0.5815299
164	0x3f5b9e54	0.85788465
165	0x3eb233b8	0.34805083
166	0x3ccd0c20	0.025030196
167	0x402fc134	2.7461672
168	0x40350050	2.828144
169	0x3f16da00	0.5892639
170	0x3f66d7ad	0.90172845
171	0x3f1870d6	0.59547174
172	0x40ab4fb7	5.353481
173	0x3ef3d1a4	0.4762088
174	0x402eeed9	2.733328
175	0x3ea7ae76	0.3275029
176	0x3f11968c	0.5687034
177	0x3fd5c6fb	1.6701349
178	0x3f1932df	0.5984325
179	0x3ec87421	0.391511
180	0x3f7be1c6	0.9839138
181	0x3ee4fa89	0.44722393
182	0x412b0fd7	10.691367
183	0xc019fa3c	-2.405898
184	0x3e9ffd98	0.31248164
185	0x3ec18007	0.3779299
186	0x3f242776	0.6412271
187	0x3e040a95	0.12894662
188	0x3f53ed9d	0.82784444
189	0x3f3ea7ab	0.7447459
190	0x3ec84db0	0.3912177
191	0x3f16378d	0.58678514
192	0xbd8e0ff7	-0.06936639
193	0x3efe2f20	0.4964533
194	0x3ffe72a5	1.9878737
195	0x3f062c8f	0.5241174
196	0x3eac9245	0.33705345
197	0x3db6663f	0.08906221
198	0xbd415888	-0.04720357
199	0xbe0b1d53	-0.13585405
200	0xbfbd9a90	-1.4812794
201	0x3f1b54d9	0.6067634
202	0x408849d9	4.2590146
203	0x408c1170	4.3771286
204	0x3f0845e6	0.53231657
205	0xbf0e5b49	-0.5560804
206	0x3ed069c7	0.40705702
207	0x3e858cd5	0.2608401
208	0x408797bb	4.237272
209	0x3ed75488	0.4205668
210	0x3f586c82	0.8454057
211	0x3f1e3da9	0.61812836
212	0x3ece950e	0.40348095
213	0x40373dd7	2.8631494
214	0x3ea75973	0.32685432
215	0x3e9bc294	0.3042189
216	0x3f01d5a8	0.5071664
217	0x3ee34b15	0.4439322
218	0x3f4538c4	0.7703974
219	0x3efaee20	0.490098
220	0x3f1747de	0.59094036
221	0x3f18accc	0.5963867
222	0x3f8dc0b8	1.1074438
223	0x3ef65e23	0.48118696
224	0xbf119127	-0.5686211
225	0x3f621460	0.8831234
226	0x404deeee	3.217708
227	0x3ed60bd3	0.41805896
228	0xbffab4bd	-1.9586407
229	0x402ec061	2.7304919
230	0x3f1d1ac3	0.6136896
231	0x3e1201ac	0.1425845
232	0xbf16b95e	-0.588766
233	0x3f1f974d	0.6234024
234	0x3ead5d88	0.3386042
235	0x3f61c7f4	0.8819573
236	0x3ebb5d76	0.36594743
237	0x3eea885d	0.45807162
238	0x40435a66	3.0523925
239	0x3e037b77	0.12840067
240	0x405f5814	3.4897509
241	0x3f1aae40	0.60422134
242	0x3f776a51	0.966466
243	0x40174760	2.3637314
244	0x3f57021e	0.83987606
245	0x3e060888	0.13089192
246	0x3f8841b3	1.064505
247	0x3f25a901	0.64711004
248	0x40411f02	3.0175176
249	0x3eb04638	0.34428573
250	0x3f3a2873	0.7271797
251	0x3f23d976	0.64003694
252	0x40553789	3.3315146
253	0x3f0dc906	0.5538486
254	0x3ec6e4ac	0.38846338
255	0x3ed320fe	0.4123611

evolve.recurrent_layer.bias_hh_l0 f4 [456]
0	0xbf155f06	-0.5834812
1	0xbf02cdf6	-0.5109552
2	0xc03c138e	-2.9386935
3	0xc05b90db	-3.4307163
4	0xbf08b862	-0.53406346
5	0xbed99637	-0.42497417
6	0xbf6d6d3f	-0.9274482
7	0xbec46922	-0.3836146
8	0xbd82eaf7	-0.06392472
9	0xbf122933	-0.57094115
10	0xbf4590b5	-0.7717393
11	0xbd921f7b	-0.07134911
12	0xbf5bc965	-0.8585418
13	0xbed82386	-0.42214602
14	0xbf70303f	-0.9382362
15	0xc050febd	-3.265548
16	0xc001ad31	-2.0261958
17	0xbf08fd70	-0.53511715
18	0xbf93d4c3	-1.1549305
19	0xbf0d3b49	-0.55168587
20	0xbf6af15e	-0.9177455
21	0xbf34cac8	-0.7062192
22	0xbdcf57d4	-0.10124174
23	0xbef7eb69	-0.4842179
24	0xbed7b821	-0.42132667
25	0xc0c008a3	-6.0010543
26	0xbf1043dc	-0.56353545
27	0xbed830db	-0.42224774
28	0xbf4b6fd8	-0.79467535
29	0xbeda2d18	-0.4261253
30	0xc05142b2	-3.2696958
31	0x40804a85	4.0090966
32	0xbf1285f2	-0.57235634
33	0xbed5e3c3	-0.4177533
34	0xbf091a57	-0.53555816
35	0x3da08a21	0.07838846
36	0xbf340add	-0.70329076
37	0xbf595c4e	-0.8490647
38	0xbf228357	-0.6348166
39	0xbead56db	-0.33855328
40	0xbf0eff4c	-0.558583
41	0xbebc7a5d	-0.36812106
42	0xc0761196	-3.8448234
43	0xbf00809d	-0.5019625
44	0xbdb0543c	-0.086098164
45	0xba0b28f5	-0.0005308532
46	0xbf8a1476	-1.0787494
47	0x400de947	2.217363
48	0x3ee1cc67	0.4410126
49	0xbeb9fa53	-0.36323795
50	0xc08f6749	-4.481358
51	0xbf87525c	-1.0572009
52	0xbf14f6ae	-0.58188903
53	0x3eebb892	0.46039253
54	0xbf07761b	-0.5291459
55	0xc0b1dd75	-5.5582833
56	0x3fbdd7f8	1.4831533
57	0xbefc1a6c	-0.49238908
58	0xbf4a872f	-0.79112524
59	0xbed123ad	-0.4084753
60	0xbeab2ec9	-0.33434132
61	0xbfc8f586	-1.5699928
62	0xbecd9384	-0.40151608
63	0xbecb47a2	-0.3970309
64	0xbed05f5b	-0.4069775
65	0xbf1b022b	-0.60550183
66	0xbf13a98e	-0.57680595
67	0xbeec028b	-0.4609569
68	0xbf08cb68	-0.53435373
69	0xbec3cb17	-0.38240883
70	0xbf8a3ccb	-1.0799803
71	0xbeca42ad	-0.39503995
72	0xc0a85f30	-5.2616196
73	0xbf8f2a00	-1.1184692
74	0x4031daee	2.7789874
75	0xbedc3c2d	-0.4301466
76	0x3fab283e	1.3371656
77	0xc02cd6e1	-2.7006152
78	0xbec566d5	-0.38555017
79	0xbf89ea81	-1.077469
80	0xc0d6081e	-6.688491
81	0xbf219e8c	-0.6313255
82	0xbe9a29c8	-0.30110002
83	0xc087e39b	-4.246534
84	0xbee166ca	-0.44023734
85	0xbeba55fb	-0.36393723
86	0xc00c3865	-2.190942
87	0xbd1cf7d2	-0.038322277
88	0xc0530570	-3.2972069
89	0xbec51f1c	-0.38500297
90	0xbf686e16	-0.9079298
91	0xc02bf690	-2.686924
92	0xbf32f95e	-0.69911754
93	0xbdfc2565	-0.1231182
94	0xbf554774	-0.83312154
95	0xbf5ff388	-0.87480974
96	0xc073c456	-3.8088584
97	0xbebb599b	-0.365918
98	0xbf2ea198	-0.6821532
99	0xbfa59098	-1.2934752
100	0xc0553ae0	-3.3317184
101	0xbf4c0c48	-0.7970624
102	0xbf1745ec	-0.5909107
103	0xbeaf49b1	-0.3423591
104	0xbea92a0a	-0.33039886
105	0xbf6568ce	-0.89613044
106	0xbfc1e09b	-1.5146669
107	0xbf0077c1	-0.5018273
108	0xbed887ee	-0.42291206
109	0xbf440535	-0.76570445
110	0xbf270d46	-0.6525463
111	0xbf1a27df	-0.6021709
112	0xbebe710e	-0.3719563
113	0xbee2f81d	-0.4432992
114	0xc03a1d8c	-2.9080534
115	0xbf2d66b8	-0.6773486
116	0xbd932776	-0.07185261
117	0xbf191a2e	-0.5980557
118	0xbed19a4f	-0.4093804
119	0xbf007f8d	-0.5019463
120	0xbf73eb47	-0.9528088
121	0xbf28b76d	-0.65904886
122	0xbf3d49da	-0.73940814
123	0xbf440437	-0.7656893
124	0xbf4e7ba6	-0.8065742
125	0xbf150b62	-0.58220494
126	0x4009c4fb	2.1526477
127	0xbeaa153f	-0.33219334
128	0xbed9f3ac	-0.4256872
129	0xbefee123	-0.4978114
130	0xbf816ea0	-1.0111885
131	0xbf46370a	-0.7742773
132	0xbecbbc7d	-0.39792243
133	0xbf2c02bc	-0.6719167
134	0xc027dc0b	-2.6228054
135	0x40856b19	4.1693234
136	0xbec085bf	-0.3760204
137	0xbf92076f	-1.1408519
138	0xbf652fe4	-0.895262
139	0xbf240db1	-0.6408339
140	0xbf315027	-0.6926293
141	0xbf584493	-0.84479636
142	0xbf6a2fa8	-0.9147897
143	0xc03f0be7	-2.9851015
144	0xbf153976	-0.58290803
145	0xc0037779	-2.054167
146	0xbf2ddc7e	-0.6791457
147	0xc0800bcb	-4.0014396
148	0xbfff5c2a	-1.9950001
149	0xc04c2ef9	-3.190367
150	0xc052f079	-3.2959273
151	0xc051eb42	-3.279984
152	0x3f223544	0.63362527
153	0x3ef4d1b6	0.47816247
154	0x4038ac35	2.8855107
155	0x405bdaf2	3.4352384
156	0x3ef0709b	0.4696091
157	0x3ef89f95	0.4855925
158	0x3f6f63f7	0.9351191
159	0x3eeca64e	0.4622063
160	0x40aacdbf	5.3376155
161	0x3ec3b302	0.3822251
162	0x3f221857	0.6331839
163	0x3f227844	0.6346476
164	0x3f435b2d	0.76311
165	0x3ed4bc13	0.4154974
166	0x3deb2dd5	0.11483351
167	0x4036201b	2.8457096
168	0x40381361	2.8761828
169	0x3f0e7bd0	0.5565767
170	0x3f551e02	0.83248913
171	0x3f04c334	0.51860356
172	0x40ab0464	5.344286
173	0x3edee65f	0.43535134
174	0x402a5d5e	2.6619487
175	0x3ee67b29	0.4501584
176	0x3f1c4141	0.6103707
177	0x3fd98eaf	1.6996669
178	0x3f198e23	0.5998251
179	0x3eafee6e	0.34361595
180	0x3f875e24	1.0575604
181	0x3eb71e12	0.3576513
182	0x412b39d8	10.701622
183	0xc01450ac	-2.3174238
184	0x3eb63258	0.35585284
185	0x3eaa935d	0.33315554
186	0x3f22b7a4	0.63561463
187	0x3e02a265	0.12757261
188	0x3f623685	0.8836444
189	0x3f3ab372	0.7293006
190	0x3ed2f47f	0.4120216
191	0x3f04f4ce	0.5193604
192	0xbd5e7e89	-0.054319892
193	0x3f1514af	0.58234686
194	0x4001d738	2.028761
195	0x3f0963b9	0.5366779
196	0x3ed27f44	0.4111272
197	0x3d87022f	0.06592213
198	0xbdcb874a	-0.09937914
199	0xbe3f0b8f	-0.18656753
200	0xbfc28d8f	-1.519945
201	0x3f133572	0.57503426
202	0x408b27cb	4.3486075
203	0x408f67a0	4.4813995
204	0x3f149772	0.5804359
205	0xbf1d6036	-0.6147493
206	0x3ee7676a	0.45196086
207	0x3e770c44	0.24125773
208	0x4085f869	4.1865735
209	0x3ebeb0f0	0.37244368
210	0x3f4887d9	0.7833229
211	0x3f055b43	0.5209238
212	0x3ee51287	0.44740698
213	0x4038b970	2.8863182
214	0x3eba45ed	0.36381474
215	0x3ecb2d9e	0.3968324
216	0x3f042fca	0.5163542
217	0x3edc0e8a	0.42979842
218	0x3f45fc29	0.7733789
219	0x3eceab50	0.40365076
220	0x3f061bbe	0.5238608
221	0x3f09bf81	0.53807837
222	0x3f944e1b	1.1586336
223	0x3edf807a	0.43652707
224	0xbee8019b	-0.45313725
225	0x3f44df3c	0.7690313
226	0x404b2d4b	3.1746395
227	0x3f039b35	0.514087
228	0xc0028905	-2.039613
229	0x402b633f	2.6779325
230	0x3efe9e8d	0.4973034
231	0x3e217ca5	0.15770204
232	0xbf38de4c	-0.722142
233	0x3efec20b	0.49757418
234	0x3eebcbfd	0.46054068
235	0x3f62f5f0	0.8865652
236	0x3ed5e479	0.41775873
237	0x3ee7c26d	0.45265523
238	0x4044ab8f	3.072971
239	0x3c827797	0.015926166
240	0x405e449b	3.4729373
241	0x3f0d778c	0.5526054
242	0x3f77b58a	0.9676138
243	0x401abd82	2.4178166
244	0x3f4d0643	0.8008768
245	0x3e1443f3	0.14479046
246	0x3f82d755	1.0221964
247	0x3f07d9e7	0.5306687
248	0x403dc12a	2.9649148
249	0x3edb9a58	0.42891192
250	0x3f2e1af5	0.68009883
251	0x3f1ee9c1	0.6207543
252	0x40562aaf	3.3463552
253	0x3f10a77c	0.5650556
254	0x3eaebe26	0.34129447
255	0x3ebe5ef7	0.37181827

post.weight f4 [2, 152]
0	0xbec5af8b	-0.3861049
1	0x3ebe00cf	0.37109992
2	0x40022dad	2.0340378
3	0xc00e8ef2	-2.2274747
4	0xbecf69b1	-0.40510324
5	0x3ed9dced	0.42551365
6	0xbf0b362d	-0.5437954
7	0xbec7c54d	-0.39017716
8	0xbebc8fc4	-0.36828434
9	0xbeba4200	-0.3637848
10	0xbe180e08	-0.14849102
11	0xbe1cdbce	-0.15318224
12	0xbceafb63	-0.028684324
13	0xbed03442	-0.4066487
14	0xbfe2050e	-1.7657793
15	0x40156cf0	2.334774
16	0xbfde6623	-1.737492
17	0x3e189f5c	0.14904541
18	0x3f30a604	0.6900332
19	0xbec35882	-0.38153464
20	0xbf9201ed	-1.1406838
21	0xbedab8a4	-0.42718995
22	0xc01948ca	-2.3950677
23	0xbeadb822	-0.33929545
24	0xbea3025e	-0.31837744
25	0x3fa64ae1	1.2991601
26	0xbeb2e3b9	-0.34939364
27	0xbed3869f	-0.41313645
28	0xbdb58c62	-0.088646665
29	0xbebcb8a7	-0.3685963
30	0x3e88e570	0.26737547
31	0x3f6b242a	0.91852057
32	0xbec96d41	-0.39341167
33	0xbee2d861	-0.4430571
34	0xbeacb242	-0.3372975
35	0xbe991f37	-0.29906628
36	0x3c23cf39	0.009998136
37	0x3dcd729a	0.10031624
38	0xbeab4737	-0.3345277
39	0xbeb03498	-0.34415126
40	0xbe9bc1b7	-0.3042123
41	0xbee49291	-0.4464307
42	0x40174937	2.3638437
43	0xbeb1f4bf	-0.3475704
44	0xc01c7bf3	-2.4450653
45	0xbdfaceac	-0.12246451
46	0xc0095f5c	-2.1464453
47	0x400e6572	2.2249417
48	0x3eba0f09	0.36339596
49	0xbea573f6	-0.32315034
50	0x40072259	2.1114714
51	0x3f9e47de	1.2365682
52	0x3ea3b3bc	0.31973064
53	0xbf99b28c	-1.2007613
54	0xbebe18d5	-0.3712832
55	0xbf6f3daf	-0.93453497
56	0xc0123d7d	-2.285003
57	0xbec0a56a	-0.376262
58	0x3c661bca	0.014044711
59	0x3d161862	0.036644347
60	0xbea420e3	-0.3205634
61	0x4012e865	2.2954342
62	0xbed48806	-0.41510028
63	0xbea7856f	-0.3271899
64	0xbeaac385	-0.33352295
65	0xbec70226	-0.38868827
66	0xbe9dd495	-0.3082625
67	0xbed9875f	-0.42486092
68	0xbeaee4e1	-0.34158996
69	0xbecdbf5a	-0.40185052
70	0xbee77406	-0.45205706
71	0xbea9ab8c	-0.33138692
72	0x3f00ca9e	0.5030917
73	0xbf17167c	-0.59018683
74	0x40055f69	2.0839484
75	0xbeb58cfa	-0.3545912
76	0xbe6b9dc4	-0.23009402
77	0x40209cf4	2.5095797
78	0xbea81d8d	-0.32835045
79	0x3e935067	0.2877228
80	0xbeef22c3	-0.4670621
81	0xbeb5a1be	-0.35474962
82	0xbedefab0	-0.43550634
83	0x3fae81e2	1.3633387
84	0xbebfcd0b	-0.37461123
85	0xbec4984a	-0.38397437
86	0x3cf53a22	0.029934946
87	0xbdc82389	-0.09772403
88	0x4017f2b6	2.374189
89	0xbee9657a	-0.45585233
90	0xba66c2fa	-0.00088028575
91	0xbcde623b	-0.02714645
92	0xbe67a4e3	-0.22621493
93	0xbde5599d	-0.11198733
94	0x3e196c0a	0.1498262
95	0xbed26caf	-0.41098544
96	0x4018a2f9	2.384947
97	0xbea5bac2	-0.32369047
98	0xbe4a8587	-0.19777499
99	0xbe84cfb8	-0.25939727
100	0xc0196f9a	-2.3974366
101	0xbed50209	-0.41603115
102	0xbeb2ac92	-0.34897286
103	0xbedbe30d	-0.42946663
104	0xbe75185d	-0.23935075
105	0x3f64d5ea	0.89388907
106	0xbe60fdb7	-0.21971785
107	0xbebaa1b5	-0.36451498
108	0xbebb7c63	-0.36618337
109	0x3ef8d75a	0.486018
110	0xbed5d23d	-0.41761962
111	0xbeae9c94	-0.34103835
112	0xbed0f75e	-0.40813726
113	0xbea1a7a6	-0.31573218
114	0x40040e8e	2.0633883
115	0xbe9a44a2	-0.30130488
116	0x3d417945	0.047234792
117	0xbe8c0b16	-0.27352208
118	0xbeb3f5fc	-0.3514861
119	0xbedadd54	-0.42746985
120	0xbdef1cd6	-0.11675422
121	0x3ea9c49a	0.33157808
122	0xbeb28be3	-0.3487235
123	0x400f39c1	2.2379
124	0x3db35181	0.0875578
125	0xbeacd82f	-0.33758685
126	0x4013a9da	2.307242
127	0xbec88a19	-0.3916786
128	0x3ee43ec8	0.44579148
129	0xbeb2c88f	-0.3491864
130	0x3e9c653c	0.30545986
131	0xbefe89ba	-0.49714452
132	0xbeb87aab	-0.36031088
133	0x3cda50b8	0.026649818
134	0xbfb5dc7c	-1.4207911
135	0x3f049595	0.51790744
136	0xbde099a4	-0.109668046
137	0x3f26e781	0.65196997
138	0x3ef0bc70	0.47018766
139	0xbecbd14f	-0.39808127
140	0xbd46136b	-0.048358362
141	0xbe05aa50	-0.1305325
142	0x3dd411a4	0.10354927
143	0x400df2ba	2.2179399
144	0x3edc4825	0.43023792
145	0xc007d025	-2.1220791
146	0xbeddeedc	-0.43346298
147	0x3fd88b7e	1.691757
148	0x3fbc12c6	1.4693229
149	0x401c92fa	2.4464707
150	0x4015633c	2.3341818
151	0x401a1e6c	2.4081068
152	0xbe95597b	-0.2916983
153	0x3ebe53bf	0.37173268
154	0x4004a9d7	2.0728662
155	0xc00ee4f6	-2.2327247
156	0xbec649eb	-0.3872827
157	0x3edcbe35	0.43113866
158	0xbf02900d	-0.51001054
159	0xbeccd650	-0.40007257
160	0xbeba7afc	-0.36421955
161	0xbedd1fab	-0.43188223
162	0xbd471545	-0.04860427
163	0xbe2be304	-0.16785818
164	0xbc806c90	-0.015676767
165	0xbea59661	-0.32341293
166	0xbfd4bf37	-1.6620854
167	0x401392e1	2.3058398
168	0xbfde6eeb	-1.73776
169	0x3e366acc	0.17814177
170	0x3f22e72a	0.6363398
171	0xbed4dd88	-0.41575265
172	0xbf88d372	-1.0689528
173	0xbe995525	-0.29947773
174	0xc01b3327	-2.424997
175	0xbeab5a38	-0.3346727
176	0xbec5447a	-0.38528806
177	0x3fa2f3bb	1.2730631
178	0xbe9d7e26	-0.30760306
179	0xbeab899a	-0.3350342
180	0xbd1d3da7	-0.038388874
181	0xbec6a3fc	-0.38796985
182	0x3e79d421	0.24397327
183	0x3f566c4f	0.83759016
184	0xbeb58d25	-0.35459247
185	0xbeaa62ef	-0.33278605
186	0xbeb15450	-0.34634638
187	0xbec33c6e	-0.38132042
188	0xbe09fec2	-0.13476089
189	0x3d722c60	0.05912435
190	0xbec581f6	-0.38575715
191	0xbeac069d	-0.33598796
192	0xbe88574b	-0.266291
193	0xbeaa7dcd	-0.33299103
194	0x4018e6d6	2.389089
195	0xbec16b6f	-0.37777278
196	0xc017fd00	-2.374817
197	0xbe25c0b3	-0.1618679
198	0xc0043bf1	-2.0661585
199	0x4013a265	2.3067868
200	0x3e6d6abe	0.2318525
201	0xbead1059	-0.33801535
202	0x4003aacf	2.0573003
203	0x3f948b20	1.1604958
204	0x3e711226	0.2354208
205	0xbf999d6b	-1.2001165
206	0xbec16a87	-0.37776586
207	0xbf5ba92d	-0.85805017
208	0xc0181d28	-2.3767796
209	0xbeb8f445	-0.36123863
210	0xbd7f2ff7	-0.062301602
211	0x3b97161e	0.004610791
212	0xbec52cd1	-0.38510755
213	0x400cadd3	2.1981094
214	0xbeacca6c	-0.33748186
215	0xbeed12ed	-0.46303502
216	0xbecfb99d	-0.405713
217	0xbecb97ea	-0.3976434
218	0xbec74beb	-0.38925108
219	0xbe9ecab8	-0.31014037
220	0xbebf9074	-0.37414896
221	0xbeac2c04	-0.3362733
222	0xbee4aee3	-0.44664678
223	0xbecc01b6	-0.39845055
224	0x3f042b9f	0.5162906
225	0xbf307b0b	-0.6893775
226	0x4003dcdd	2.0603554
227	0xbeb18beb	-0.3467706
228	0xbec4ea89	-0.38460186
229	0x40261648	2.59511
230	0xbee4cf24	-0.44689286
231	0x3e935952	0.28779083
232	0xbee2bd9b	-0.44285282
233	0xbedc9b95	-0.4308745
234	0xbeb06faa	-0.34460193
235	0x3fb3f621	1.4059488
236	0xbeba010b	-0.3632892
237	0xbeaaf83c	-0.33392513
238	0xbbebd757	-0.0071973014
239	0xbd91921e	-0.07107948
240	0x40179dc8	2.3690052
241	0xbea1bcc7	-0.31589338
242	0xbd045d7a	-0.03231571
243	0xbc3a9583	-0.011388185
244	0xbe4120a7	-0.18860112
245	0xbda09071	-0.0784005
246	0x3daf4bf0	0.08559406
247	0xbec3e11e	-0.38257688
248	0x401970c9	2.3975089
249	0xbedf0e68	-0.4356568
250	0xbe7b12b4	-0.24518853
251	0xbe83cb05	-0.2574083
252	0xc016550a	-2.3489404
253	0xbedf53fc	-0.43618762
254	0xbeac51ba	-0.33656102
255	0xbea9ed73	-0.33188972

post.bias f4 [2]
0	0xc109cad1	-8.612016
1	0xc109e04a	-8.617258
