trained_models/evolvegcn_bitcoinotc.pt (torch, 287178 bytes, 9 tensors)

pre.weight f4 [100, 1]
0	0xbf197a39	-0.5995212
1	0xbe8f5ea6	-0.280019
2	0xbe38e678	-0.18056667
3	0xbc2ea3bc	-0.0106591545
4	0xbf57c1e0	-0.84280205
5	0x3ea290d6	0.31751126
6	0xbf2fca2b	-0.6866786
7	0x3e2df64c	0.16988486
8	0x3ee8048d	0.45315972
9	0x3ea64e99	0.3248184
10	0x3e8b3f67	0.2719681
11	0x3eda51f1	0.4264064
12	0x3ecc0f1b	0.39855275
13	0x3f0c469d	0.5479525
14	0xbf31f1d7	-0.69509643
15	0x3d8bacde	0.06820081
16	0xbe15e9e1	-0.14639999
17	0x3e9e9ccd	0.30979005
18	0xbefcb119	-0.49353865
19	0x3e90b7ad	0.28265134
20	0x3f1397d5	0.5765355
21	0xbeb3a383	-0.35085687
22	0xbf384f7e	-0.71996295
23	0x3e83d912	0.2575155
24	0x3f15c913	0.5850994
25	0x3e0c1f06	0.1368371
26	0x3eb13dc7	0.34617445
27	0x3ebb58b0	0.365911
28	0x3ebdab75	0.37044874
29	0xbf1926ab	-0.5982463
30	0x3e6c5edf	0.23083065
31	0xbec588e1	-0.38580993
32	0x3e28bceb	0.16478316
33	0x3e01591e	0.12631652
34	0x3e00f77d	0.1259441
35	0xbe285983	-0.16440396
36	0x3e30e5d1	0.17275168
37	0x3da45b6f	0.08025252
38	0x3f433274	0.7624886
39	0xbf4e0c50	-0.8048754
40	0x3eb7a6a0	0.35869312
41	0xbf6b8c5f	-0.92011064
42	0x3e45569b	0.19271319
43	0x3d194af2	0.03742499
44	0xbede33f2	-0.43399006
45	0x3f018a42	0.5060159
46	0xbb6980c3	-0.0035629726
47	0xbf67bef9	-0.90525776
48	0x3f2695c8	0.650723
49	0x3f00ccb0	0.5031233
50	0x3eb786d0	0.3584504
51	0x3f3cf6c6	0.73814046
52	0x3a333f3d	0.00068377313
53	0x3e9c7acc	0.30562437
54	0x3f361352	0.7112323
55	0xbe7eb114	-0.24872237
56	0xbf54b321	-0.8308583
57	0xbea6a51a	-0.32547837
58	0xbf2171cc	-0.63064265
59	0xbeaa7be8	-0.33297658
60	0xbeab9e9b	-0.33519444
61	0x3d970ca3	0.07375457
62	0x3de1993a	0.11015554
63	0xbe8f786a	-0.28021556
64	0xbea308b8	-0.3184259
65	0xbdf57e34	-0.11986962
66	0x3f1d8582	0.6153184
67	0x3e0b6fcc	0.13616866
68	0xbeeaf8b6	-0.45892876
69	0xbe64d519	-0.22346915
70	0xbe99c367	-0.30031893
71	0x3e87055c	0.26371276
72	0xbf7b1f51	-0.9809466
73	0x3dd2bf18	0.102903545
74	0x3ec1311c	0.3773278
75	0xbf3bc485	-0.7334674
76	0xbf15f1f5	-0.5857232
77	0x3e95c750	0.29253626
78	0x3f1335dc	0.5750406
79	0xbf3263bb	-0.69683427
80	0xbed9faf0	-0.42574263
81	0x3ed8c530	0.42337942
82	0xbeb6e505	-0.35721603
83	0xbe9bcf32	-0.30431515
84	0xbf431b6b	-0.7621371
85	0x3f63b823	0.88952845
86	0x3e515c71	0.2044542
87	0xbf5802a5	-0.84379035
88	0xbf3ec987	-0.74526256
89	0x3eb90ef3	0.36144218
90	0xbe050ab3	-0.12992363
91	0x3eff8274	0.49904215
92	0xbf61fb09	-0.88273674
93	0xbe1238b9	-0.1427945
94	0x3ec3f666	0.38273925
95	0xbf39fe39	-0.7265354
96	0xbe5ff6e5	-0.21871527
97	0x3e8ef11f	0.27918336
98	0x3ec466d5	0.38359705
99	0xbd1c0cb9	-0.03809807

pre.bias f4 [100]
0	0x3f21e594	0.63240933
1	0x3eb8d7a0	0.3610201
2	0x3e3b5160	0.18292761
3	0xbc8cc897	-0.017185492
4	0x3f4de378	0.80425215
5	0x3f641b7b	0.8910443
6	0x3f2c44b8	0.67292356
7	0xbe506a52	-0.20353058
8	0xbf43a963	-0.7643034
9	0xbea67638	-0.3251207
10	0xbe93b9f8	-0.2885282
11	0xbdaad0fc	-0.08340642
12	0xbece3a42	-0.40278822
13	0xbe6fe2e1	-0.23426391
14	0x3f312b3b	0.6920659
15	0x3f271443	0.6526529
16	0x3e455fc7	0.19274817
17	0xbe9ba010	-0.30395555
18	0x3f03bc72	0.5145942
19	0xbe84f956	-0.25971478
20	0xbf13d1e6	-0.57742155
21	0x3ebb9f78	0.36645103
22	0x3f3a570e	0.72789085
23	0xbf4b39ef	-0.79385275
24	0xbf105c2f	-0.5639066
25	0xbe013a37	-0.12619863
26	0xbebe3e05	-0.37156692
27	0xbee227d4	-0.4417101
28	0x3f0c70c3	0.5485956
29	0xbe83c278	-0.25734305
30	0x3ef6a09e	0.48169416
31	0x3d0f2b29	0.03495327
32	0xbe2de330	-0.16981196
33	0xbe3bd44e	-0.18342707
34	0xbe0c58ef	-0.137058
35	0x3e2156de	0.15755793
36	0xbd649e0f	-0.0558148
37	0xbd7d7388	-0.061877757
38	0xbcdb59f7	-0.026776297
39	0x3f4e8a58	0.80679846
40	0xbeada12f	-0.33912036
41	0x3f382c4b	0.71942586
42	0xbe43400f	-0.19067405
43	0xbee64b24	-0.44979203
44	0x3ee4b288	0.4466746
45	0xbf3d74a3	-0.740061
46	0x3bf4ce26	0.007470864
47	0x3f6b5a71	0.9193488
48	0x3e78bf45	0.24291714
49	0xbef7674b	-0.48320994
50	0xbebadd4e	-0.36496967
51	0x3f3aa64a	0.72909987
52	0x3c30860f	0.01077415
53	0x3ee75395	0.45180956
54	0xbf433638	-0.76254606
55	0x3e76d8c8	0.24106133
56	0x3e02dbbf	0.12779139
57	0x3eae665d	0.34062472
58	0x3edcdf80	0.43139267
59	0x3ea935b0	0.33048773
60	0x3eb8c5ad	0.36088315
61	0xbd76aea8	-0.06022516
62	0x3e56ad7c	0.20964617
63	0x3e9209e6	0.28523177
64	0xbf668dd1	-0.90060145
65	0xbf3ab76d	-0.72936136
66	0xbf1dba88	-0.6161275
67	0xbe180e48	-0.14849198
68	0x3edc45b9	0.43021944
69	0x3e7cce68	0.24688113
70	0xbea98405	-0.33108535
71	0xbe80efc6	-0.25182933
72	0x3f7b6242	0.98196805
73	0xbd16088b	-0.03662924
74	0x3ea42fa8	0.3206761
75	0x3f3ac463	0.7295591
76	0xbefd0864	-0.49420464
77	0xbe9f9a29	-0.31172302
78	0xbf147fe9	-0.58007675
79	0xbce22e7c	-0.027610056
80	0xbf6e48ad	-0.93079644
81	0x3f4bf791	0.7967463
82	0x3ea08627	0.3135235
83	0x3e9c2d7c	0.30503452
84	0xbf0ea4c3	-0.55720156
85	0xbe10641d	-0.1410069
86	0xbe4fee1b	-0.20305674
87	0xbe45cfb4	-0.19317514
88	0x3f4030b1	0.750743
89	0xbee65b6c	-0.44991624
90	0x3e00c931	0.12576748
91	0xbee39332	-0.4444824
92	0xbe3b67a1	-0.1830125
93	0x3e02659d	0.12734075
94	0x3eb88eaa	0.36046344
95	0x3f3c08b9	0.7345081
96	0x3e6fdd35	0.23424228
97	0xbe80b22f	-0.25135943
98	0xbec871d2	-0.39149338
99	0x3f2f0a76	0.6837534

evolve.initial_weight f4 [100, 100]
0	0x3ca63aab	0.020291647
1	0xbd69ab0f	-0.0570479
2	0x3de205ae	0.110362396
3	0x3d1fe4b6	0.039036475
4	0x3bcb3866	0.0062017916
5	0xbc27f0b4	-0.010250259
6	0xbde9603c	-0.113953084
7	0x3c166021	0.009178192
8	0x3e19bade	0.1501269
9	0xbda54f0c	-0.080717176
10	0x3d7bc191	0.061463896
11	0x3ceb6cbe	0.028738376
12	0x3d51726d	0.051134516
13	0xbcd2c689	-0.025729435
14	0x3dd1d3eb	0.10245498
15	0xbe0f35a3	-0.13985305
16	0xbdc3c582	-0.09559156
17	0xbdb3cdbf	-0.08779477
18	0xbe015b14	-0.126324
19	0x3e0019a5	0.12509783
20	0xbda06447	-0.078316264
21	0xbd89e233	-0.06732597
22	0x3ce3486f	0.0277445
23	0x3e1c5a22	0.15268758
24	0xbe27e67a	-0.16396514
25	0xbe2a8db4	-0.16655618
26	0xbd42faa7	-0.047602322
27	0x3dd3e067	0.10345536
28	0x3dad5bea	0.08464797
29	0x3c94a4cf	0.018144993
30	0xbc966b58	-0.018361732
31	0x3d12e8ee	0.03586667
32	0x3d8acb92	0.06777109
33	0xbdf460f0	-0.11932552
34	0x3e2becde	0.16789576
35	0x3e0e2210	0.13880181
36	0xbd477d16	-0.048703276
37	0x3e2fdc64	0.17173916
38	0x3d0573cb	0.032581132
39	0x3d923c6d	0.071404316
40	0xbd92787c	-0.07151887
41	0xbe28b6d2	-0.1647599
42	0x3dcafd71	0.09911621
43	0x3d155c47	0.036464956
44	0xbdf5c64b	-0.12000712
45	0x3defbd7f	0.117060654
46	0xbde1c7a1	-0.11024404
47	0x3d1c10de	0.038102023
48	0x3df4ee0c	0.11959466
49	0x3db5c05f	0.088745825
50	0xbd778cd6	-0.060437046
51	0xbaaee15b	-0.0013342308
52	0xbdd46f4c	-0.10372791
53	0x3de7e55f	0.11323046
54	0xbc1027c4	-0.008798543
55	0xbe2e3568	-0.1701256
56	0x3c83170c	0.0160022
57	0x3dd3a5c9	0.103343554
58	0x3d49ba7b	0.049250107
59	0x3da48d2d	0.0803474
60	0xbd206a78	-0.039164037
61	0xbd83b962	-0.06431843
62	0xbc3d5f95	-0.011558433
63	0x3dfff3c9	0.1249767
64	0x3dd19e95	0.10235325
65	0xbd462a14	-0.048379973
66	0x3bc138f2	0.005896681
67	0xbca66e3e	-0.02031624
68	0x3e210add	0.157268
69	0x3d6726cd	0.056433488
70	0x3e1edd34	0.1551407
71	0x3e0da2c0	0.13831615
72	0xbce923be	-0.028459426
73	0xbe169f19	-0.14709128
74	0xbe173fd2	-0.1477044
75	0xbd9282bf	-0.07153844
76	0x3df22cfb	0.118249856
77	0xbd5ba5d1	-0.05362493
78	0xbcad6678	-0.021167025
79	0xbddc85c2	-0.107677
80	0x3d987adf	0.07445311
81	0x39810f37	0.00024616133
82	0xbcd7daea	-0.026349504
83	0xbca51912	-0.020153556
84	0xbc320ed0	-0.010867789
85	0xbe194b81	-0.14970209
86	0x3db1c700	0.08680534
87	0xbde80369	-0.113287754
88	0x3dbf3527	0.0933631
89	0xbdade98b	-0.084918104
90	0xbe2e5392	-0.17024067
91	0xbe2cc656	-0.16872534
92	0xbde3ffc9	-0.111327715
93	0xbcbb587c	-0.022869341
94	0x3e29a757	0.16567741
95	0x3d8815da	0.06644793
96	0x3cb2f402	0.021844868
97	0x3d8c69cd	0.068561174
98	0x3da1aec9	0.07894666
99	0xbda2d01a	-0.079498485
100	0x3db3dfd3	0.087829255
101	0xbc984b09	-0.018590467
102	0x3ddcb160	0.10776019
103	0x3cdcf2ce	0.026971247
104	0x3e1f6530	0.15565944
105	0xbe2a7631	-0.16646649
106	0x3caa22cc	0.020768546
107	0xbdce6de6	-0.10079555
108	0x3e0cb3a6	0.13740405
109	0xbe0b624f	-0.1361172
110	0xbe13e27a	-0.14441863
111	0x3d783cec	0.060604975
112	0x3dd7d40d	0.10538492
113	0xbbba92dc	-0.0056937765
114	0x3e26483c	0.16238493
115	0x3d9df240	0.07712221
116	0xbd935c1c	-0.07195303
117	0xbc3331cc	-0.0109371655
118	0x3cde9033	0.027168369
119	0xbc8883b8	-0.01666437
120	0x3e001570	0.12508178
121	0xbe0160c7	-0.12634574
122	0x3d087490	0.033314288
123	0xbdf17089	-0.117890425
124	0x3e000040	0.12500095
125	0xbd6fe689	-0.058569465
126	0x3e0d6654	0.13808566
127	0xbd0144c2	-0.031559713
128	0x3df3bc1f	0.119011156
129	0x3c80f411	0.01574138
130	0xbda358a7	-0.079758935
131	0xbd1606f8	-0.03662774
132	0xbd1666ed	-0.03671925
133	0x3e1ddfc8	0.15417397
134	0x3d56223d	0.052278746
135	0xba3cf61a	-0.0007208303
136	0x3c4be188	0.012443908
137	0x3c72b875	0.014814486
138	0x3c70d3d4	0.014698941
139	0x3d973bce	0.07384454
140	0xbdf05133	-0.117342375
141	0x3da70557	0.08155315
142	0x3de6c80f	0.11268627
143	0xbc180530	-0.009278581
144	0xbe183e1c	-0.14867443
145	0xbcc031ef	-0.02346131
146	0xbddac29d	-0.10681651
147	0xbdcd5085	-0.100251235
148	0xbe032421	-0.12806751
149	0xbdda1ffa	-0.1065063
150	0xbdae0b33	-0.0849823
151	0x3d804e22	0.06264903
152	0x3e07a8f9	0.13248052
153	0x3e1fbeda	0.15600148
154	0xbcec644c	-0.028856419
155	0x3c93d66f	0.018046586
156	0xbe067ed2	-0.13134316
157	0xbe016b8f	-0.12638687
158	0xbd9834ca	-0.07431944
159	0x3e19e837	0.15029989
160	0xbd3c04d3	-0.04590304
161	0xbe03280b	-0.12808244
162	0xbcc50a20	-0.02405268
163	0xbe20e316	-0.15711626
164	0x3d8c26c0	0.068433285
165	0x3c4d9920	0.012548715
166	0x3e179f02	0.1480675
167	0x3e19fd1d	0.15037961
168	0xbd3b9735	-0.0457985
169	0xbd9c9105	-0.07644848
170	0xbd610e97	-0.054945555
171	0x3d6952b4	0.056963637
172	0xbe14431b	-0.14478724
173	0x3dd697e9	0.10478193
174	0x3ddf3fc9	0.10900838
175	0x3cff6531	0.031176182
176	0xbdcfb190	-0.10141289
177	0x3b8188fa	0.0039530965
178	0x3d0c39c0	0.034234762
179	0x3e1d4e42	0.15361884
180	0x3e096e7e	0.13421056
181	0x3d999ff7	0.07501214
182	0xbdbb3666	-0.09141235
183	0x3d39b94b	0.045342725
184	0xbd099c8c	-0.03359656
185	0x3def3503	0.11680033
186	0x3d729145	0.05922057
187	0x3d617595	0.055043776
188	0xbd8d0eba	-0.068875745
189	0xbe2a15db	-0.166099
190	0x3c8e11fe	0.017342564
191	0x3d2a97d2	0.041648693
192	0x3d171bfd	0.036891926
193	0xbe1809bf	-0.14847468
194	0xbd4dd024	-0.050247326
195	0x3e169e16	0.14708742
196	0xbe2675ec	-0.16255921
197	0xbe233f22	-0.15942052
198	0x3e1398fe	0.1441383
199	0xbbe4b0e0	-0.006979093
200	0xbd73b8c1	-0.059502367
201	0xbba522db	-0.0050395555
202	0xbe2c274c	-0.16811866
203	0x3b9829a6	0.0046436368
204	0x3d0025ee	0.031286173
205	0xbe072144	-0.13196284
206	0x3d7808cf	0.060555276
207	0xbdb82b9d	-0.089926936
208	0x3e1f77ba	0.15573016
209	0xbe09a236	-0.13440785
210	0xbd60303d	-0.054733504
211	0x3d5ce97e	0.053933613
212	0x3c5ef62d	0.013608498
213	0x3cf14a15	0.02945427
214	0xbde3a663	-0.1111572
215	0xbe014829	-0.12625183
216	0xbd272349	-0.040805135
217	0x3d64ce47	0.055860784
218	0xbda46e5e	-0.08028863
219	0xbbe009eb	-0.00683712
220	0xbdb9f05c	-0.09079048
221	0x3d6ef44f	0.05833846
222	0x3d9b7563	0.07590749
223	0x3e234100	0.15942764
224	0xbe20b4e5	-0.15694006
225	0x3db5bd84	0.08874038
226	0xbddbe792	-0.10737528
227	0xbd9200b4	-0.0712904
228	0xbe2839f8	-0.16428363
229	0x3e1e293a	0.15445414
230	0x3d0c353f	0.034230467
231	0x3e1a1b52	0.15049484
232	0x3b944696	0.004525016
233	0x3ddb5c9d	0.10711024
234	0xbda3351a	-0.07969113
235	0xbd6d1a77	-0.057886567
236	0xbde315a2	-0.110881105
237	0x3e156cab	0.14592235
238	0xbe1ef362	-0.1552253
239	0x3e20572b	0.15658252
240	0xbe215986	-0.15756807
241	0xbe246ead	-0.16057844
242	0xbd7029df	-0.05863368
243	0x3dba3452	0.090920106
244	0xbe29f033	-0.16595535
245	0x3e23a095	0.15979226
246	0x3e2e0d26	0.16997203
247	0xbe297f65	-0.16552503
248	0x3e1b2427	0.1515051
249	0xbe239c7f	-0.15977667
250	0xbd581929	-0.05275837
251	0xbd32737d	-0.04356717
252	0x3c93b35c	0.018029861
253	0xbd84e325	-0.06488637
254	0xbe0eb536	-0.13936314
255	0x3d9ad9fa	0.07561107

evolve.recurrent_layer.weight_ih_l0 f4 [300, 100]
0	0xbd994734	-0.07484284
1	0x3cade66f	0.021228043
2	0x3bddc6de	0.0067680916
3	0x3d0232bc	0.031786665
4	0x3d47d8ef	0.04879087
5	0x3b083123	0.002078124
6	0x3bd00b8a	0.006349032
7	0xbc60f8c8	-0.013731189
8	0xbdcc344c	-0.09970912
9	0x3d54dc7f	0.051968094
10	0x3daef9ab	0.08543714
11	0xbdc16b64	-0.09444311
12	0xbd0786c7	-0.033087518
13	0x3de12907	0.109941535
14	0xbe12d833	-0.14340286
15	0xbe117f43	-0.14208703
16	0xbde31d66	-0.11089592
17	0x3d80662c	0.06269488
18	0xbd8eaa1d	-0.0696604
19	0xbcf075cd	-0.029353047
20	0xbd98cc62	-0.07460858
21	0xbc6ed559	-0.014577233
22	0x3d83c19e	0.06433414
23	0x3df314fb	0.11869236
24	0xbc1e79d4	-0.009672601
25	0x3e0de880	0.13858223
26	0xbcd7bff2	-0.026336644
27	0x3cf67e61	0.030089559
28	0xbd25f4ae	-0.040516548
29	0xbe14b60b	-0.14522569
30	0x3dadde43	0.08489659
31	0xbe136089	-0.14392294
32	0xbd00b5f2	-0.031423517
33	0xb931d531	-0.00016959455
34	0x3dcbb439	0.09946484
35	0xbd24622c	-0.040132686
36	0x3dfc08b8	0.123063505
37	0xbd8fc2bf	-0.07019567
38	0x3dffea77	0.124958925
39	0xbe0012ed	-0.1250722
40	0xbd6b4c57	-0.05744585
41	0xbdefff02	-0.11718561
42	0x3d0f6386	0.035007022
43	0xbd480a04	-0.048837677
44	0xbd6c8ae3	-0.05774964
45	0x3aa17e3a	0.0012320944
46	0xbdbcb347	-0.09213882
47	0xbd5088b1	-0.05091161
48	0xbd3ba5a0	-0.04581225
49	0xbd416015	-0.04721077
50	0x3a2961c4	0.00064614066
51	0xbc297d56	-0.010344824
52	0x3e039870	0.12851119
53	0x3ce66764	0.028125472
54	0xbdab428e	-0.08362304
55	0xbd237553	-0.03990681
56	0x3b877cca	0.004134749
57	0xbd712409	-0.058872256
58	0xbd059471	-0.032612268
59	0x3dc3f3c8	0.09567982
60	0x3dcaece2	0.09908463
61	0xbb9084a6	-0.004410344
62	0xbdf08eb2	-0.11745967
63	0x3d0e5dba	0.034757353
64	0xbcf2848d	-0.02960422
65	0x39afe298	0.00033547427
66	0x3d475d0f	0.048672732
67	0xbdc0d5f0	-0.09415805
68	0xbdb76399	-0.089545436
69	0x3d19c521	0.037541512
70	0x3c449662	0.011998745
71	0x3e02f926	0.12790355
72	0xbcca8e0f	-0.024725942
73	0x3e1ea530	0.15492702
74	0x3e108b10	0.14115548
75	0xbd0ec49a	-0.034855463
76	0x3c17cb6a	0.009264806
77	0x3c52775f	0.012845843
78	0x3d426e65	0.04746856
79	0x3cbd36c9	0.023097413
80	0xbd93868b	-0.072033964
81	0x3d20016f	0.039063867
82	0xbd1ada4f	-0.03780585
83	0x3ce927fb	0.028461447
84	0x3b9edb8c	0.0048479494
85	0x3e000e43	0.1250544
86	0xbd1b632b	-0.03793637
87	0x3daf4e51	0.085598595
88	0xbc287bd7	-0.010283432
89	0xbd62bc0a	-0.05535511
90	0xbdced1e2	-0.10098626
91	0xbd9278bd	-0.07151935
92	0xbd6353ea	-0.05549995
93	0x3c35f0af	0.011104747
94	0xbda0fccd	-0.07860718
95	0xbd9c027f	-0.076176636
96	0x3d189d84	0.037259594
97	0x3d899168	0.06717187
98	0x3e060313	0.1308711
99	0x3e017feb	0.12646453
100	0xbd69b149	-0.057053838
101	0xbd1de14d	-0.03854494
102	0x3d29f039	0.04148886
103	0xbbd71be1	-0.0065646027
104	0xbd7b051f	-0.06128418
105	0x3c0f9f00	0.008765936
106	0x3dcd0459	0.10010595
107	0xbd9e43d5	-0.07727782
108	0xbcd7a92f	-0.02632579
109	0x3d6f7900	0.058465004
110	0x3c506059	0.012718284
111	0xbd6e3ea0	-0.058165193
112	0x3e1493b8	0.14509475
113	0x3db37554	0.08762613
114	0xbe0fc6d4	-0.1404069
115	0x3de9ae6c	0.114102215
116	0xbcee9470	-0.029123515
117	0x3dcbeba3	0.099570535
118	0x3d549432	0.051899143
119	0xbc125099	-0.008930349
120	0xbca84598	-0.020540997
121	0x3e0d4408	0.13795483
122	0x3dd4d6b5	0.103925146
123	0x3be0852b	0.0068518124
124	0x3b801723	0.003909008
125	0x3d355d72	0.04427857
126	0x3c831a77	0.01600383
127	0xbdaf6b86	-0.0856543
128	0x3cb28916	0.021793883
129	0x3d2f722f	0.042833503
130	0x3d8befb8	0.06832832
131	0xbd169231	-0.036760513
132	0x3d7b18b3	0.061302852
133	0xbd396152	-0.045258828
134	0x3d5ec804	0.05438997
135	0xbe0f422a	-0.13990083
136	0x3e15f261	0.14643241
137	0x3d3a8a6e	0.045542173
138	0xbc986a46	-0.018605363
139	0xbccb71ad	-0.024834478
140	0x3d02df1c	0.031951055
141	0xbcf86207	-0.03032018
142	0x3dbf8940	0.0935235
143	0x3e006f34	0.1254242
144	0xbc03623b	-0.008019025
145	0xbd8cc0c7	-0.06872707
146	0xbe08db34	-0.1336487
147	0xbdc8886c	-0.097916454
148	0xbbdeef9c	-0.006803466
149	0x3d56e693	0.052465986
150	0xbdf81d4d	-0.12114964
151	0x3de8a805	0.11360172
152	0x3d900355	0.070318855
153	0xbdbfd132	-0.09366073
154	0xbddbdbc0	-0.10735273
155	0xbc93d7a6	-0.018047165
156	0xbd99950c	-0.074991316
157	0xbd00318b	-0.031297248
158	0xbd408915	-0.04700573
159	0xbd70bb24	-0.05877222
160	0xbd845bcb	-0.064628206
161	0x3cfada8e	0.030621793
162	0xbd984741	-0.074354656
163	0xbc71946f	-0.014744862
164	0xbc51973e	-0.012792407
165	0x3d518b7a	0.051158406
166	0x3c159a40	0.009131014
167	0xbe15940b	-0.14607255
168	0xbcb6ad0f	-0.022299318
169	0x3da6b751	0.081404336
170	0x3e0c3f6e	0.13696072
171	0x3c7b5cc0	0.015341938
172	0x3e1b77cf	0.15182422
173	0xbdb2b8fb	-0.087266885
174	0xbd17717e	-0.03697347
175	0xbca2d306	-0.019876014
176	0x3dcbb53f	0.09946679
177	0x3dbbb0cd	0.091645814
178	0xbded9e44	-0.116024524
179	0x3c545a8b	0.01296104
180	0xbe0ccebf	-0.13750742
181	0x3d9f2531	0.077707656
182	0x3c5cbfe2	0.013473483
183	0xbdb6d655	-0.08927599
184	0x3e0563fe	0.13026425
185	0x3e0bb177	0.13641916
186	0xbc3ea76e	-0.011636598
187	0xbb7267d9	-0.0036988168
188	0xbd3b62f9	-0.045748685
189	0xbde5ecd8	-0.11226815
190	0xbcc6ec32	-0.024282549
191	0x3e0b99e8	0.1363293
192	0xbc0c14b8	-0.008549862
193	0xbd1fbe6f	-0.03899997
194	0xbdb11825	-0.08647183
195	0xbc958f4f	-0.018256811
196	0x3d01d1c5	0.031694192
197	0x3ce4d3aa	0.02793296
198	0xbd14e7fa	-0.036354043
199	0xbd23bd96	-0.039975725
200	0x3d97f81b	0.07420369
201	0xbd301ae4	-0.042994395
202	0x3d870210	0.0659219
203	0x3ce9ecd5	0.028555313
204	0x3dafbeee	0.08581339
205	0x3de6c395	0.11267773
206	0xbc56d07c	-0.01311123
207	0xbcda6a4a	-0.02666201
208	0xbd23c573	-0.039983224
209	0xbd9d042a	-0.0766681
210	0xbd5adcb0	-0.05343312
211	0x3e161270	0.14655471
212	0x3d48ce81	0.049025062
213	0xbda1ae00	-0.07894516
214	0x3d466812	0.048439093
215	0xbdc60fc9	-0.096709795
216	0xbc268bf0	-0.0101652
217	0x3cd35058	0.025795147
218	0x3b660af7	0.003510175
219	0x3d231a5d	0.039820064
220	0x3cc4cf9a	0.024024773
221	0xbbc676da	-0.0060566487
222	0x3bf7b89b	0.0075598485
223	0xbd86f1cd	-0.065890886
224	0x3cb6de00	0.022322655
225	0xbcfa73e7	-0.030572845
226	0xbbe56898	-0.007000994
227	0x3df8d62e	0.121502265
228	0x3c988065	0.01861591
229	0x3c57a59e	0.013162045
230	0x3d33e448	0.043918878
231	0xbcf2a721	-0.029620709
232	0xbda14c0c	-0.07875833
233	0x3e1ba65a	0.15200177
234	0x3ac2da12	0.0014866015
235	0xbd8ba981	-0.0681944
236	0x3d45ab6c	0.048259184
237	0x3c6776ce	0.014127446
238	0xbaa862f2	-0.0012846871
239	0x3db75b7d	0.08952997
240	0xbceeedbf	-0.0291661
241	0xbd1c82d4	-0.038210705
242	0xbde5354d	-0.11191807
243	0xbe029d36	-0.12755284
244	0xbd50e68b	-0.051001113
245	0xbdb11685	-0.086468734
246	0xbd1a68a4	-0.03769745
247	0xbd23cd0c	-0.03999047
248	0xbe0e3a24	-0.13889366
249	0xbd2f283d	-0.042762984
250	0x3c29c6d0	0.010362342
251	0xbcf1211e	-0.029434737
252	0x3d8b485e	0.06800912
253	0x3e16827c	0.14698213
254	0x3d3400b5	0.043945987
255	0xbd0683b1	-0.032840434

evolve.recurrent_layer.weight_hh_l0 f4 [300, 100]
0	0xb7e25472	-2.6980622e-05
1	0xbdeeb82a	-0.1165622
2	0x3df719b4	0.12065449
3	0x3cf70d24	0.030157633
4	0x3c8f6a86	0.017506849
5	0x3bdbe68e	0.006710834
6	0x3ce20227	0.027588917
7	0xbe12e8f1	-0.14346673
8	0x3cce5909	0.02518894
9	0x3e1562d9	0.14588489
10	0x3d0d3d1b	0.034482103
11	0xbe211715	-0.15731461
12	0xbdaed324	-0.08536366
13	0xbc9de11d	-0.019272381
14	0xbdb4d790	-0.08830178
15	0x3d00d8f4	0.031456903
16	0x3d37266e	0.044714384
17	0x3d4f3b97	0.05059394
18	0xbd338ac3	-0.043833505
19	0xbdec758d	-0.115458585
20	0xbdca98a8	-0.09892398
21	0x3d33377a	0.04375408
22	0x3c66c240	0.014084399
23	0x3c171876	0.009222141
24	0x3e045e91	0.12926699
25	0x3db90caf	0.09035622
26	0xbce5f152	-0.028069172
27	0x3b74f789	0.0037378988
28	0xbcc6e5d2	-0.024279509
29	0xbc547f31	-0.012969778
30	0x3ca77073	0.020439362
31	0xbca89db3	-0.02058301
32	0xbca3569d	-0.019938761
33	0x3c079dc1	0.008277358
34	0x3d9aa823	0.07551601
35	0x3db9349d	0.09043238
36	0x3d2b82d6	0.04187282
37	0xbd4dd4c4	-0.050251737
38	0xbcded7ea	-0.027202565
39	0x3c8e5ef2	0.017379258
40	0x3d4fb5ea	0.050710596
41	0xbdcfe3a4	-0.10150841
42	0x3e130635	0.14357837
43	0x3d581193	0.052751135
44	0xbd3c2713	-0.0459357
45	0xbd031003	-0.03199769
46	0xbdadbd9e	-0.08483432
47	0xbe05d577	-0.13069712
48	0xbd8ca6b0	-0.068677306
49	0xbca81f86	-0.020522844
50	0xbcdfb2e8	-0.027306989
51	0x3dac6000	0.08416748
52	0x3d4258d4	0.047447994
53	0x3d02c3db	0.031925064
54	0x3d12cc8c	0.035839602
55	0xbd2c8ce3	-0.042126548
56	0xbdd39142	-0.1033044
57	0xbe18c066	-0.14917144
58	0x3c1823d7	0.009285889
59	0xbd08543f	-0.03328347
60	0x3df854e5	0.12125567
61	0xbd45fb53	-0.048335385
62	0xbd5d2089	-0.053986106
63	0x3df25a0b	0.118335806
64	0x3d47ae08	0.048749954
65	0x3d928d6f	0.071558826
66	0xbc845b3f	-0.01615679
67	0x3b224785	0.0024761867
68	0x3ca76460	0.020433605
69	0xbc91ae81	-0.017783405
70	0x3dffad9a	0.12484284
71	0x3c269038	0.01016622
72	0xbe018720	-0.12649202
73	0x3e169532	0.14705351
74	0x3cf640da	0.03006022
75	0xbd95ddd4	-0.07317701
76	0xbc6f679b	-0.014612104
77	0xbd8c0d1f	-0.0683844
78	0x3dc79c83	0.09746649
79	0xbe0dc2ac	-0.13843793
80	0xbdbc079c	-0.09181139
81	0x3c5a5e6e	0.013328178
82	0xbd91a65a	-0.07111807
83	0x3d7d1cc6	0.06179502
84	0x3e23f81b	0.16012613
85	0x3e022dcc	0.12712783
86	0xbd6493f8	-0.055805176
87	0x3db284a8	0.087167084
88	0xbdbcd961	-0.09221149
89	0xbd0ea109	-0.034821544
90	0x3cf45155	0.029823938
91	0x3a9c88ce	0.0011942626
92	0xbd6a889d	-0.05725919
93	0x3c889026	0.016670298
94	0xbdb77c67	-0.08959275
95	0xbe0877b7	-0.13326918
96	0xbcf1ca07	-0.02951528
97	0xbd3e9ba2	-0.04653514
98	0x3d0895ae	0.03334587
99	0xbd16c7e6	-0.03681173
100	0xbcd41d47	-0.025892867
101	0x3cf92404	0.030412681
102	0xbdfc8269	-0.12329561
103	0xbda2a236	-0.079410955
104	0xbdf0a415	-0.11750046
105	0xbde31a69	-0.11089022
106	0xbd24729e	-0.04014837
107	0xbdfbb597	-0.12290495
108	0xbe1fd4db	-0.15608542
109	0x3dd9919a	0.106234744
110	0x3c91ec89	0.017812984
111	0xbdaee4a3	-0.08539703
112	0x3de94ba2	0.11391379
113	0x3c21a34c	0.009865593
114	0xbddd2ad8	-0.107991874
115	0x3cbb32c4	0.022851355
116	0x3b35c7e1	0.0027737545
117	0x3ddbb091	0.10727037
118	0x3af2d6c1	0.0018527136
119	0xbdabb95f	-0.08384966
120	0xbdd45e59	-0.10369558
121	0x3e0c88c4	0.13724047
122	0x3e04a7be	0.12954614
123	0x3c5d4968	0.013506271
124	0xbd7870b7	-0.06065437
125	0xbc8d7c4f	-0.017271189
126	0xbd543d0a	-0.051816024
127	0xbe0e0f03	-0.13872914
128	0x3d14bc1b	0.036312204
129	0xbdb56d58	-0.08858746
130	0x3dccfc3a	0.10009046
131	0xbd8dc983	-0.06923201
132	0xbd12f1f0	-0.03587526
133	0xbb8c7b7f	-0.004287183
134	0x3e0febcc	0.14054793
135	0xbbbefc16	-0.005828391
136	0xbcad2ee3	-0.021140521
137	0xbe1615e6	-0.14656791
138	0xbbf9a826	-0.007618922
139	0xbd9d3bd9	-0.07677431
140	0xbde334b9	-0.110940404
141	0xbdf950d7	-0.12173622
142	0x3cfceb2b	0.030873856
143	0x3dd5750f	0.10422718
144	0xbe037c15	-0.12840302
145	0xbe087501	-0.13325883
146	0x3cf3840a	0.029726047
147	0xbda06d6b	-0.0783337
148	0x3b841253	0.0040305047
149	0x3d30f68f	0.043203887
150	0xbd300299	-0.042971227
151	0x3da5fa44	0.08104375
152	0x3d9998ef	0.07499873
153	0xbbf15091	-0.0073643406
154	0xbdeadcc1	-0.11467887
155	0x3c0f5e14	0.008750457
156	0xbe0d9b8e	-0.1382887
157	0xbd05a8f4	-0.03263183
158	0xbdb05445	-0.08609823
159	0xbe13fe7e	-0.1445255
160	0xbdd01359	-0.1015994
161	0x3db27514	0.08713737
162	0xbbc3f8ef	-0.005980603
163	0xbdef16b6	-0.11674254
164	0xbcc2d5b3	-0.02378354
165	0x3dc3bb27	0.09557181
166	0x3cb86d55	0.022513071
167	0xbe180e08	-0.14849102
168	0xbd288bd8	-0.04114899
169	0xbd3e4b16	-0.046458326
170	0x3d3e8dce	0.046521954
171	0xbdfae736	-0.12251131
172	0x3d3764ee	0.04477399
173	0x3d56c9b5	0.052438457
174	0x3d145dea	0.036222376
175	0xbe116e2a	-0.1420218
176	0xbd0082e2	-0.03137482
177	0x3cc2abbb	0.023763528
178	0x3d3f5a49	0.046716962
179	0xbd3fe3e0	-0.046848178
180	0xbdc60113	-0.09668174
181	0x3d5a054d	0.05322771
182	0x3e194b7b	0.149702
183	0xbe068fea	-0.13140836
184	0x3d5135d1	0.051076714
185	0x3c42a41d	0.011879948
186	0xbdeec62c	-0.11658892
187	0xbe0e7da8	-0.13915122
188	0xbe072306	-0.13196954
189	0xbddab9ca	-0.10679968
190	0xbc98dc2e	-0.018659677
191	0xbc166895	-0.009180208
192	0xbd52096b	-0.051278513
193	0xbd40abff	-0.04703903
194	0xbdd42498	-0.10358542
195	0xbcdf38e9	-0.027248817
196	0xbd275810	-0.040855467
197	0x3dc3ac4b	0.09554347
198	0x3d05729e	0.03258001
199	0xbd28f51f	-0.04124939
200	0x3dedb218	0.11606234
201	0x3c7c92d9	0.015415871
202	0x3d81367b	0.063092194
203	0xbd67b6d9	-0.05657086
204	0x3b1f1f71	0.0024280215
205	0x3d9fffc2	0.07812454
206	0xbd4471b3	-0.047959995
207	0xbd424653	-0.047430348
208	0x3d125756	0.03572782
209	0xbc4cbac5	-0.012495701
210	0xbd264d7c	-0.04060124
211	0x3d0b139d	0.03395425
212	0x3dfcd009	0.12344367
213	0xbe1965fe	-0.14980313
214	0x3dd5befc	0.10436818
215	0x3d1d0f47	0.038344648
216	0x3d089d24	0.033352986
217	0x3dd88c6b	0.105736576
218	0xbd138e0b	-0.036024135
219	0x3dea4669	0.11439211
220	0x3dcccac1	0.0999961
221	0xbd3a4c2a	-0.045482792
222	0xbe0a5dfc	-0.13512415
223	0xbe0ac581	-0.13551904
224	0x3d2f0c8f	0.042736586
225	0x3cbd4149	0.02310242
226	0x3e05a435	0.13050921
227	0xbc9022b2	-0.017594669
228	0x3d8f13fd	0.06986234
229	0xbd49b701	-0.04924679
230	0xbdf6b7ad	-0.12046752
231	0x3e06aa27	0.13150845
232	0xbe071298	-0.13190687
233	0x3d4e118e	0.05030971
234	0x3c66069c	0.014039662
235	0xbccb9e34	-0.02485571
236	0xbdcd9d63	-0.10039785
237	0xbd174371	-0.03692955
238	0xbd1aea61	-0.037821177
239	0x3dce39fb	0.10069653
240	0xbbdf44ef	-0.0068136374
241	0x3dad87c1	0.08473159
242	0xba009c5d	-0.00049061124
243	0xbe0939df	-0.13400982
244	0xbc0bfa51	-0.008543567
245	0xbe19b21d	-0.15009351
246	0xbd303191	-0.04301602
247	0x3d7f35de	0.06230723
248	0xbdc7f12a	-0.09762795
249	0x3d550f00	0.05201626
250	0x3c9d124d	0.019173766
251	0xbd5e140e	-0.054218344
252	0x3e0cce3d	0.13750549
253	0xbc42d5b7	-0.011891774
254	0x3db40bff	0.087913506
255	0xbb817489	-0.0039506597

evolve.recurrent_layer.bias_ih_l0 f4 [300]
0	0xbc9bc3e7	-0.019014312
1	0xbe0e28c9	-0.13882746
2	0x3c8bdbef	0.017072646
3	0xbd85bc01	-0.065299995
4	0xbe150c30	-0.1455543
5	0x3c6ff750	0.014646366
6	0x3d8e3c28	0.06945068
7	0xbd2b6920	-0.041848302
8	0x3b903ca0	0.0044017583
9	0xbdae7aad	-0.08519492
10	0xbc5eba28	-0.013594188
11	0xbdfc470c	-0.123182386
12	0xbdf48467	-0.11939316
13	0xbde489d9	-0.11159105
14	0xbdb6427a	-0.08899398
15	0x3dbcb0ad	0.09213386
16	0xbd96b8ef	-0.07359492
17	0xbdbd972b	-0.092573486
18	0x3cd4fa60	0.025998294
19	0xbe099126	-0.13434276
20	0x3d306ed4	0.043074444
21	0xbd935422	-0.071937814
22	0x3d9808e2	0.07423569
23	0xbe1eb606	-0.15499124
24	0x3d9cb2be	0.0765128
25	0xbd98ca8d	-0.074605085
26	0x3d04ee6f	0.03245395
27	0xbff00aca	-1.8753293
28	0x3d8b62b0	0.068059325
29	0xbe3aa5ec	-0.18227357
30	0x3cd362ba	0.025803912
31	0xbfc8a6a3	-1.5675853
32	0x3d6b96c0	0.057516813
33	0x3ca57161	0.020195665
34	0xbe2522c9	-0.1612655
35	0xbdf08039	-0.117432065
36	0xbe09b9b2	-0.13449743
37	0x3c59a684	0.013284329
38	0x3d2abb70	0.04168266
39	0xbea44425	-0.3208324
40	0xbd64e1f6	-0.055879556
41	0x3db30347	0.087408595
42	0xbebd7f1d	-0.37011042
43	0xbdaac14c	-0.0833765
44	0x3d9a4048	0.07531792
45	0x3c066a67	0.008204079
46	0xbdb0979c	-0.08622667
47	0x3d607bf5	0.054805715
48	0x3db17150	0.08664191
49	0x3e154ff6	0.14581284
50	0x3cd6c397	0.026216311
51	0xbd36b64a	-0.04460744
52	0x3a8fa24a	0.00109584
53	0xbd912e4c	-0.070889086
54	0xbd729385	-0.059222717
55	0x3dfcac0f	0.12337505
56	0x3ddeaa9d	0.10872386
57	0x3d18e913	0.037331652
58	0xbd8166a1	-0.06318403
59	0x3df50c40	0.11965227
60	0xbdb0a62a	-0.08625443
61	0x3d0754d3	0.03303988
62	0xbdd0f516	-0.102029964
63	0xbb10a3c8	-0.0022070277
64	0xbdb96bbf	-0.09053754
65	0xbcc3986e	-0.023876395
66	0xbc9abb7a	-0.018888224
67	0x3d223d5b	0.039609294
68	0xbe84bfe9	-0.25927666
69	0xbc1a3d0d	-0.00941397
70	0x3a976d84	0.0011553024
71	0xbdaa8256	-0.08325641
72	0xbd590ca7	-0.05299058
73	0xbdbc1958	-0.091845214
74	0xbe4fac7e	-0.20280644
75	0xbcb76e64	-0.022391506
76	0xbda6a22f	-0.08136403
77	0xbe472a03	-0.1944962
78	0x3dc5e930	0.096636176
79	0xbd7cf398	-0.061755747
80	0x3e06ef24	0.13177162
81	0xbdb11126	-0.08645849
82	0xbdb4fcb5	-0.088372625
83	0x3d9e921f	0.07742714
84	0x3abd1533	0.0014425874
85	0xbd861ce0	-0.06548476
86	0x3d4940dd	0.049134124
87	0x3e1e40db	0.15454428
88	0xbd12ef18	-0.03587255
89	0xbd8626eb	-0.06550392
90	0x3cf261f6	0.029587727
91	0x3da9d638	0.08292812
92	0x3d97228b	0.073796354
93	0xba99c63c	-0.0011732052
94	0x3c8e5f39	0.01737939
95	0xbcd24387	-0.025666965
96	0xbeb7e701	-0.3591843
97	0xbd7eea92	-0.062235422
98	0xbcf0e591	-0.02940634
99	0xbdd690f5	-0.10476867
100	0x3c3e2e64	0.01160774
101	0x3dc90462	0.09815289
102	0xbc603869	-0.013685324
103	0x3b7b5622	0.00383509
104	0xbba0c47f	-0.0049062367
105	0xbdf6ec63	-0.12056806
106	0x3dbe30ff	0.09286689
107	0xbcaac5d0	-0.020846277
108	0xbdf91d5c	-0.12163803
109	0xbc93df13	-0.018050706
110	0x3d964a82	0.0733843
111	0xbd9d5f64	-0.0768421
112	0x3dfe1444	0.12406209
113	0x3b6d8ae9	0.0036246127
114	0x3e717913	0.23581342
115	0xbdaf4442	-0.08557941
116	0x3d2b6b90	0.041850626
117	0xbd9ff2ed	-0.07810006
118	0x3cddb743	0.027064925
119	0xbe1d8e3b	-0.15386288
120	0xbd92bfca	-0.07165487
121	0x3e012bbd	0.12614341
122	0xbdca7e95	-0.09887425
123	0x3e91e64c	0.28496015
124	0xbdc76a12	-0.09737028
125	0x3ca4ee00	0.020133018
126	0x3df49bcc	0.119437784
127	0x3fa2d101	1.2720033
128	0x3d347083	0.044052612
129	0x3eb6f28e	0.3573193
130	0x3cf68c67	0.030096246
131	0x3fd17187	1.6362771
132	0x3c06b49a	0.00822177
133	0xbc86c5c5	-0.016451726
134	0x3d88e539	0.06684346
135	0xbe55bf3c	-0.20873731
136	0x3de4a5b1	0.11164416
137	0x3b6803c4	0.0035402635
138	0x3c98ec2d	0.018667305
139	0x3e9c3dfe	0.30516046
140	0x3df63006	0.120208785
141	0x3d47e387	0.04880097
142	0x3e74391a	0.23849908
143	0x3d1d1108	0.03834632
144	0xbbfa6bc5	-0.0076422417
145	0xbcf421d3	-0.029801285
146	0x3d234a6b	0.039865892
147	0xbdffbf3b	-0.12487646
148	0xbd7d6c8d	-0.0618711
149	0x3eb0b3c9	0.34512165
150	0xbd648966	-0.055795096
151	0xbd65f66a	-0.056143202
152	0x3e0f7d97	0.14012752
153	0x3dadebd3	0.084922455
154	0x3db8a292	0.09015383
155	0xbd91ee9c	-0.07125589
156	0xbe3687ee	-0.1782529
157	0x3d525ded	0.051359106
158	0xbcb09fbe	-0.021560546
159	0xbc974c6a	-0.018469054
160	0x3d3f9547	0.04677322
161	0x3c8aa2cd	0.016923333
162	0x3dcb146b	0.09916004
163	0x3d1284ad	0.03577106
164	0xbcc898fa	-0.024487007
165	0x3e086040	0.13317966
166	0xbd01d057	-0.03169283
167	0x3b34334c	0.0027496396
168	0x3eb6f6e4	0.35735238
169	0x3dcb1865	0.09916762
170	0xbd3e9814	-0.04653175
171	0x3d03313b	0.03202937
172	0x3d2f1413	0.042743754
173	0xbce01973	-0.027355885
174	0x3e99f17f	0.3006706
175	0x3c0dff4b	0.008666824
176	0x3dbb6390	0.091498494
177	0x3e061f22	0.13097814
178	0xbea2991e	-0.31757444
179	0x3e0d39e6	0.13791618
180	0x3d9d9b46	0.07695632
181	0x3d16d408	0.036823303
182	0xbc60be2d	-0.013717216
183	0x3d77cfdd	0.06050097
184	0x3cb901ed	0.022583926
185	0xbd7b94f0	-0.061421335
186	0xbde1d43f	-0.11026811
187	0x3d82e8f5	0.06392089
188	0xbc988ae3	-0.018620914
189	0xbcc489ed	-0.02399155
190	0xbce0b90d	-0.02743199
191	0xbdb3c013	-0.087768696
192	0xbdf08263	-0.11743619
193	0xbd48f4fe	-0.049061768
194	0x3e23650a	0.15956512
195	0xbdb3af3a	-0.08773656
196	0xbeaae7ca	-0.33379966
197	0x3e1d326c	0.15351266
198	0x3e768910	0.24075723
199	0x3e1f5e85	0.155634
200	0xbdb8ff1c	-0.09033033
201	0xbd74e0e1	-0.059784774
202	0x3bb0dc7a	0.0053973766
203	0x3d67c661	0.056585673
204	0xbcf2df6d	-0.029647553
205	0x3d4e40ae	0.050354652
206	0x3c4e9e4d	0.012610984
207	0xbddbdb77	-0.10735219
208	0xbe18f097	-0.14935528
209	0xbc4c78b3	-0.012479949
210	0xbd3b39a1	-0.045709256
211	0xbd1e4ce9	-0.038647566
212	0x3d58b5b3	0.052907657
213	0xbb386241	-0.0028134736
214	0xbd4f5c9b	-0.050625425
215	0x3c70c88d	0.0146962525
216	0x3c46fd36	0.012145331
217	0x3c516933	0.012781429
218	0x3d4124aa	0.047154106
219	0xbdb9f8ef	-0.090806834
220	0xbd55e62b	-0.05222146
221	0x3e498f8e	0.19683668
222	0xbd9233f5	-0.07138816
223	0x3e745751	0.23861434
224	0xbdb19313	-0.0867063
225	0xbdbd58d0	-0.09245455
226	0xbdd3db8e	-0.10344611
227	0xbdc29d12	-0.09502615
228	0xbc99c707	-0.018771661
229	0xbe438ce0	-0.19096708
230	0xbd3a7597	-0.0455223
231	0xbe0fba42	-0.14035895
232	0x3cb25f3a	0.021773923
233	0xbcacc866	-0.021091651
234	0xbd11d4f9	-0.035603497
235	0xbe96cadd	-0.29451647
236	0xbc674ac7	-0.014116949
237	0x3c163c5a	0.009169662
238	0x3d9a6d68	0.07540399
239	0x3edae591	0.4275327
240	0x3c359e1a	0.011085058
241	0x3c40e080	0.011772275
242	0x3e4f665b	0.2025389
243	0xbd68c7d5	-0.0568312
244	0xbcdbf23f	-0.02684891
245	0x3ce8b6da	0.028407503
246	0xbe00838f	-0.12550186
247	0xbd5fe1ec	-0.054658815
248	0xbd1d2ea3	-0.038374554
249	0xbe74250c	-0.23842257
250	0xbd97215d	-0.073794104
251	0xbdae11bf	-0.084994785
252	0x3cf641dc	0.030060701
253	0xbcdef3bb	-0.02721583
254	0xbd229c2c	-0.03969972
255	0x3c1b698a	0.009485612

evolve.recurrent_layer.bias_hh_l0 f4 [300]
0	0xbdaa2c3c	-0.08309218
1	0xbe0fa4ad	-0.14027663
2	0xbde112e7	-0.109899335
3	0x3d18b412	0.037281103
4	0xbdb48d51	-0.088160165
5	0xbe007cf8	-0.12547672
6	0xbda61072	-0.081086054
7	0xbd6707e6	-0.056404017
8	0x3ddb8d28	0.10720283
9	0x3d57a517	0.052647676
10	0xbdde4ecc	-0.10854873
11	0xbe20c56d	-0.15700312
12	0xbd0f18b4	-0.034935668
13	0xbdc0d3e6	-0.094154164
14	0xbb808838	-0.0039224885
15	0xbd9260f3	-0.07147398
16	0x3d1044c5	0.035221834
17	0xbd585b0d	-0.052821208
18	0xbd57320b	-0.05253796
19	0xbde6e97e	-0.11275004
20	0x3dc41e37	0.095760755
21	0x3cafd358	0.021463081
22	0x3cc495ed	0.023997271
23	0xbe6b06f8	-0.22951877
24	0x3df700cb	0.12060698
25	0xbd982242	-0.07428409
26	0x3d17fdc4	0.037107244
27	0xbffa668e	-1.9562547
28	0xbd9dd4d5	-0.0770661
29	0xbe67828f	-0.22608398
30	0xbdb99c60	-0.09063029
31	0xbfd19026	-1.6372116
32	0x3d87c523	0.06629398
33	0xbd8c40f5	-0.06848327
34	0xbdfe40c4	-0.12414697
35	0xbdb72ee0	-0.089444876
36	0xbd74792c	-0.05968587
37	0x3c87ae09	0.016562479
38	0x3baaa280	0.00520736
39	0xbeb30ede	-0.3497228
40	0xbe22912f	-0.15875696
41	0xbd83296a	-0.064043835
42	0xbebf8760	-0.3740797
43	0xbd852c5b	-0.06502601
44	0x3d4baa89	0.049723182
45	0x3d627457	0.05528673
46	0xbdffdf30	-0.124937415
47	0x3de7ba16	0.1131479
48	0x3b9d4fe7	0.004800785
49	0x3e21d0dc	0.1580233
50	0x3cb53b90	0.022123128
51	0xbba7ba67	-0.0051186564
52	0x3d8b0db1	0.06789721
53	0xbd182aa4	-0.03715004
54	0xbe132b37	-0.14371954
55	0x3e1910a6	0.14947757
56	0x3c206a3f	0.009790956
57	0xbe0ecbd0	-0.13944936
58	0xbdca673d	-0.098829724
59	0x3bc4a3be	0.006000965
60	0x3c3e0673	0.011598217
61	0xbd627980	-0.055291653
62	0xbdfa4707	-0.12220579
63	0xbd1185a7	-0.03552785
64	0xbd38f980	-0.045159817
65	0xbdfc0aa3	-0.12306716
66	0x3d83732f	0.06418454
67	0xbd1dcb0b	-0.038523715
68	0xbe73a98f	-0.2379515
69	0xbd027eb0	-0.0318591
70	0x3bdcc360	0.0067371577
71	0xbd83d6ee	-0.06437479
72	0xbdaf1722	-0.08549334
73	0xbc48e38c	-0.012261283
74	0xbea99594	-0.33121932
75	0xbd85f8f0	-0.06541622
76	0xbd1128fd	-0.03543948
77	0xbe80b848	-0.25140595
78	0x3e4d6878	0.20059383
79	0xbc058bfd	-0.008151052
80	0x3de0f09e	0.10983394
81	0xbe1dd9d9	-0.15415134
82	0xbddb0d42	-0.10695888
83	0xbc9a9ca3	-0.018873518
84	0xbd41b1fa	-0.047288872
85	0x3ca0f9f3	0.019650435
86	0x3beae2f1	0.007168167
87	0x3d3ac5e2	0.045598872
88	0xbe0540f5	-0.1301306
89	0xbdc7af0d	-0.09750185
90	0x3e01b7c2	0.12667754
91	0x3c3f0a40	0.011660159
92	0x3dbdde59	0.09270925
93	0xbe0b4c00	-0.1360321
94	0x3c978e0d	0.018500352
95	0x3daa7b18	0.083242595
96	0xbe9ad412	-0.30239922
97	0xbd58fda3	-0.05297626
98	0xbccccd51	-0.025000246
99	0xbdc11473	-0.094277285
100	0x3cd2dc35	0.025739769
101	0x3dbfa4df	0.093576185
102	0x3d9ebb03	0.077505134
103	0x3d785666	0.06062927
104	0x390444be	0.0001261411
105	0xbde66256	-0.11249225
106	0x3d6c36da	0.057669498
107	0x3b5cbd19	0.0033682047
108	0xbe0c6134	-0.13708955
109	0xbda69500	-0.08133888
110	0x3e00ba99	0.12571181
111	0xbd804bb6	-0.06264441
112	0x3e114d62	0.14189675
113	0x3da229af	0.07918107
114	0x3dded58b	0.10880574
115	0xbdcb2302	-0.099187866
116	0x3d5e3370	0.054248273
117	0x3d497fc3	0.04919411
118	0x3c48b160	0.012249321
119	0x3bf212ef	0.007387511
120	0xbe0531f8	-0.13007343
121	0x3e3c5b65	0.18394239
122	0xbd444143	-0.0479138
123	0x3e947968	0.28998876
124	0x3b64694a	0.0034852796
125	0xbd8817c8	-0.06645161
126	0x3bcea24b	0.006305968
127	0x3f9ad386	1.2095802
128	0xbd8925ba	-0.06696649
129	0x3ed1fd86	0.41013736
130	0x3d879165	0.06619529
131	0x3fdac5e4	1.7091641
132	0x3d885e18	0.06658572
133	0x3c94aabe	0.018147822
134	0x3e1f45e9	0.15554012
135	0xbe648da6	-0.2231966
136	0x3a8c3819	0.0010697871
137	0x3d0ea3b9	0.034824107
138	0x3d2b2870	0.04178661
139	0x3e7c0688	0.24611866
140	0x3ddb1662	0.106976286
141	0xbcdfa00d	-0.027297998
142	0x3e9a47f5	0.30133024
143	0x3c0abe6c	0.008468252
144	0xbdec8409	-0.11548621
145	0xbbecc9cd	-0.007226205
146	0x3d435401	0.047687534
147	0xbd438339	-0.047732566
148	0xbdb39c5b	-0.08770057
149	0x3e2269ff	0.15860747
150	0x3b79200b	0.0038013484
151	0x3da70e92	0.08157076
152	0x3db6d56a	0.08927424
153	0xbcad2e81	-0.021140339
154	0x3c866811	0.016407045
155	0xbd23394c	-0.039849564
156	0xbe373224	-0.17890221
157	0x3b873a28	0.004126806
158	0x3d863bed	0.06554399
159	0xbd4098b4	-0.04702063
160	0xbd2135f7	-0.039358106
161	0xbc18d567	-0.009328223
162	0x3c918027	0.017761303
163	0xbd01f4bc	-0.031727538
164	0x3d411d9a	0.04714737
165	0x3c343c0e	0.011000646
166	0x3b956867	0.004559565
167	0x3ca9e881	0.02074075
168	0x3ec0a31c	0.37624443
169	0x3d1d66f7	0.038428273
170	0x3e14b3a0	0.14521646
171	0x3cca90fe	0.02472734
172	0x3d31daa0	0.043421388
173	0x3db06809	0.08613593
174	0x3e8bfaf0	0.27339888
175	0xbda4a5da	-0.08039446
176	0xbd86c4e0	-0.0658052
177	0x3e626b90	0.22111344
178	0xbe5a1669	-0.21297611
179	0x3e1e3102	0.15448382
180	0x3c850e46	0.016242158
181	0x3dadb2ed	0.08481393
182	0xbd1a78cc	-0.037712857
183	0x3e1423f3	0.14466839
184	0x3a39b19a	0.00070836546
185	0xbda35e75	-0.079770006
186	0xbd95f4d8	-0.07322091
187	0x3d8fa4fa	0.07013889
188	0x3d19e128	0.03756824
189	0xbe08b97d	-0.13352008
190	0xbd43d98f	-0.047814902
191	0xbdc8a210	-0.09796536
192	0xbd8b0a24	-0.067890435
193	0xbd59b7f7	-0.05315396
194	0x3e0985c0	0.13429928
195	0x3d9e4ef0	0.077299
196	0xbea67738	-0.32512832
197	0x3db592c8	0.08865887
198	0x3e06f54f	0.13179515
199	0x3dfdc2f4	0.123907
200	0x3c451af4	0.012030352
201	0x3d2c1b0b	0.042017978
202	0xbcfdbf8d	-0.030975128
203	0xbd206421	-0.03915799
204	0x3d1fd6d5	0.03902324
205	0xbddc8135	-0.10766832
206	0x3dc2c0a2	0.09509398
207	0x3bf2dc64	0.0074115265
208	0xbd58b970	-0.052911222
209	0x3b885ecd	0.0041616918
210	0x37ecd84f	2.8234119e-05
211	0x3d093b80	0.03350401
212	0xbdd531e2	-0.10409905
213	0xbd8349cf	-0.06410562
214	0xbd2841af	-0.041078266
215	0x3c89df3a	0.016830076
216	0xbc867115	-0.016411344
217	0xbd4de61a	-0.05026827
218	0xbca37db4	-0.0199574
219	0xbdceaebc	-0.10091922
220	0xbe1892ac	-0.14899701
221	0x3e9023f7	0.2815244
222	0xbd97763f	-0.073956005
223	0x3e73b528	0.23799574
224	0xbd12b337	-0.035815444
225	0xbd95bf93	-0.073119305
226	0xbce93dc1	-0.02847183
227	0x3d84ef5a	0.06490965
228	0xbdbbead2	-0.09175648
229	0xbe326a1d	-0.17423292
230	0xbd41c5ea	-0.047307886
231	0xbd6e0b0a	-0.058115996
232	0x3d3f400d	0.046691943
233	0xbe195d22	-0.14976934
234	0x3d333319	0.043749902
235	0xbe7a6fbb	-0.24456684
236	0xbdc22ab3	-0.094808005
237	0xbd36b73c	-0.04460834
238	0xbdc024f5	-0.09382049
239	0xbe694124	-0.22778755
240	0x3cbbc3fb	0.0229206
241	0x3d7d5707	0.061850574
242	0x3e91d575	0.28483167
243	0xbd880cb3	-0.06643047
244	0xbe188f99	-0.14898528
245	0x3d972acb	0.07381209
246	0xbe1473f7	-0.14497362
247	0x3b9926d6	0.004673819
248	0x3d28ee0d	0.041242648
249	0xbe9df292	-0.3084913
250	0xbd978435	-0.07398263
251	0x3d6b679a	0.05747185
252	0xbd379df1	-0.04482836
253	0xbdc0c19f	-0.0941193
254	0xbcfe8df6	-0.031073552
255	0x3beb7a0d	0.0071861804

post.weight f4 [2, 100]
0	0xbb892de1	-0.0041863774
1	0xbc12faf2	-0.008970963
2	0xbcf5f9fb	-0.030026427
3	0xbb89c761	-0.004204676
4	0xbcf43813	-0.029811895
5	0x3ca4a690	0.020098954
6	0x3c1dc18d	0.009628666
7	0x3ca1cdbe	0.019751426
8	0xbbf41cb5	-0.007449711
9	0xbda921a7	-0.08258372
10	0x3d7f13c8	0.062274724
11	0xbd78ffd1	-0.06079084
12	0x3d795261	0.06086958
13	0xbaf12e88	-0.0018400708
14	0xbd514c74	-0.051098302
15	0xbdcc9270	-0.09988868
16	0xbd453f3e	-0.048156016
17	0xbc94c133	-0.01815853
18	0xbcba72ca	-0.022759814
19	0x3cea8575	0.02862809
20	0x3c0e28b3	0.008676696
21	0x3e3242d0	0.174083
22	0xbd4efe43	-0.05053545
23	0x3c2885da	0.010285819
24	0xbc88fb26	-0.01672132
25	0xbd20561a	-0.039144613
26	0x3d57cca1	0.052685384
27	0x3e8c7937	0.2743623
28	0xbd97d963	-0.0741451
29	0xbe472bc1	-0.19450285
30	0x3d08376a	0.033255972
31	0x3e8c19a7	0.2736332
32	0xbd141147	-0.03614929
33	0x3cd88497	0.026430411
34	0x3d71b088	0.059006244
35	0xbe59ecaa	-0.21281686
36	0x3b50e1a0	0.0031872764
37	0xbb38eb78	-0.0028216522
38	0xbdb60d00	-0.08889198
39	0xbe688f63	-0.22710948
40	0xbc51cb96	-0.012804886
41	0x3d594a5a	0.053049423
42	0x3e5bd3b0	0.21467471
43	0xbd9944f6	-0.074838564
44	0x3c7775c9	0.015103766
45	0xbcea7687	-0.028620971
46	0x3ced40cc	0.028961562
47	0xbd0d302b	-0.034469765
48	0xbb8e7c33	-0.004348302
49	0x3e4ccb21	0.19999363
50	0xbd3ff221	-0.04686177
51	0xbdc2e88d	-0.09517012
52	0x3d1d994f	0.038476285
53	0x3d842ea1	0.06454206
54	0x3d6223ec	0.05521004
55	0x3d72ce13	0.05927856
56	0xbd93c0ec	-0.07214531
57	0x3dd11611	0.10209287
58	0xbd24c1aa	-0.040223755
59	0xbd2ffc24	-0.04296507
60	0xbd19c9c7	-0.037545945
61	0xbc3f40f3	-0.0116732
62	0x3d1df717	0.03856572
63	0xbb436940	-0.0029817373
64	0x3d019223	0.031633507
65	0xb9de8748	-0.00042443932
66	0x3dab0dfb	0.08352276
67	0x3cdde835	0.027088264
68	0xbc68a0f8	-0.014198534
69	0xbc94c5d3	-0.018160736
70	0xbc97df06	-0.018538963
71	0x3bf36ed4	0.007428983
72	0x3cbba82d	0.02290734
73	0x3d9c4cc3	0.07631829
74	0xbe36e255	-0.17859776
75	0xbd2c824d	-0.042116452
76	0xbdb20050	-0.08691466
77	0x3e199da8	0.15001547
78	0xbe3265b0	-0.17421603
79	0x3c9ba8c9	0.019001381
80	0x3c8ee026	0.017440867
81	0x3d8200d0	0.06347811
82	0x3dbe5036	0.09292643
83	0xbd1327c6	-0.035926603
84	0x3c2fac33	0.010722208
85	0xbcb2ca67	-0.021825029
86	0xbd152b68	-0.03641835
87	0xbda5309b	-0.080659114
88	0xbc3790f8	-0.011203997
89	0x3d053775	0.03252359
90	0xbd465062	-0.048416503
91	0xbc087e4d	-0.008330894
92	0x3a3d650d	0.00072248356
93	0xbcdc14a9	-0.02686532
94	0xbd1fcaa2	-0.039011605
95	0x3d1d06ba	0.038336493
96	0xbd8b99c3	-0.06816437
97	0x3cf1ddb3	0.02952466
98	0xbd30d7cc	-0.04317455
99	0x3dd9b6e0	0.10630584
100	0x3d1ecf8a	0.038772143
101	0x3dc45903	0.0958729
102	0x3df6e0c4	0.120545894
103	0xbcdcdfe6	-0.026962232
104	0xbd91416b	-0.070925556
105	0xbc64eba6	-0.013972199
106	0x3d93cd9d	0.07216952
107	0xbd132610	-0.03592497
108	0xbd7d6569	-0.06186429
109	0xbdc3cc1b	-0.095604144
110	0xbccf0130	-0.025269121
111	0xbb8332e9	-0.0040038717
112	0xbcc42bfe	-0.023946758
113	0xbd13b43e	-0.036060564
114	0x3d290718	0.04126653
115	0x3da4c6d2	0.080457345
116	0x3dc2f77f	0.095198624
117	0xbda8321f	-0.08212685
118	0xbd4b8e44	-0.049696222
119	0x39de4f78	0.00042402348
120	0xbd82e0e8	-0.06390554
121	0x3e391414	0.18074065
122	0xbb795400	-0.0038044453
123	0x3d6f3b9b	0.058406454
124	0xbc27b945	-0.010237043
125	0x3bf6f41a	0.0075364234
126	0x3d3cf5f5	0.046133
127	0x3e8da75c	0.27666748
128	0xbd3d6010	-0.04623419
129	0xbeac32d4	-0.3363253
130	0xbd8fe515	-0.07026116
131	0x3e872663	0.26396474
132	0xbc2f2e33	-0.010692167
133	0x3d185783	0.037192833
134	0xbd0a2132	-0.033723064
135	0xbe0c6557	-0.13710533
136	0x3d15600a	0.036468543
137	0x3d05258c	0.03250651
138	0x3c84672d	0.01616248
139	0xbe961cc1	-0.29318812
140	0xbcb9f835	-0.022701362
141	0x3d8c430d	0.068487264
142	0x3e587f7c	0.21142381
143	0x3d763f78	0.060119122
144	0xbd65d56b	-0.056111734
145	0x3d2eef47	0.04270866
146	0x3d9655f9	0.07340617
147	0x3c9d5431	0.019205185
148	0xba4f8733	-0.00079165696
149	0x3e0b4570	0.13600707
150	0x3dd72942	0.10505916
151	0x3c250fa7	0.010074533
152	0xbe165eb5	-0.14684565
153	0xbd9443a2	-0.072394624
154	0x3cfd5096	0.030922215
155	0xbd38b9c5	-0.04509904
156	0xbc3b13af	-0.011418267
157	0xbc9a1dc0	-0.018813014
158	0x3de3ea87	0.11128717
159	0x3cf451ba	0.029824127
160	0x3d9a5b2f	0.07536923
161	0x3c8ac7cd	0.016940976
162	0x3b94a0ee	0.004535786
163	0xbd4d3520	-0.050099492
164	0xbc5293da	-0.012852633
165	0x3c8f454e	0.017489102
166	0x3d598f00	0.05311489
167	0x3cf5b10f	0.029991655
168	0x3d501e89	0.05081037
169	0xbc3dc3cd	-0.011582327
170	0x3a1aec30	0.00059098285
171	0xbd338b99	-0.043834303
172	0x3d1df543	0.038563978
173	0x3c78c3d2	0.015183406
174	0xbe858577	-0.26078388
175	0xbc9aadaf	-0.018881647
176	0xbd9ab4a0	-0.07553983
177	0x3e320bef	0.17387365
178	0xbe5dcff5	-0.2166136
179	0x3c97bcbc	0.018522613
180	0xbcc98df0	-0.024603814
181	0xb9f9679c	-0.00047570176
182	0xbce18e06	-0.027533542
183	0x3d1ab15c	0.0377668
184	0x3ceacd9a	0.028662492
185	0x3d9e2e03	0.0772362
186	0xbd2f425c	-0.042787895
187	0x3c7ae202	0.0153126735
188	0x3c6bda5f	0.014395325
189	0x3d4753ad	0.048663784
190	0x3c8cc5f1	0.01718423
191	0xbca8b88d	-0.020595813
192	0xbdbf541f	-0.09342217
193	0xbcd868c9	-0.026417153
194	0x3c249008	0.010044105
195	0xbd2f2c4a	-0.042766847
196	0xbda825eb	-0.08210357
197	0xbd63b69a	-0.055594064
198	0xbd83b3c8	-0.06430775
199	0x3e44fa0c	0.1923601

post.bias f4 [2]
0	0xc00e1b6d	-2.220424
1	0xc0123be2	-2.284905
