trained_models/gcrngru_bitcoinotc.pt (torch, 492594 bytes, 22 tensors)

pre.weight f4 [100, 1]
00000000: 1642 8bbf 876b 3140 b1f2 3cc0 ebc7 a6c0
00000010: 978f 53c0 8982 0240 845e 91c0 2b9b 58c0
00000020: 9f19 a8bf 92c3 eabe 9f1e a940 c266 33c0
00000030: 0ff6 2240 2f5c 0140 c970 2bbf 2490 503f
00000040: 3c99 94be eff9 5c3f 47a7 e9bf c8ed 2240
00000050: c073 9fc0 8f07 2cc0 4165 103f 4d5e dcc0
00000060: c158 9b40 a865 6540 2b90 213f 1e6e 46bf
00000070: 1228 2040 d187 33bf a073 2140 973e c6bf
00000080: fa31 993e 03d7 12c0 7aa1 cebf 2e01 9d3f
00000090: 7234 cd40 ced7 2bc0 8b1a d53f 21db 49bf
000000a0: 58fd 63c0 91a7 b5c0 a055 aac0 bd26 bd3f
000000b0: 7726 2440 6e45 50be f856 2ac0 9eb8 c2bd
000000c0: 9652 f73f 5b89 6c40 5f33 3240 3a7d 4f40
000000d0: 0130 6e3f 1518 ae3f 9b48 9f40 ea76 81bd
000000e0: cbc9 80c0 d767 51c0 c012 0640 b117 4fbe
000000f0: 91a9 a63f e210 9d3f 7c51 0c3f 9c54 20c1
00000100: 3939 51bf 36f9 31c0 6739 a3bf d877 9ac0
00000110: b5a3 e9be 7696 0a40 d331 b6bf 8290 04c0
00000120: e6d3 9cc0 14bb 7440 3a0a 7d40 883d fc3e
00000130: e56e 7fc0 0000 31c0 7a4b a53f 35a0 32bf
00000140: 9bc5 c4bf f661 a73f fd96 b9c0 a63a 203f
00000150: e5a0 3abf b14b b93f 0063 d43f 2f89 aec0
00000160: 58d9 f73f 7190 31c0 35ec c140 3400 2bbf
00000170: 5702 ebbf 03e4 a9bf 8330 8940 5a7f aac0
00000180: da7c 2f40 b4ad d53f e9a7 8240 9cd8 8e40
-1.0879543 2.772188 -2.9523127 -5.211904 -3.305639 2.0392172 -4.5427876 -3.3844707
-1.3132819 -0.45852333 5.284988 -2.8031468 2.5462682 2.0212514 -0.6696897 0.8146994
-0.2902316 0.8631887 -1.8254174 2.545763 -4.9828796 -2.6879613 0.564045 -6.8865113
4.854584 3.5843296 0.6311061 -0.77511775 2.5024457 -0.70129114 2.5226822 -1.5487851
0.29920942 -2.2943733 -1.6143029 1.2265985 6.412652 -2.6850467 1.6648725 -0.7884999
-3.5623379 -5.676705 -5.3229523 1.4777447 2.5648477 -0.20338985 -2.6615582 -0.09507869
1.9322078 3.6958835 2.7843854 3.2420182 0.93042 1.3601099 4.977613 -0.06321509
-4.024633 -3.271963 2.0948944 -0.20223881 1.3020498 1.2270777 0.54811835 -10.020657
-0.8172794 -2.7808356 -1.2751893 -4.8271294 -0.4563271 2.1654334 -1.4233955 -2.07132
-4.9008665 3.8239183 3.9537492 0.49265695 -3.9911435 -2.765625 1.2913659 -0.69775707
-1.5372804 1.307677 -5.799681 0.6258949 -0.72901756 1.4476224 1.6592712 -5.454246
1.9363203 -2.774441 6.060084 -0.66797185 -1.8360089 -1.3272709 4.287172 -5.328046
2.7419953 1.6693635 4.082997 4.4639416

pre.bias f4 [100]
00000000: b26c 133e 8d72 5a40 81af 25c0 2efd a6c0
00000010: 344c d4bf 3337 2740 35b9 4bc0 9781 70c0
00000020: acf7 21c0 01e2 8dbf 112f 9740 5807 54c0
00000030: 0659 df3f 2198 9e3f b7ab 373f b417 b33f
00000040: a862 483d 746e 7f3e 1c3a 51bf ed37 0040
00000050: f260 c4c0 043f fcbf bec2 0040 7303 fec0
00000060: 0a28 6d40 1490 5440 1f6c b1bd 2597 cabf
00000070: c68e 2b40 c782 b8be 1a82 3140 eb63 90bf
00000080: 81f2 10bd 7ea9 26c0 244c f0bf 6537 c63f
00000090: 25e4 c540 95f0 34c0 e426 603f 9eba 523f
000000a0: 1b53 88c0 d630 81c0 6a9a b6c0 3b93 7d3f
000000b0: 3383 5c40 9888 b9bf 1ea2 29c0 0561 dd3f
000000c0: 341f c33f 6969 2d40 6ae6 0340 ece8 4e40
000000d0: f4c4 703f 3dcd c03f 823e 6040 8867 da3e
000000e0: 7538 44c0 42c6 26c0 190b 4a40 1c24 ec3e
000000f0: 99c2 ff3f 65ea 8b3f 04ca 253f 7d48 17c1
00000100: 7921 b3bf c9fa 58c0 596c 20c0 db93 a3c0
00000110: 5d97 dd3e d0b0 2840 0522 babf a08e 25c0
00000120: c207 3cc0 fdcc 6b40 636a 7940 a353 fa3f
00000130: 5993 79c0 a3ac 57c0 bc86 0b3e a8ab e9bc
00000140: bdb5 02c0 592c d73f 4620 a4c0 511c 9e3f
00000150: 012a 06bf f489 d53e 5d39 a03f 29b7 99c0
00000160: 1dab 5b40 0b7e 65c0 c21a ca40 9c45 cebf
00000170: 0c72 91bf 9a4f 87bf f779 8840 357d 77c0
00000180: 7d7a 4c40 cec4 913f 75b4 5340 18f2 a540
0.14396933 3.4132416 -2.588837 -5.2184057 -1.6585755 2.612744 -3.1831791 -3.7579095
-2.5307417 -1.1084596 4.7244954 -3.3129482 1.7449043 1.2390176 0.7174639 1.3991609
0.04892221 0.24944478 -0.8172929 2.0034134 -6.136834 -1.9706731 2.0118861 -7.937921
3.7055688 3.3212938 -0.086632006 -1.5827376 2.6805892 -0.36037275 2.7735658 -1.1280493
-0.03538752 -2.604095 -1.8773236 1.5485655 6.1840997 -2.827184 0.8755934 0.82316005
-4.2601447 -4.0372114 -5.7063494 0.9905278 3.4455078 -1.449481 -2.6505198 1.7295233
1.5243897 2.7095587 2.0609384 3.2329664 0.94050527 1.5062634 3.5038152 0.42657113
-3.0659459 -2.6058507 3.1569273 0.461213 1.9981261 1.0930907 0.64761376 -9.455197
-1.399459 -3.3903067 -2.506613 -5.111799 0.43279544 2.6357918 -1.4541632 -2.5868301
-2.9379735 3.6843865 3.8971183 1.9556774 -3.8996184 -3.369912 0.13625616 -0.028524235
-2.0423424 1.6810409 -5.1289396 1.2352391 -0.5240784 0.41706812 1.2517506 -4.8036084
3.432319 -3.585818 6.3157663 -1.6114993 -1.1362929 -1.0571167 4.2648883 -3.867017
3.194976 1.1388185 3.3078892 5.1858025

evolve.conv_x_z.bias f4 [100]
00000000: 83c1 953e ac9e 8f3d 83bb 753d 4949 8c3d
00000010: 5001 fcbd 78ad 3cbe 7cfd 01be 8a28 1bbe
00000020: 83f9 753d 0000 0000 e7a0 02be 0000 0000
00000030: 3ab9 ab3e 7e0b 763d fc8a b2be 8f7c c4bd
00000040: 5999 9cbe 29e7 643e a6d0 7c3e bac3 04be
00000050: d2f1 1cbe 0d92 9d3e b2da 01be cc3b 4c3b
00000060: 4ef1 da3e 21e9 793d ec67 38be c25c ed3b
00000070: 490d 9c3e 6e1f bf3c e5fa 753d 2745 a13e
00000080: aee6 793d 2fa6 a13e 34d1 a3be 4af6 753d
00000090: 3a79 18be f627 8c3d e9e8 803e 91f5 753d
000000a0: 50ae eabd 0000 0000 1999 afbe 6e4e 663d
000000b0: a860 d739 c18d 6fbe e2d0 753d de31 7ebe
000000c0: 1f04 983e 93f9 3dbe 9e39 753d 8b48 063e
000000d0: 0000 0000 de27 17be 1b94 6e3d c337 ba3c
000000e0: dd3e dbbe c254 e3bd 69be 76bd 9bc1 7cbe
000000f0: f8e7 333d 0000 0000 288b e1bd 98ca 753d
00000100: 8ed6 b4bd 6204 32be 4759 ffbd 5a0e 8e3e
00000110: d4ed 723d 4cc3 043e be3b 1438 110f c4bd
00000120: e24e d92c bf1c 94be 2740 b236 e876 f8bd
00000130: d041 613e e1cd 1838 4fde d6bd a501 603d
00000140: fffa 753d 47e3 eabd 45ea 753d 05fa 753d
00000150: 83a1 01c0 adbe 8c38 12b5 d7bd 8c8d b3be
00000160: 3dcd 753d 94fa 753d dc4c 7a3d 8d64 8f3e
00000170: c21d 3f3e 4031 323d d0ab 0dbe 0ed9 d4bd
00000180: be0a e4bd 75f4 753d 340c 59bd adc8 753d
0.292492 0.07012686 0.05999328 0.068499155 -0.12304938 -0.18425548 -0.12694353 -0.15152183
0.060052406 0.0 -0.12756692 0.0 0.33539754 0.060069554 -0.34871662 -0.0959407
-0.30585745 0.22353806 0.24688968 -0.12965289 -0.15326622 0.3077549 -0.12681082 0.0031163571
0.42762226 0.061013345 -0.18008393 0.0072437236 0.30478886 0.023330417 0.060053725 0.31498072
0.06101101 0.315721 -0.31995547 0.060049333 -0.14889994 0.068435594 0.25177696 0.060048643
-0.11459029 0.0 -0.34296492 0.05622714 0.0004108001 -0.23393919 0.06001366 -0.2482371
0.29690644 -0.18552236 0.0598694 0.1311361 0.0 -0.14761302 0.058246713 0.022731667
-0.42821398 -0.11100151 -0.060240183 -0.2468323 0.043922395 0.0 -0.1101287 0.06000766
-0.088299856 -0.17384484 -0.124682 0.27745324 0.05930884 0.12965125 3.534159e-05 -0.09573186
6.1762687e-12 -0.28928182 5.3122817e-06 -0.121320546 0.21997762 3.6431364e-05 -0.10491621 0.05468907
0.06005382 -0.11469131 0.06003787 0.06005289 -2.025483 6.711236e-05 -0.10532583 -0.3506893
0.060010184 0.060053423 0.061108455 0.28006402 0.18663695 0.043504 -0.13835073 -0.103929624
-0.111348614 0.060047586 -0.052990153 0.060005832

evolve.conv_x_z.lins.0.weight f4 [100, 100]
00000000: 150f 3bbe e499 193e 2183 34be 9bc3 6dbe
00000010: a690 60be dbaf d93e 6e86 adbe edf0 03be
00000020: b88b 72be 13b0 a8be caf6 a63e 032a 20be
00000030: fd2d ff3d dec3 b03e 8da3 66be 8f85 df3e
00000040: 89d7 6bbe a6b3 b4bd c512 74be 4b55 e13e
00000050: 8b94 f8bd 46d1 b7be 7636 d93e 6a08 d6be
00000060: 24f4 e83e ddce e83e 4d23 a33d 3e81 c9be
00000070: 277a 873e 0abb c0be e10a 023e 7952 bbbe
00000080: 87f8 f13d 6062 aabe 142e 2abe c179 8b3e
00000090: b613 b33e 29e2 b2be 00f3 bf3e fe12 02be
000000a0: 1408 5cbe 3c9d 9dbe 5e7b cbbe 0773 ac3e
000000b0: 4885 a13e 1719 8dbe be52 78be 69ed 913e
000000c0: 2785 2e3e 2297 8d3e 0978 a63e 020f 643e
000000d0: 4156 9f3e a342 e13e d378 be3e d4a6 b7be
000000e0: 72e6 d1be f283 85be abd3 bd3e bf0f 9c3e
000000f0: 0be5 9f3e c207 543e 56a4 ce3e 5ba9 e3be
00000100: ba7b 5cbe 16e9 fcbd 7138 66be 095a 5abe
00000110: de44 c1be d11a 833e 3048 82be 1bdd 6fbe
00000120: 4269 dabe fca1 9d3e ffe4 3d3e 1a65 5a3e
00000130: 73c2 33be 9fee 78be eac6 a3be 227e 05be
00000140: 5fbe 89be d6dd 043e 33d5 d1be 8287 e83e
00000150: daef bbbe d485 d53e 0019 873e 6e53 d2be
00000160: 1907 823e 8c44 d8be c0cf 8e3e 5f0b c9be
00000170: 0233 a8bd 1b8c e2be 2993 2e3e 31f2 14be
00000180: 1f6f bc3e e0f0 133e ac73 c03e 6586 233e
00000190: c498 37be 2e84 2fbd 3a56 75be 7635 aa3c
000001a0: 90c1 59be dec8 443e ffe0 ae3d 29fa 40bd
000001b0: e6a4 97bd 5967 77be 5c69 5b3e e63d 463c
000001c0: 42cf 313d 4c57 363e db89 623e 682e bf3b
000001d0: d780 55be 2c0b 8d3e 9d5c 16bc e356 af3d
000001e0: 91a0 f6bd 814a b9bd ecdc 153c 1eda 8f3b
000001f0: 96f5 cc3d da77 6e3e a206 4bbd f862 fd3b
00000200: 982e 223e 6508 55be 5ea8 753e 4aac 20bd
00000210: 91a2 a03d 86ce 2ebe ae16 153d f268 9cbd
00000220: 28dd 963c 4f02 b53d d1cf babd a16f cabd
00000230: 783b a83d 6aa4 b63c ad11 66bd 0584 8abc
00000240: 9653 133d 4f38 b53d 9e0c 7bbe cf16 0b3e
00000250: cce7 0cbc 31c8 14bd 3b8c 71bd 41f6 3dbc
00000260: 0f83 a6bd d22b 16bd 8ab2 df3d bc74 993c
00000270: e791 4cbc 8472 3cbd 8592 0e3e b79e ed3d
00000280: 1f76 493e 2091 e73d ba8c 723e 56d6 4cbe
00000290: d3fc a13c a4fc 09be 3d65 26be 1fd2 a03d
000002a0: 39d6 d83c a90f f13d f144 ca3d 2111 9b3c
000002b0: dd49 7fbd 8633 083c 240d 553e 4c7e fab9
000002c0: 9877 24be a673 6bbe d853 f7bd de6e 753d
000002d0: 42f7 f53c 6a97 c1bd 11ff b03d 35ca 1d3d
000002e0: 5469 cd3c ca78 d5bd 4078 443e 5cf7 52be
000002f0: 06f6 173e ffa5 5fbd e2a3 2f3e e506 d5bd
00000300: 3574 38bd 219d 06be bd7e 273e 543d b5bd
00000310: 2688 2f3e 11df 19bd 7dd7 f73c 8e4f 583e
00000320: 48ad 12be c4ea 183e 531e 34be 6cb6 3ebe
00000330: a5d8 50be 5a83 a9bd cca4 5a3b 73ea 1fbd
00000340: 7540 3b3d d073 43ba cde6 a6bc 21a3 afbc
00000350: 305c d4bd 5dba 7bbb e01d 2ebd a762 043e
00000360: 80d2 01bd 40fe 613e 0b57 8cbd e50f 8f3d
00000370: d732 26be 9909 dabd c7d5 193e 1f1a 7bbd
00000380: ad4d dfbd 3fef 59bc ced4 5cbe 4c11 48bd
00000390: 4dfe c53c 44f6 e03d 62b5 843d 792c 08be
000003a0: 7570 513d 8854 ddbd c84e c6bd 0edf 143e
000003b0: 965e 213e 1f83 623d e142 463e 6ad6 5a3a
000003c0: 6b2c 12bd afba 18be 487d 693d fe42 c93b
000003d0: be4f cb3d 2b41 563d 3803 d9bd 50b5 503e
000003e0: 595e 0f3b 99a0 313e 801f fe3d 4bf4 693e
000003f0: 1eda d93d cad5 e43d 8e1b 99bd c456 c93c
-0.18267472 0.15000111 -0.17628147 -0.23219149 -0.21930179 0.4251698 -0.33891624 -0.12884875
-0.23686111 -0.32946834 0.3261016 -0.15641026 0.124599434 0.34524435 -0.22523327 0.43656585
-0.23031439 -0.08823328 -0.23835285 0.44010386 -0.12137707 -0.3590185 0.42424363 -0.41803294
0.45498765 0.45470324 0.079657175 -0.39356416 0.26460382 -0.376427 0.12699462 -0.3658636
0.11814981 -0.3327818 -0.1661914 0.27241328 0.34975976 -0.34938172 0.37490082 -0.12702557
-0.21487457 -0.30784023 -0.3974256 0.3368151 0.31546998 -0.27558205 -0.24250314 0.28501442
0.17042981 0.27654368 0.32513455 0.2227135 0.31120494 0.43996152 0.37201557 -0.35869467
-0.40996128 -0.2607723 0.37075552 0.30480763 0.31229433 0.20706084 0.40359753 -0.44465145
-0.21531573 -0.12349145 -0.22482468 -0.21323408 -0.37747854 0.25606397 -0.254457 -0.23424189
-0.4265843 0.30787647 0.18544386 0.2132763 -0.17554645 -0.24309777 -0.31987697 -0.13036397
-0.26903054 0.12975249 -0.4098297 0.45415884 -0.3670643 0.41703665 0.2638626 -0.41079277
0.2539604 -0.42239797 0.27892876 -0.39266488 -0.08212854 -0.44247517 0.17048325 -0.14545514
0.3680353 0.14447355 0.3758825 0.15969236 -0.17929369 -0.042850666 -0.23958674 0.020777445
-0.21265244 0.1921725 0.08539008 -0.04711357 -0.07404499 -0.24160518 0.2142691 0.012099719
0.043410547 0.17806739 0.221229 0.0058343895 -0.2084993 0.27547586 -0.009177354 0.08561494
-0.12042344 -0.090474136 0.00914691 0.0043900153 0.10007779 0.23287907 -0.049566872 0.0077327453
0.15838087 -0.20803984 0.23990008 -0.039226808 0.07843507 -0.1707097 0.036398582 -0.07637204
0.018416002 0.08838331 -0.09121669 -0.09884573 0.08214468 0.022295196 -0.0561692 -0.016908655
0.035968386 0.08848631 -0.24516532 0.1358292 -0.008600187 -0.03632373 -0.058971625 -0.011594356
-0.08130466 -0.036662884 0.109227255 0.018732421 -0.012485958 -0.046007648 0.1392308 0.11602538
0.19673966 0.11306977 0.23686495 -0.20003638 0.019773876 -0.13475281 -0.16249557 0.078525774
0.026469337 0.11770565 0.09876431 0.018929066 -0.0623263 0.008313065 0.20805794 -0.00047777814
-0.16061246 -0.22993335 -0.12076539 0.059920184 0.030025128 -0.09452708 0.086424 0.038522918
0.025074638 -0.10423429 0.19186497 -0.20602173 0.14839944 -0.054601666 0.1715236 -0.10401706
-0.0450327 -0.13145877 0.1635694 -0.08849588 0.1714178 -0.03756625 0.03025412 0.21124098
-0.14323914 0.14933306 -0.17589693 -0.18624276 -0.20395143 -0.082770064 0.0033362387 -0.039041948
0.045715768 -0.0007455917 -0.020373726 -0.02144009 -0.10369146 -0.0038410642 -0.04250896 0.12928258
-0.03169489 0.22069645 -0.0685254 0.069854535 -0.16230331 -0.10646362 0.15022956 -0.061304208
-0.10903487 -0.01330167 -0.21565554 -0.04884462 0.024169112 0.109844714 0.064799085 -0.13298215
0.051132638 -0.10807139 -0.09682995 0.14538214 0.15758738 0.055300828 0.1936145 0.000834799
-0.03568689 -0.14914964 0.057004243 0.0061420193 0.09927319 0.052308243 -0.10596317 0.20381665
0.0021876304 0.1734642 0.12408352 0.22847097 0.10637306 0.111735895 -0.07475959 0.024577506

evolve.conv_x_z.lins.1.weight f4 [100, 100]
00000000: 89e3 bc3e 2cc5 c9be a0d2 cc3e ec5c d73e
00000010: 7656 cc3e 5226 1bbe 7668 d53e c5ed f33d
00000020: 52e4 d23e 9297 e23e d3bc 9dbe f520 fa3d
00000030: 64ba a9be 2668 cabe 7d4c 543e b25c 0cbe
00000040: d952 e03e 7e4e 593e 5b00 913e 40f9 c8be
00000050: 29ad 483e 1184 883e 316e b0be f414 543e
00000060: 8295 10be 0ac5 58be 3da8 31be 4909 c73e
00000070: eec7 d1be d0de af3e 67d3 aabe ca61 aa3e
00000080: d06b b3be b630 c43e dc92 a43e f41d 56be
00000090: e631 96be 3340 8f3e b9d1 d4be f34f c73e
000000a0: b56f 993e 1238 453e 0ff1 dd3e 3761 86be
000000b0: 753f 8bbe 79b0 083e 1284 813e d107 d4be
000000c0: ec94 9ebe f7a1 cebe 4d9d 75be 4898 61be
000000d0: 8593 a1be e875 ecbd 62cf 04be 461e 8d3e
000000e0: a2bb 3f3e 1e1f df3d ff5c b4be 6d67 d1be
000000f0: 4dcb 23be f2b7 e6be b527 92be d4b6 c83e
00000100: 337b e63e 7f0b a23e 8632 283e 5278 be3e
00000110: dc6a ac3e 399e ccbe 4475 cf3e 6331 563e
00000120: 723b 093e 747a 0cbe ec61 a0be 2f7b a2be
00000130: 6a3c 2a3e 181b 7b3e 6003 a73e 87e9 013e
00000140: 065a 563e 1bc7 2ebe affe 7a3e bb2e 84be
00000150: 8597 df3e 6ee5 17be 0c6e 93be 59ba ad3e
00000160: d17f b4be 5544 9d3e 97fc 0ebe 3a69 b43e
00000170: 6be7 5c3e 4cb1 cb3e 9887 9ebe 7464 0a3e
00000180: 06e3 d5be c829 c6be aa5c 9fbe 366b dcbe
00000190: b50e d83d 9528 a23d 0f61 87bd 7368 423c
000001a0: 7672 4bbd e290 2abe 099d cfbd 5085 81bd
000001b0: 0e4d bebd 8600 223e 6b81 f1bd bf87 033b
000001c0: ad1c 3f3d a94c 14be 58f6 17be 69cd e0bd
000001d0: 8608 1e3e a97c e43c bd64 dabc f67b fabd
000001e0: 5b5a f6bc 558e 583e a3e0 963d 83bf f5ba
000001f0: 1bff aabd b124 37be 8854 713d 1d2e babd
00000200: b368 b3bd b08a bfbb 20b3 c03c 4f91 f83c
00000210: a86a 59be c497 133e 290a 623e a722 a13c
00000220: cbad 3dbe 071e d7bd ac13 26be ddcb 3f3c
00000230: c417 2cbd 7998 7ebd 1604 e53c 21f3 063d
00000240: 3175 4bbe 3308 a7bd 4cd4 4e3e 3e5b dcbd
00000250: 1ebd 15be 08eb 9abd 11d3 46bd bcc1 09bc
00000260: cb7f a0bc 4b08 4b3c 2b7f 34be a22f 343d
00000270: a95c b5bd cad8 bf3d 9e60 e8bd 4883 41be
00000280: d26f 19be 1ae0 173b 60c1 853c daf2 42bd
00000290: 03ac 8cbd 7144 123e 8062 133d 5dd0 dabd
000002a0: 8e56 47bd 5058 6bbe f7f4 713d e9e9 80bd
000002b0: ce7f a9bd f58b 333d afb1 b0bd a32e 61be
000002c0: 82fa a2bd ec0e af3c ba8b 5d3e 9a8e c03d
000002d0: a1b6 91bc 85ee 6dbd fe65 6d3e f284 49be
000002e0: 517b 7b3d 4697 02be 276e 34be 8fec c1bd
000002f0: 7a0e 52be 5a33 07bd 55fe f5bb b2af 2abd
00000300: 68c3 753d ed37 dcbd 1f76 03be fe20 ce3d
00000310: 6dbf 5dbe 7a24 973a 9949 c1bd cb9f 3fbd
00000320: c02f 373e 44df edbd eb89 b43d 83c1 10bd
00000330: 596f a4bc edd4 e6bb c56a d2bd deb7 a43d
00000340: 5719 543e 968c f73d 76e3 45bd 5488 123d
00000350: f6b0 983d 1ff8 6abe 3a88 213d 48e8 b83d
00000360: 0bbe 0e3d 4cdb 2c3d 8b50 a43d fd8f 643d
00000370: 4aa7 1a3e 4640 813d 3e15 58be 6599 bdbd
00000380: 7009 8cbd b308 7f3d 20e8 503e 5a36 5abd
00000390: a078 a0bc 99dd d9bd 89ce 3ebe 45ce 513e
000003a0: 046e 4bbe 145a 263d 4a71 8e3a 6e71 adbc
000003b0: df0b 1bbe b8b3 afbd aa81 31bd dfe7 1c3e
000003c0: 8352 073e fe14 013e 4f13 103e 970d 56be
000003d0: 0a6a 20be 6cd2 c9bd 327e 913d cca1 0bbd
000003e0: dfe4 14be b15d e73d 4d5b dfbd 7365 91bd
000003f0: 3235 c53d 9cc6 26be 958e 243c 8b56 19be
0.36892346 -0.39408243 0.40004444 0.4206308 0.39909714 -0.15151337 0.4168126 0.11910585
0.4118982 0.44256264 -0.30808124 0.12213317 -0.33150017 -0.39532584 0.20732303 -0.13707235
0.43813208 0.21221349 0.28320584 -0.39252663 0.19597305 0.2666326 -0.3445907 0.20711118
-0.14119533 -0.21168914 -0.17349334 0.38874272 -0.40972847 0.3434968 -0.33364412 0.33277732
-0.35043192 0.38318413 0.32143295 -0.20909864 -0.29334944 0.27978668 -0.41566256 0.38928184
0.29968038 0.1925967 0.43347976 -0.26246044 -0.2719685 0.13348569 0.25296074 -0.41412213
-0.30972993 -0.40357944 -0.23985787 -0.22030747 -0.3155786 -0.11545926 -0.12969735 0.2756216
0.1872392 0.10894607 -0.352272 -0.4089922 -0.15995522 -0.45062214 -0.2854592 0.39201987
0.4501587 0.31649396 0.16425523 0.37201172 0.33675277 -0.39964464 0.40519154 0.20917277
0.13401583 -0.13718587 -0.31324708 -0.31734607 0.16624609 0.24522054 0.32619762 0.1268674
0.20932779 -0.1706814 0.24511217 -0.25816903 0.43670288 -0.14833614 -0.28794897 0.33931234
-0.35253766 0.30716196 -0.13963543 0.35236531 0.21572654 0.39783704 -0.30962825 0.13514882
-0.41774768 -0.38703752 -0.31125385 -0.43050545 0.1054968 0.07917897 -0.06610309 0.011865723
-0.049669705 -0.16656831 -0.10137374 -0.063242555 -0.09292041 0.15820512 -0.11792263 0.0020069925
0.046658207 -0.14482369 -0.14840066 -0.10976679 0.15432939 0.027891474 -0.026659364 -0.12230675
-0.030072382 0.21148045 0.07367065 -0.0018749092 -0.08349439 -0.1788509 0.058918506 -0.09090827
-0.08760204 -0.0058453903 0.023522913 0.030342726 -0.21232092 0.14413363 0.22074188 0.019669844
-0.18523328 -0.10503774 -0.16218442 0.01170632 -0.042014852 -0.062157128 0.02795605 0.03294671
-0.19868924 -0.08155861 0.20198172 -0.107595906 -0.14622924 -0.0756436 -0.048541132 -0.008408006
-0.019592186 0.012392114 -0.17626636 0.04399074 -0.08855564 0.09367521 -0.11346553 -0.18897736
-0.14984062 0.0023174346 0.01632756 -0.047594883 -0.06868746 0.14283921 0.03598261 -0.106842734
-0.04866653 -0.22982907 0.059071507 -0.06294615 -0.0827633 0.043834645 -0.086276405 -0.21990447
-0.07957937 0.02136942 0.21635333 0.09402199 -0.01778728 -0.058088798 0.23183438 -0.19679621
0.0613969 -0.12753019 -0.17620145 -0.09468948 -0.20513335 -0.033007957 -0.0075071254 -0.041671462
0.060000807 -0.107528545 -0.12838028 0.100648865 -0.21655054 0.0011531257 -0.09437866 -0.04678325
0.17889309 -0.1161485 0.08815368 -0.035340797 -0.020072626 -0.0070444257 -0.10274271 0.080428824
0.20712791 0.120873615 -0.048312627 0.035774544 0.074556276 -0.22946213 0.039436556 0.09028679
0.034849208 0.042201325 0.08023175 0.05580138 0.15102878 0.06311087 -0.21101853 -0.09257773
-0.068377376 0.062264156 0.20401049 -0.05327449 -0.019588768 -0.106379695 -0.18633474 0.20488842
-0.19866186 0.04061325 0.0010867503 -0.021172252 -0.15141247 -0.085792005 -0.043336548 0.15322827
0.1321507 0.12605664 0.14069866 -0.20903622 -0.1566545 -0.09854588 0.07104148 -0.03408985
-0.14540432 0.11297167 -0.10906086 -0.07099428 0.09629287 -0.16286701 0.01004376 -0.1497442

evolve.conv_h_z.bias f4 [100]
00000000: 83c1 953e ac9e 8f3d 83bb 753d 4949 8c3d
00000010: 5001 fcbd 78ad 3cbe 7cfd 01be 8a28 1bbe
00000020: 83f9 753d 0000 0000 e7a0 02be 0000 0000
00000030: 3ab9 ab3e 7e0b 763d fc8a b2be 8f7c c4bd
00000040: 5999 9cbe 29e7 643e a6d0 7c3e bac3 04be
00000050: d2f1 1cbe 0d92 9d3e b2da 01be cc3b 4c3b
00000060: 4ef1 da3e 21e9 793d ec67 38be c25c ed3b
00000070: 490d 9c3e 6e1f bf3c e5fa 753d 2745 a13e
00000080: aee6 793d 2fa6 a13e 34d1 a3be 4af6 753d
00000090: 3a79 18be f627 8c3d e9e8 803e 91f5 753d
000000a0: 50ae eabd 0000 0000 1999 afbe 6e4e 663d
000000b0: a860 d739 c18d 6fbe e2d0 753d de31 7ebe
000000c0: 1f04 983e 93f9 3dbe 9e39 753d 8b48 063e
000000d0: 0000 0000 de27 17be 1b94 6e3d c337 ba3c
000000e0: dd3e dbbe c254 e3bd 69be 76bd 9bc1 7cbe
000000f0: f8e7 333d 0000 0000 288b e1bd 98ca 753d
00000100: 8ed6 b4bd 6204 32be 4759 ffbd 5a0e 8e3e
00000110: d4ed 723d 4cc3 043e be3b 1438 110f c4bd
00000120: e24e d92c bf1c 94be 2740 b236 e876 f8bd
00000130: d041 613e e1cd 1838 4fde d6bd a501 603d
00000140: fffa 753d 47e3 eabd 45ea 753d 05fa 753d
00000150: 83a1 01c0 adbe 8c38 12b5 d7bd 8c8d b3be
00000160: 3dcd 753d 94fa 753d dc4c 7a3d 8d64 8f3e
00000170: c21d 3f3e 4031 323d d0ab 0dbe 0ed9 d4bd
00000180: be0a e4bd 75f4 753d 340c 59bd adc8 753d
0.292492 0.07012686 0.05999328 0.068499155 -0.12304938 -0.18425548 -0.12694353 -0.15152183
0.060052406 0.0 -0.12756692 0.0 0.33539754 0.060069554 -0.34871662 -0.0959407
-0.30585745 0.22353806 0.24688968 -0.12965289 -0.15326622 0.3077549 -0.12681082 0.0031163571
0.42762226 0.061013345 -0.18008393 0.0072437236 0.30478886 0.023330417 0.060053725 0.31498072
0.06101101 0.315721 -0.31995547 0.060049333 -0.14889994 0.068435594 0.25177696 0.060048643
-0.11459029 0.0 -0.34296492 0.05622714 0.0004108001 -0.23393919 0.06001366 -0.2482371
0.29690644 -0.18552236 0.0598694 0.1311361 0.0 -0.14761302 0.058246713 0.022731667
-0.42821398 -0.11100151 -0.060240183 -0.2468323 0.043922395 0.0 -0.1101287 0.06000766
-0.088299856 -0.17384484 -0.124682 0.27745324 0.05930884 0.12965125 3.534159e-05 -0.09573186
6.1762687e-12 -0.28928182 5.3122817e-06 -0.121320546 0.21997762 3.6431364e-05 -0.10491621 0.05468907
0.06005382 -0.11469131 0.06003787 0.06005289 -2.025483 6.711236e-05 -0.10532583 -0.3506893
0.060010184 0.060053423 0.061108455 0.28006402 0.18663695 0.043504 -0.13835073 -0.103929624
-0.111348614 0.060047586 -0.052990153 0.060005832

evolve.conv_h_z.lins.0.weight f4 [100, 100]
00000000: 1ade 5d3d e00e 1fbe 4d03 ec3d ffb3 f2bc
00000010: d4b1 17be 1ae6 163e b45b f63d 3db3 013d
00000020: 4832 a9bd 791a 17be 1aaa 943d f00f e0bd
00000030: eb43 bbbd 5f95 a0bd fb7f 3a3c 1369 233e
00000040: 847c 33bd b030 24be c946 073e a474 f7bd
00000050: d5bd f0bc 91ac e4bd 79aa 033e f70c 5abc
00000060: 82c1 273d 3152 04be 059b 0c3e aeb5 b8bb
00000070: 3a6c f13d d0fd 2d3e ba10 373d 1304 49bd
00000080: a406 cc3d 7b54 0e3e c372 11be d516 cdbd
00000090: 0b59 fcbd 5b39 0a3e c0db 933d e8f6 a4bc
000000a0: 8e54 e53b 9507 1b3e 6e48 15be 9448 d33d
000000b0: c057 d93c 8fd0 683c f4ee 10bd 2dc0 14bc
000000c0: 79ab 193e 607e 95bd f79d 193e b83b 9ebd
000000d0: 3dcc cfbd d359 aebc da21 8abc aa99 f03d
000000e0: a9f2 773d dae9 173e 29ab 643b 55a8 f43d
000000f0: 8afb 18be 9966 6a3d dce7 94bd 5b73 863d
00000100: 4594 20be dc3d 673d 8b00 06bd 586e 1e3e
00000110: dba8 15bd 0e93 85bc 78d6 b03d 5bd1 63bd
00000120: 66f8 bbbd acae 44bd 6440 c63d 1933 7d3d
00000130: 114f 10be 1de8 2d3c 4f88 2cbe 1c7b 41bb
00000140: c46e fe3d 0b1b 1cbd 0bbf 92bd e3c3 cd3d
00000150: 22c0 233b 484a e8bd 3c43 9abc 8aa8 273e
00000160: 1408 3a3d c06e 9b3a bafe 57bd 3e15 133e
00000170: 5dd9 d13d f61c d03d 9cff 95bd 0118 36bd
00000180: 75b0 12be d0f2 77bb e3d6 14bd 35ea b73d
00000190: 77e3 ccbd e77f 6b3d d92c 16be 2c73 99bd
000001a0: 6757 c33d c3ac ebbd e8b5 243e 7b74 18be
000001b0: eddd dabd 750f 00bd a755 fd3c c840 eebc
000001c0: d47d cf3d 691b 99bd f307 eb3d 0dc9 17be
000001d0: a7a1 b03d 1485 0abe 4e03 2fbd dc5e 2bbe
000001e0: 489b a4bc 6689 12be 875d 2fbe 63e5 9e3c
000001f0: a5e5 9bbd 53d5 0e3d 8870 df3d 5c7c b4bc
00000200: e343 9c3d 2868 5b3c 6884 553d cf52 3dbd
00000210: 1451 693c 18b1 07be 0d6b 83bc 31bb 523d
00000220: ddfe e33d 3da1 dabd 506f 043d f944 63bb
00000230: 1284 d53d d71b ad3d dae3 a4bd b3c6 ebbd
00000240: e7d8 b93d b46c 53bd f235 27bd b6f0 e5bd
00000250: bd78 dbbd 0ea8 273e f682 f83c 4627 c7bd
00000260: 7ba3 0e3e 673b af3d dea0 913d 4a02 d4bc
00000270: 7d41 2abe 4920 253e da04 efbd b196 f6bd
00000280: 74ea a53d de1f f03c 49bc 8a3d fc22 71bb
00000290: fbb8 2dbd 1229 1a3e 19d8 60bd a642 bc3d
000002a0: 964f a23d bce2 2f3e 7b8e 29be c780 6fbd
000002b0: 539f 973d 4931 8bbd d0de 393c acba 253e
000002c0: 9748 223e 0401 f4bd eaf2 8dbd f718 0a3e
000002d0: 66dd ef3c ba84 84bc 2e7e d1bd 4b3e 0c3c
000002e0: a138 203d 50e0 d9bd af23 b2bd 959f db3b
000002f0: 0aac 17be b99d 613d b06c 673d 17ab 1bbe
00000300: 13d6 1abe 7caf 9b3c 7a7f 303e 7f9c 1bbe
00000310: 15ff 05be b9c2 253e fa98 983c 9f9d c43d
00000320: 1c09 a3bd 6d47 cabc a4c3 a3bd 66fc 2f3e
00000330: f7b3 573d bc12 243e cfef b23c 429a c3bd
00000340: 7c66 1ebe d713 b1bc f7f9 8b3c cdde 173d
00000350: b1a4 2e3e e4c2 983d b78b 0bbe 4886 d03c
00000360: fc90 c23d ee5a b53c d4c7 09bc e05b a0bd
00000370: 9f48 5e3c cc52 30be 1f3b fdbd 91b0 323d
00000380: 6ff2 6bbd b0fa 23be c49e c9bd 776a 073e
00000390: d82c 05bd 7a05 0d3e 807a a1bd 1ac5 08bd
000003a0: 8379 1a3d 5336 8a3d c59c f8bd fb9f 0d3d
000003b0: 5376 663d 1873 bb3d efbc 053e 1ec3 0e3e
000003c0: c251 fc3d 4d09 a73c a14c 0ebe e218 17be
000003d0: b882 6b3d 5589 493d 3e0e 0ebe d21e 193c
000003e0: af1f 88bd af5c f83d f0c2 353c 9abf 16be
000003f0: cdcd 1f3e 479b 4abd 778a 1abb 131b bb3d
0.05416689 -0.15533018 0.11524067 -0.029626844 -0.1481393 0.14736214 0.1202921 0.031665076
-0.082615435 -0.14756192 0.07259007 -0.1094054 -0.09143814 -0.0784099 0.011383052 0.15958051
-0.04381992 -0.16034198 0.13210596 -0.12082794 -0.029387394 -0.11165727 0.12857999 -0.013308755
0.040956028 -0.12921979 0.1373101 -0.0056368923 0.11788221 0.16991353 0.044693686 -0.04907615
0.09962204 0.13899414 -0.14203934 -0.100141205 -0.12321671 0.13498442 0.07219648 -0.020137265
0.006998605 0.15139611 -0.14578411 0.103165776 0.0265311 0.0142098805 -0.035384133 -0.009079021
0.15006818 -0.07299495 0.15001665 -0.07726234 -0.10146377 -0.021283066 -0.016861845 0.11748059
0.060534153 0.14835301 0.0034892058 0.11946169 -0.14939705 0.05722675 -0.07270786 0.06564971
-0.1568156 0.056455478 -0.03271536 0.1547178 -0.036537986 -0.016305473 0.08634657 -0.05561958
-0.091782376 -0.048018143 0.0968025 0.06181631 -0.14092661 0.010614422 -0.16848873 -0.0029522842
0.124234706 -0.038111728 -0.07165345 0.10047128 0.0024986346 -0.11342293 -0.018830888 0.16372886
0.04541786 0.0011858568 -0.05273316 0.14363572 0.10246537 0.10161774 -0.07324144 -0.044456486
-0.14325126 -0.0037833937 -0.036337744 0.08980218 -0.10004323 0.057495024 -0.14665546 -0.074926704
0.09538155 -0.11507561 0.16085017 -0.14888184 -0.1068686 -0.03126474 0.030924631 -0.029083624
0.10131422 -0.07475931 0.114761256 -0.14822789 0.08624583 -0.13527328 -0.04272776 -0.16735405
-0.020093575 -0.14310226 -0.17125522 0.01939649 -0.076121606 0.03487141 0.109101355 -0.022031955
0.07630136 0.013391532 0.052128226 -0.04622155 0.014240522 -0.1325115 -0.016042257 0.05144805
0.11132596 -0.10675285 0.03233272 -0.0034678562 0.10425581 0.08452576 -0.08051272 -0.11512508
0.09074574 -0.05161734 -0.04082293 -0.112275526 -0.107163884 0.16372702 0.030335885 -0.09724288
0.1392955 0.08556252 0.07110761 -0.025879998 -0.16626544 0.16125597 -0.11670847 -0.12040461
0.08101359 0.02931207 0.06774194 -0.0036794534 -0.04241274 0.1505473 -0.054893587 0.091924
0.07925336 0.17176336 -0.16558258 -0.05847242 0.074034356 -0.0679651 0.011344627 0.16184491
0.15848003 -0.11914256 -0.06931098 0.13486086 0.029280376 -0.01617657 -0.10229145 0.008559774
0.039116506 -0.10638487 -0.08698212 0.0067023733 -0.14811721 0.055082057 0.056500137 -0.15201984
-0.15120725 0.019004576 0.17236128 -0.15196417 -0.13085587 0.16187562 0.018627632 0.09600376
-0.07960722 -0.024692262 -0.079963 0.17186126 0.052661862 0.16022772 0.021842865 -0.09550907
-0.15468782 -0.021615906 0.017086966 0.037077714 0.17055012 0.074590474 -0.13627516 0.025454655
0.0950031 0.022138085 -0.008409459 -0.07830024 0.013567119 -0.17219085 -0.12364792 0.043625418
-0.05760425 -0.16013598 -0.09844735 0.13224207 -0.03251347 0.1377162 -0.07884693 -0.033391096
0.03771354 0.06748643 -0.121392764 0.034576397 0.056265187 0.09152812 0.13060354 0.13941619
0.123202816 0.020390177 -0.13896419 -0.14755586 0.05749771 0.049203236 -0.1387262 0.009345727
-0.06646668 0.12127053 0.01109384 -0.14721528 0.1560585 -0.04946449 -0.0023581067 0.09136023

evolve.conv_h_z.lins.1.weight f4 [100, 100]
00000000: a2bb f03d 7809 d3bd 4c57 2bbd 8c6f ef3d
00000010: ceb9 d9bd e819 0c3e 7fb1 903d 7970 26bd
00000020: 8706 29bc 33f2 ea3c 21f7 c03b a036 013e
00000030: 0600 043e 652b c8bd 4f8d f93d 5108 9c3d
00000040: d22a 08bc 7fab 9d3c 9da9 283e 3a37 3c3d
00000050: 9c23 2c3e 1960 5cbc 1229 773d 26b9 1cbe
00000060: ae00 113e 5ae6 1fbe 4edf 063d 3cd4 203d
00000070: 6cea 463d f9ff 9e3c 4e9f c7bd 0f44 d13d
00000080: 08e3 823d a391 1abe 1b4f 05be 35fe 023e
00000090: 8005 c2bb 243f cfbd 1b04 b6bc afa1 ff3c
000000a0: 7ed9 fa3d 14dc c63d c3d5 8cbc 52c0 f4bd
000000b0: cedc b73d 3a56 cdbc 05f3 89bd a991 a6bd
000000c0: 8af6 0d3e 7257 a93d 2d27 e4bc 20cd d3bd
000000d0: 1ff6 f13c 8edd d73d beae cabc eee8 8d3d
000000e0: db0e b33c 6c7a 04bd 67b7 3b3c 16c9 21be
000000f0: 9bea a93d 5a0b ccbd 61ed 863c 57fb b43d
00000100: c9d8 f8bd e7e6 c33d b0cb 703d be4b 403c
00000110: 497e 2b3e 53fd bf3d e47a babd 95c6 e33d
00000120: 2f38 073d 19a4 0c3d f7e8 323c 76b2 3d3d
00000130: 5fad 8d3d 89e8 a63d ee21 503d dc44 7b3d
00000140: 28c9 24bd 71d9 143e a696 95bd 64c1 debc
00000150: 3756 0ebd 2171 b63d 9d1f 0d3d 30d2 c2bd
00000160: 5b7e 7ebd 58f0 e83d 7af1 cb3d 52c0 edbd
00000170: a64c dfbc 6ee0 00bd 057c f23d 936c 293e
00000180: 0505 ffbd 5af4 07be 5f5f 1bbe b756 663d
00000190: 9353 bebd 5b6e 2abe e441 c4bd ab3f 943d
000001a0: 23ba 2abc 68ba e2bd c7d0 0e3e b15b c23d
000001b0: 5a72 79bd ba90 6b3d 07c6 ec3d e4cf 133e
000001c0: a106 1cbd 6a32 b03b 5362 ce3d 415b 1c3e
000001d0: df16 adbd 9281 263e 74af 22be 1817 123e
000001e0: 2d67 013e dd1d 0ebe ca52 d2bc 27ec f03d
000001f0: 588e 2abe fc3b 8dbd 11e1 0d3e 3679 f0bd
00000200: 7342 abbd 73bb fbbd 34d3 2a3e db65 173e
00000210: 7274 cf3c 374a 7f3d e436 f43c ecd6 ad3c
00000220: 6b46 f73d 8145 b13c 1cf4 843d 0e31 f13c
00000230: 25be fbb9 ed68 e9bd dc74 833d 9394 7bb9
00000240: f00d 103e 010d a4bd 8002 1c3e c28d 2f3d
00000250: 0604 78bd 3e56 2dbe 5563 c6bd 450e 083e
00000260: 719e eebc c202 6cbd f608 203e 5009 f63d
00000270: 07e4 e3bd 3f7c d03d fed6 28be c85f e43d
00000280: a6af 34bd ca02 62bd 26a0 4bbb a272 98bd
00000290: 42cd 21be 0271 bebd 2e29 153e 2cfa ca3c
000002a0: 0f36 c0bd 9c0f dd3d fe75 de3d 871a f13d
000002b0: 719f eabd e55c eb3d 9f3b 133e f563 b1bd
000002c0: def9 93bd 1b33 733d 32e7 10be 32fc 563d
000002d0: 487a 07bd 8b4f e1bd 030d e83d 2aa7 33bd
000002e0: 75ff 133e bc9c b93d 86ae 213e d403 1bbe
000002f0: 7637 7a3d 14fa be3b de4a f7bd 5afa 1bbb
00000300: dafb ecbc f557 99bd 2428 86bd 0f21 9ebd
00000310: 8ca3 1a3e dfd0 d33d 750d bebd a9ed 013e
00000320: 9931 2d3e 05bd 09be 0ca8 fdbd c4ec db3d
00000330: 7237 68bd 1698 3f3d 379b d5bd a5e3 1c3e
00000340: 8d40 173e c302 083e 7310 0ebe 4872 64bd
00000350: 5183 193e e43c e93d 2906 92bc 1512 05be
00000360: 3789 bebd b558 1f3e 49ae dd3d cd09 79bd
00000370: ecec 7ebd 17f9 1dbd 8737 0f3e b0f1 82bd
00000380: 419c 193e 9bb3 2fbd 1dc2 f53d 9875 e53d
00000390: be9b 0fbe 9a01 d23c b518 d4bd 492b f8bd
000003a0: 00d7 f4bd 4240 f0bb afa8 9c3d 151c d5bd
000003b0: b1a3 5c3d a596 c23c 11ae 2d3e 2901 173e
000003c0: 9aac 063d ba62 423d a238 cc3d cee3 c7bd
000003d0: 7f7f f4bd a934 813d 5b4a 40bc ea3a 2bbc
000003e0: b1ef 43bd fbb2 213e 0037 e13d 760b da3d
000003f0: 747a 343c a744 7f3d f2e3 0fbe 35b4 e9bd
0.11754538 -0.103045404 -0.0418313 0.11691198 -0.106311426 0.13681757 0.07065105 -0.040634606
-0.010316498 0.028679943 0.005888835 0.12618494 0.12890634 -0.09773902 0.121851556 0.07618774
-0.00831099 0.019246815 0.16470952 0.045951106 0.16810459 -0.013450646 0.060341902 -0.15305004
0.14160416 -0.15615216 0.032927804 0.039264902 0.048563406 0.019409167 -0.09747182 0.10218059
0.06390959 -0.15094618 -0.13018458 0.12792285 -0.005921066 -0.10119465 -0.022218755 0.031205026
0.122485146 0.09709945 -0.017191773 -0.11950745 0.08977662 -0.02506553 -0.067358054 -0.08133251
0.13863578 0.08268632 -0.027850712 -0.10341859 0.029536305 0.10540305 -0.024741527 0.069291934
0.02185767 -0.032343313 0.011457301 -0.15799364 0.082967006 -0.09963103 0.016470613 0.08837002
-0.121507235 0.095655255 0.058788 0.011736808 0.16747393 0.0937449 -0.09105471 0.11121861
0.033012565 0.034336183 0.010919801 0.04631277 0.069178335 0.08149821 0.050813608 0.061344966
-0.0402309 0.14536072 -0.073041245 -0.027191825 -0.03475019 0.089082964 0.034453977 -0.09512746
-0.06213222 0.11373967 0.099581674 -0.11608948 -0.027258229 -0.031464033 0.11840061 0.16545324
-0.12452129 -0.13276806 -0.151731 0.05623504 -0.09293284 -0.1664366 -0.0958288 0.07238706
-0.010420355 -0.110707104 0.1394683 0.09490145 -0.06090007 0.05751107 0.11561208 0.14434773
-0.03809226 0.0053771036 0.100773476 0.15269186 -0.08451628 0.16260365 -0.15887243 0.14266622
0.12637015 -0.1387858 -0.025674243 0.117637925 -0.16655862 -0.06896207 0.13855387 -0.11741869
-0.083622836 -0.122916125 0.1668213 0.14784949 0.02532408 0.062326636 0.02981133 0.021220647
0.12073978 0.021639587 0.06491873 0.029442336 -0.0004801612 -0.11396966 0.064187735 -0.00023992574
0.14067817 -0.08010293 0.15235329 0.0428598 -0.060550712 -0.1692743 -0.09686915 0.13286693
-0.029128285 -0.057619818 0.15628418 0.12013495 -0.11127477 0.10179948 -0.16488263 0.11151081
-0.044112824 -0.05517844 -0.0031070798 -0.074437395 -0.15800956 -0.09298898 0.1456649 0.024777494
-0.09385311 0.10793993 0.10862349 0.11772638 -0.11456192 0.114923276 0.14378212 -0.086616434
-0.07225393 0.05937491 -0.14150694 0.052486606 -0.0330756 -0.110015 0.11330607 -0.043860592
0.14452918 0.09063098 0.15789232 -0.15138179 0.061088048 0.0058281515 -0.12074827 -0.0023800344
-0.028928686 -0.074874796 -0.06550625 -0.07721149 0.1510145 0.103425734 -0.092799105 0.12688316
0.16913451 -0.13451011 -0.12385568 0.10738519 -0.0566935 0.0467759 -0.104299955 0.15321214
0.14770718 0.13282304 -0.13873462 -0.05577305 0.149915 0.11388567 -0.017825203 -0.12995179
-0.093035154 0.15561183 0.10824258 -0.060800362 -0.062237665 -0.03856763 0.13986026 -0.063937545
0.15001012 -0.042895894 0.11999915 0.1120407 -0.14024255 0.02563553 -0.10356275 -0.12117631
-0.119550705 -0.007331879 0.07649361 -0.10405747 0.053867046 0.023753474 0.16960932 0.14746536
0.03287945 0.047457434 0.09971739 -0.09760247 -0.119383805 0.06308872 -0.011736478 -0.010451058
-0.04783601 0.15790932 0.109968185 0.10646717 0.011015523 0.06232133 -0.14051798 -0.11411325

evolve.conv_x_r.bias f4 [100]
00000000: 0000 0000 0000 0000 0000 0000 0000 0000
00000010: 0000 0000 0000 0000 0000 0000 0000 0000
00000020: 0000 0000 0000 0000 0000 0000 0000 0000
00000030: 0000 0000 0000 0000 0000 0000 0000 0000
00000040: 0000 0000 0000 0000 0000 0000 0000 0000
00000050: 0000 0000 0000 0000 0000 0000 0000 0000
00000060: 0000 0000 0000 0000 0000 0000 0000 0000
00000070: 0000 0000 0000 0000 0000 0000 0000 0000
00000080: 0000 0000 0000 0000 0000 0000 0000 0000
00000090: 0000 0000 0000 0000 0000 0000 0000 0000
000000a0: 0000 0000 0000 0000 0000 0000 0000 0000
000000b0: 0000 0000 0000 0000 0000 0000 0000 0000
000000c0: 0000 0000 0000 0000 0000 0000 0000 0000
000000d0: 0000 0000 0000 0000 0000 0000 0000 0000
000000e0: 0000 0000 0000 0000 0000 0000 0000 0000
000000f0: 0000 0000 0000 0000 0000 0000 0000 0000
00000100: 0000 0000 0000 0000 0000 0000 0000 0000
00000110: 0000 0000 0000 0000 0000 0000 0000 0000
00000120: 0000 0000 0000 0000 0000 0000 0000 0000
00000130: 0000 0000 0000 0000 0000 0000 0000 0000
00000140: 0000 0000 0000 0000 0000 0000 0000 0000
00000150: 0000 0000 0000 0000 0000 0000 0000 0000
00000160: 0000 0000 0000 0000 0000 0000 0000 0000
00000170: 0000 0000 0000 0000 0000 0000 0000 0000
00000180: 0000 0000 0000 0000 0000 0000 0000 0000
0.0 0.0 0.0 0.0 0.0 0.0 0.0 0.0
0.0 0.0 0.0 0.0 0.0 0.0 0.0 0.0
0.0 0.0 0.0 0.0 0.0 0.0 0.0 0.0
0.0 0.0 0.0 0.0 0.0 0.0 0.0 0.0
0.0 0.0 0.0 0.0 0.0 0.0 0.0 0.0
0.0 0.0 0.0 0.0 0.0 0.0 0.0 0.0
0.0 0.0 0.0 0.0 0.0 0.0 0.0 0.0
0.0 0.0 0.0 0.0 0.0 0.0 0.0 0.0
0.0 0.0 0.0 0.0 0.0 0.0 0.0 0.0
0.0 0.0 0.0 0.0 0.0 0.0 0.0 0.0
0.0 0.0 0.0 0.0 0.0 0.0 0.0 0.0
0.0 0.0 0.0 0.0 0.0 0.0 0.0 0.0
0.0 0.0 0.0 0.0

evolve.conv_x_r.lins.0.weight f4 [100, 100]
00000000: 100a 193e 6c97 97bc 0025 ff3d b078 22be
00000010: 4b7f b0bd 16f5 b3ba 793d 483d 10f6 b3bd
00000020: e8c8 d5bd ed04 053e de0e 09be 8828 b3bc
00000030: 0e92 ddbd 612d d13c 0849 01be 0f63 1b3e
00000040: 6765 11bd c3ec 2f3e f455 a53c ccf1 f9bd
00000050: 21e0 2cbd 4585 56bd e17d 06be 5860 1ebd
00000060: 026d 93bd f07a 1bbd aed5 12be deec 0f3e
00000070: 2fdc 973c 00a5 163d 98bc eabc bef6 dcbc
00000080: 827c 90bc 1877 1f3d 5b40 febd 6463 073e
00000090: 11a3 18bb bbbd 39bc bea1 d53d f6a2 61bd
000000a0: 9050 06be ac94 083d f435 51bd 225b 663b
000000b0: 0766 ca3d 305d fdbc 2ffc d3bc a8a7 81bd
000000c0: 10cf 173c 8b7e 5abd 0f24 0bbd 9d0b 4ebd
000000d0: b858 18bd f320 0a3e c795 f33d 1624 d43d
000000e0: 547c 143e c665 09bd af2d 0a3e ff18 e0bd
000000f0: 05e1 f9bd 74de 9fbd 960e a7bb 6ce1 2ebe
00000100: b4a0 923c 3e78 883d 49e8 5a3d 7519 08bd
00000110: d481 0abe eaec 1bbe d892 11be fc74 2cbe
00000120: e00e babb 084a 183e 329e bdbc 3a72 523d
00000130: dedf 073e d2fc ccbd b90f 983d 21be 6abd
00000140: 11fb c0bd fc6b 723d ab05 21be 795c 583c
00000150: 2fdd 0ebd 64a6 09be 5ed9 983c 4f96 19be
00000160: b8b7 45bd a8f0 143e 3544 223d 37bd 8a3d
00000170: 32b4 cb3d 874f 19be 361b f0bd b986 91bd
00000180: a8b9 f63a aadc 21be 25f1 333d f097 dbbd
00000190: 9238 273e a52f 26be dbef 743d cfd4 8cbc
000001a0: 9a3b 07be 696e 6b3d 8884 93bd 1014 ae3d
000001b0: b8e2 91bd 731e 7cbb 6585 05bd 87ad e1bd
000001c0: 441c 1dbe a1d6 483d 13b7 f0bc a060 2dbd
000001d0: afe1 05be 8102 273e d34d 0a3d df80 393d
000001e0: 62bc 773d e1ef 2f3e 66b9 91bd adc0 06be
000001f0: 77f2 123e 81c9 9cbc df6d f93d f63f 893d
00000200: 8ecf f63d 21a7 4fbd 7a74 1bbe 6bf3 123e
00000210: 83ed 2bbd 9042 053e 0b7f 02be 224f 423d
00000220: 605e d53d b731 c13c 7e40 303e 72fc 1a3e
00000230: ce23 273c e25b 34bc 0587 033e fdb1 0ebd
00000240: 8567 b1bd b464 b53d 8d2a 1c3e 9386 09be
00000250: 551d 26bd 2d14 b4bc fc93 1b3e 01c6 e9bd
00000260: cfbe e3bd cd96 8cbd 2380 bfbd 1668 f73d
00000270: 9648 9cbd ca75 c3bd 3756 fd3b 8143 883d
00000280: 13be 50bd 37eb c1bd 228b 503d af48 a73d
00000290: 4239 e7bd f4be 3dbd 05ee f93d c057 073d
000002a0: ae27 d73d 08ab b73c 2aed 2d3e b82f a03d
000002b0: 36cb 803d 006d 28bd e9af 2ebe a80f 8d3d
000002c0: 4dd0 fe3d eda3 253e 791a edbd c09c 70bd
000002d0: 8d8f c0b9 8de1 0a3e 8f97 253e 2407 e5bd
000002e0: bb97 ba3d c5ca acbd 5e48 07be 987b a43d
000002f0: f680 4e39 93f8 67bd 615a 213e a186 0ebe
00000300: e219 463d 9da2 db3d 4e96 4fbd 2549 4f3d
00000310: b064 863d be07 28be 7821 dabd 01db f03d
00000320: 114c 31be 2c97 88bd c8e5 5fbd e3f9 08bd
00000330: 7e8e 0b3e e12d fa3d 7c78 7f3d 09c2 fa3d
00000340: 0e02 773c 9dbf 273e 3df9 5a3d 7807 bbbd
00000350: a379 2e3e be39 0a3e 6d58 753d 2952 d3bd
00000360: 02ea a93d 28ef 9cbd 5709 203e 705b 1c3e
00000370: d0c3 8c3d 73eb ad3d c364 a5bd 7c53 1c3e
00000380: fe26 273e 46cc d1bd 138d 70bd bf79 303e
00000390: 899d d3bd b53d dfbd 9ccc a1bc 635d ed3d
000003a0: 8df5 01be 9d50 163e a9f8 41bd 54c7 203c
000003b0: 80c4 343c 0210 00be 6776 ccbb ba34 193e
000003c0: bf7c 5abd 25ff 15be ddc8 25be 1ca5 76bd
000003d0: f8df 163e c3ad cc3d 42da ad3b 9d83 0c3e
000003e0: 8a60 9dbc 4ac2 70bd 4885 163e 6f30 ca3b
000003f0: f1ef ddbd 612d 833d d652 a4bc 0bef 68bc
0.14945245 -0.01850482 0.12458229 -0.15866351 -0.08618029 -0.0013729658 0.04888675 -0.08787167
-0.104387105 0.1299016 -0.13384578 -0.021869913 -0.10818873 0.025534334 -0.12625515 0.15174507
-0.035497095 0.17180161 0.020182587 -0.12204322 -0.042205933 -0.05237319 -0.13133956 -0.0386661
-0.07198526 -0.03795904 -0.14339325 0.14055201 0.018537609 0.03677845 -0.028654382 -0.026973125
-0.017637495 0.038931936 -0.124146186 0.13221508 -0.0023290555 -0.011336739 0.104312405 -0.055087052
-0.1311667 0.03334491 -0.051076844 0.0035149534 0.098827414 -0.030928224 -0.025877086 -0.06330806
0.009265676 -0.053343337 -0.033969935 -0.050304044 -0.037193984 0.13489132 0.11893802 0.10358445
0.14500552 -0.033544324 0.1349399 -0.109422676 -0.12201122 -0.078061014 -0.0050981743 -0.17078179
0.017898895 0.066635594 0.05344418 -0.033227403 -0.13526088 -0.15227094 -0.14216173 -0.16841501
-0.005678043 0.1487199 -0.023146722 0.051378466 0.13268992 -0.10009159 0.07424874 -0.057310227
-0.09422887 0.059185013 -0.15724818 0.013205641 -0.034878906 -0.13442379 0.018658336 -0.14998744
-0.04827091 0.14544928 0.03961583 0.06774371 0.09946479 -0.14971744 -0.1172394 -0.071057744
0.001882364 -0.15806833 0.043931145 -0.10722339 0.16330174 -0.16229112 0.059799057 -0.017191319
-0.1320633 0.057478342 -0.07203013 0.0849992 -0.07123321 -0.0038470298 -0.032597918 -0.11019426
-0.15342814 0.04903281 -0.029384172 -0.042328477 -0.13074373 0.16309549 0.033765625 0.045288917
0.06048239 0.1718135 -0.0711544 -0.13159437 0.14350305 -0.019139053 0.121791594 0.06701653
0.12051307 -0.050696496 -0.15181151 0.14350669 -0.041974556 0.13013673 -0.12743776 0.04743875
0.10418391 0.023583276 0.17212102 0.15135363 0.010201408 -0.011008235 0.12844475 -0.03483771
-0.08662323 0.08857098 0.15250607 -0.13430242 -0.040555317 -0.021982277 0.1519317 -0.114147194
-0.11120378 -0.068647005 -0.09350612 0.120804 -0.07631032 -0.09543951 0.007731225 0.066535
-0.05096252 -0.09468692 0.050913937 0.0816816 -0.11290218 -0.046324685 0.12203602 0.03304267
0.10505615 0.022420421 0.16985002 0.07821602 0.062887594 -0.041119576 -0.17059292 0.06887752
0.12442074 0.16175814 -0.11577315 -0.05874324 -0.00036728047 0.13562603 0.16171096 -0.111830026
0.091109715 -0.08437113 -0.132112 0.08031386 0.00019693733 -0.056633543 0.15757133 -0.13918544
0.048364528 0.107243754 -0.05068045 0.050606865 0.06562173 -0.16409203 -0.10650915 0.11760522
-0.17314173 -0.06669459 -0.054662496 -0.033441436 0.13628575 0.12215782 0.062370762 0.122440405
0.0150761735 0.16381688 0.05346035 -0.09132284 0.17038588 0.1349859 0.059898783 -0.10318405
0.082965866 -0.07662803 0.15628563 0.15269256 0.06873286 0.08492174 -0.080758594 0.15266222
0.16323468 -0.1024404 -0.05872829 0.17233942 -0.10332782 -0.109004416 -0.019750886 0.11590078
-0.12691326 0.14679189 -0.04735628 0.0098131485 0.011033177 -0.12506106 -0.0062397006 0.1496152
-0.053341623 -0.14648111 -0.16189905 -0.060216054 0.14733875 0.0999408 0.0053055594 0.13722081
-0.019211072 -0.05877904 0.1469928 0.0061703245 -0.10836781 0.0640514 -0.02005903 -0.014217149

evolve.conv_x_r.lins.1.weight f4 [100, 100]
00000000: f8f5 bd3c 9a60 26bd 445f 2b3d 192e 12be
00000010: f33f 94bd 7f3b 17be 48cc 173e 9301 bdbd
00000020: 704e 613d 7463 babd 48d0 113e dbc0 543c
00000030: a670 0e3d 853a fbbd 4ac2 0cbe 1568 a93d
00000040: 1e2f 143c 32da 30be 3ced 963d 5969 043e
00000050: 09c2 afbd 995d 18be 3978 20be cd7a 773d
00000060: 1418 a43d 1a42 e7bc 922b c33d ef1b e3bd
00000070: f710 31be 09f9 733d 40c2 af3d d67d 23bd
00000080: 83b1 8f3c 9262 cc3c ef45 f23d 6719 133e
00000090: 9f00 11bd c248 2d3e 0fe5 62bd 16d1 16be
000000a0: b944 31be 1daa 9c3c 049f 0bbe e87f 0b3e
000000b0: 67e8 2d3e ac8c 29be f6df b53d f9ce e73d
000000c0: d42f ef3d 2e32 8c3d 93ba 1bbe 210c b9bd
000000d0: 5e89 e23d 1024 30be 5bd5 acbd 7f79 b6bc
000000e0: 85e5 cabd 87e5 29bd 3f4c 72bd c238 10be
000000f0: 98b3 1c3e 81c2 083d 5819 a03c e198 d03d
00000100: 512b 6a3b 4dc8 053e 9dde d5bd 2c8c 05bc
00000110: feb2 d6bd a2c8 11be 48e0 60bd 1d2b 13be
00000120: 6ecc b93d 477b e5bd 6fad 133e e76c 243c
00000130: e1b4 ec3c 1ca0 8dbd 644f f8bd 8b5e 89bd
00000140: 96f0 abbd ec36 cfbd 0ec8 cc3d 51dc 1b3e
00000150: 17f1 d53d 4ade ebbd 61d8 a0bd 1c66 f9bd
00000160: e93e d3bd aabd 123e 58a5 d93c f308 ed3d
00000170: 3012 76bd b95d 273e b936 d9bd c4c6 2f3c
00000180: bf4b 5cbc b859 02be a0f9 12be 4130 94bd
00000190: 07c8 443d bbfe 283e 65d2 9b3d e53c 083e
000001a0: 436b e23d 8167 afbc 9ab9 e3bd 0ebd 2c3e
000001b0: 760e 0bbe 18fe 60bd 5d71 153d edea ea3c
000001c0: 8134 763d c900 6dbc 472f 043e 5628 773c
000001d0: 1ed3 fe3d b919 bbbd 1585 5bbc cf03 f0bb
000001e0: d60b 30be 0078 a43d 53b7 29be 4588 e0bd
000001f0: 38ad c5bd 3432 783d 0fa6 0f3d 02c3 bbbd
00000200: a17a 2ebe 9d01 153e c409 583b 9525 53bc
00000210: 3e7b b53d 5202 f53c 3ea1 e0bd ad66 84bd
00000220: eb8b bb3d 0654 08bd ca1b e43c d5c0 a1bd
00000230: a270 48bd fc9c d6bd 0b4e 6bbc e61e 173e
00000240: e492 fa3c 9c51 403d 0bf6 1bbd ef06 c13c
00000250: 7f95 093e 384f dd3d 5f5e a93d 7dbf b03c
00000260: 7c87 17be 86b3 f03c 3874 01be bd47 8bbd
00000270: 1b1e 22be 9859 d03c c6d0 10bd 25a2 233d
00000280: 0dc5 e83d 202d f13d 9cab 05be 30ce 88bd
00000290: 45b8 59bd ccc1 063d ced4 d1bd 53bf 2b3e
000002a0: fce4 31bd 3103 9e3d b9b8 213e ea0e 193e
000002b0: 362c 773d 60f2 90bd d250 b03d 3657 063e
000002c0: b619 993b e7b4 2ebe 142a 733c fb46 3fbd
000002d0: bbb3 cebd 789b ad3c 981b a13d b80c 253e
000002e0: 5089 573d f05b 40bc 6031 a83d 5075 133e
000002f0: 8d75 8b3d 3ec2 043e cc06 f03d e904 9b3d
00000300: 604f cdbd a980 24be c72e dcbd 6bfd 80bd
00000310: 855e afbd c9ff fd3c adc2 00be d60c b43d
00000320: dacd b8bd e641 97bd 45c2 c3bd b966 b7bd
00000330: 5ad3 b8bd 51cc ff3d 1235 1dbe 90fc 9e3d
00000340: ac34 3d3d adf4 243d 3313 dabc 296c 12be
00000350: 16c8 553d c678 f43d 257b 2dbd 167b 0ebe
00000360: f016 213e 176c ecbd 9d3e 83bd 9ec3 e63c
00000370: 3509 de3d 59f5 233e 62d6 0d3e fc38 863d
00000380: b400 013e 6dbf c6bd f984 e23d 1540 1e3e
00000390: 15ce 5cbd 5b20 8e3d 96e6 bc3d 55e5 383d
000003a0: b9ff e9bd a6eb 063d eeaf 093e fba3 923d
000003b0: 51aa 37bd 0e38 153d 2137 57bd b274 07bc
000003c0: cb2a c6bd c214 3d3c e5fb f73d f3a9 003e
000003d0: 893c 7e3d 6ca1 243e 284b e6bc 5832 f53d
000003e0: b8a5 0cbe b27f 1d3e 23d1 993b 5666 0bbe
000003f0: ac7f acbd e2d1 c23b eb04 1c3c 062e 9fbd
0.023188576 -0.04061947 0.0418389 -0.14275397 -0.0723876 -0.1476879 0.14824021 -0.09228816
0.055006444 -0.091010004 0.14239609 0.012985433 0.0347754 -0.12267021 -0.1374599 0.08271805
0.009044437 -0.17270735 0.073694676 0.12930812 -0.08581931 -0.14879455 -0.15670861 0.060419846
0.08012405 -0.028229762 0.09529795 -0.11089312 -0.17291628 0.05956367 0.08581972 -0.03991493
0.017540699 0.024949346 0.11829745 0.14365159 -0.035400983 0.16922286 -0.05539423 -0.14728197
-0.17311372 0.019124085 -0.13634878 0.13623011 0.16983186 -0.16557568 0.08880608 0.11318774
0.11679044 0.068455085 -0.15207891 -0.090355165 0.11061357 -0.17201257 -0.08439132 -0.02227473
-0.099070586 -0.04147866 -0.059154745 -0.14084151 0.15302885 0.03338862 0.019543335 0.10185409
0.0035731385 0.1306469 -0.10442851 -0.008151095 -0.10483359 -0.14236692 -0.05490139 -0.14371915
0.09072195 -0.11205154 0.14421628 0.01003573 0.028894844 -0.06915304 -0.121245176 -0.06707486
-0.083954975 -0.101178974 0.09999095 0.15220763 0.10446375 -0.11517008 -0.07853771 -0.12177679
-0.103147335 0.14330164 0.0265681 0.115739726 -0.06007594 0.16344346 -0.10606141 0.010728542
-0.013445794 -0.12729537 -0.14353037 -0.07235766 0.048042323 0.16503422 0.07608489 0.1330448
0.11055615 -0.02141166 -0.11119385 0.16868994 -0.13579735 -0.054929823 0.036485065 0.028676474
0.060108665 -0.014465519 0.1290866 0.0150853 0.12442611 -0.091357656 -0.013398428 -0.007324673
-0.17192015 0.08030701 -0.16573839 -0.10963491 -0.096521795 0.060594752 0.035070475 -0.09168054
-0.17038967 0.14551397 0.0032964805 -0.012887378 0.08861397 0.029908333 -0.109682545 -0.06464896
0.091575466 -0.033283256 0.027845282 -0.07898108 -0.04893554 -0.10479161 -0.014361869 0.1475788
0.030587621 0.04695283 -0.03807644 0.023562877 0.13435934 0.108061254 0.08269953 0.021575684
-0.14797777 0.029382478 -0.1264199 -0.06800792 -0.15831797 0.025433347 -0.035355352 0.039949555
0.113657095 0.11776185 -0.13053745 -0.06679952 -0.05315425 0.032899663 -0.102456674 0.16772203
-0.043431267 0.077154525 0.15793122 0.14947096 0.060344897 -0.07077479 0.08609165 0.13119206
0.0046722544 -0.17061196 0.014841575 -0.04669855 -0.100928746 0.021192297 0.07866591 0.16118133
0.052621186 -0.01174067 0.082125425 0.1440022 0.068095304 0.12964723 0.117200464 0.07569296
-0.10024905 -0.16064705 -0.107511096 -0.06298336 -0.0856295 0.031005757 -0.12574263 0.08791511
-0.09023638 -0.07385616 -0.09558538 -0.0895514 -0.09024687 0.12490142 -0.15352276 0.07763016
0.04619281 0.040272404 -0.026620483 -0.14299072 0.05219277 0.11937098 -0.042353768 -0.13914141
0.15731406 -0.11544054 -0.06408427 0.02816945 0.108416 0.16011561 0.13851312 0.06553838
0.12597924 -0.0970448 0.11060519 0.15454133 -0.053907473 0.06939765 0.09223668 0.045140583
-0.11425728 0.032939576 0.13446018 0.07160183 -0.04484016 0.03643041 -0.05254281 -0.008267568
-0.09676131 0.011540594 0.12108592 0.1256483 0.06206945 0.16077203 -0.02811201 0.11972493
-0.13735092 0.15380743 0.0046941205 -0.13613257 -0.08422789 0.00594543 0.009522657 -0.0777245

evolve.conv_h_r.bias f4 [100]
00000000: 0000 0000 0000 0000 0000 0000 0000 0000
00000010: 0000 0000 0000 0000 0000 0000 0000 0000
00000020: 0000 0000 0000 0000 0000 0000 0000 0000
00000030: 0000 0000 0000 0000 0000 0000 0000 0000
00000040: 0000 0000 0000 0000 0000 0000 0000 0000
00000050: 0000 0000 0000 0000 0000 0000 0000 0000
00000060: 0000 0000 0000 0000 0000 0000 0000 0000
00000070: 0000 0000 0000 0000 0000 0000 0000 0000
00000080: 0000 0000 0000 0000 0000 0000 0000 0000
00000090: 0000 0000 0000 0000 0000 0000 0000 0000
000000a0: 0000 0000 0000 0000 0000 0000 0000 0000
000000b0: 0000 0000 0000 0000 0000 0000 0000 0000
000000c0: 0000 0000 0000 0000 0000 0000 0000 0000
000000d0: 0000 0000 0000 0000 0000 0000 0000 0000
000000e0: 0000 0000 0000 0000 0000 0000 0000 0000
000000f0: 0000 0000 0000 0000 0000 0000 0000 0000
00000100: 0000 0000 0000 0000 0000 0000 0000 0000
00000110: 0000 0000 0000 0000 0000 0000 0000 0000
00000120: 0000 0000 0000 0000 0000 0000 0000 0000
00000130: 0000 0000 0000 0000 0000 0000 0000 0000
00000140: 0000 0000 0000 0000 0000 0000 0000 0000
00000150: 0000 0000 0000 0000 0000 0000 0000 0000
00000160: 0000 0000 0000 0000 0000 0000 0000 0000
00000170: 0000 0000 0000 0000 0000 0000 0000 0000
00000180: 0000 0000 0000 0000 0000 0000 0000 0000
0.0 0.0 0.0 0.0 0.0 0.0 0.0 0.0
0.0 0.0 0.0 0.0 0.0 0.0 0.0 0.0
0.0 0.0 0.0 0.0 0.0 0.0 0.0 0.0
0.0 0.0 0.0 0.0 0.0 0.0 0.0 0.0
0.0 0.0 0.0 0.0 0.0 0.0 0.0 0.0
0.0 0.0 0.0 0.0 0.0 0.0 0.0 0.0
0.0 0.0 0.0 0.0 0.0 0.0 0.0 0.0
0.0 0.0 0.0 0.0 0.0 0.0 0.0 0.0
0.0 0.0 0.0 0.0 0.0 0.0 0.0 0.0
0.0 0.0 0.0 0.0 0.0 0.0 0.0 0.0
0.0 0.0 0.0 0.0 0.0 0.0 0.0 0.0
0.0 0.0 0.0 0.0 0.0 0.0 0.0 0.0
0.0 0.0 0.0 0.0
