trained_models/gcrngru_email-eu.pt (torch, 800254 bytes, 22 tensors)

pre.weight f4 [128, 1]
-2.8211184 -0.9703223 -2.3192365 -3.222834 -4.1340537 2.2248647 -3.9110515 -0.97126603
1.5308 -2.0288231 3.2331424 0.03627766 2.5878782 1.741785 -1.7399354 2.8424318
-2.1024666 1.7858285 -3.592885 0.4896401 0.53746384 -1.8410909 -2.4553525 0.3905844
3.2344542 1.0445472 0.3170968 -1.1268253 3.0771537 -3.7641356 0.0836134 -2.223718
1.7713454 -2.2147462 -0.5956985 3.1399856 2.5730953 0.4710238 3.045012 -2.4504476
-2.1124942 -4.108894 1.9292867 1.657385 -1.9283805 1.7775694 -1.5959333 -2.7513409
3.2466917 2.2913465 2.2789729 4.280615 1.9179002 1.4125766 4.154317 -1.9551713
-2.8328047 -3.373094 -1.9687142 -0.72836447 -1.2189292 2.38796 1.6675875 -1.9371852
-2.6213622 -1.5110282 2.6502292 -2.4007108 -3.0160563 -2.6706212 -0.6703697 -1.6846635
-3.9349716 2.41729 2.332359 -2.2734954 -2.7105606 -1.045304 1.8837001 -3.3337831
-1.1597013 3.4762945 -3.0464957 -0.12829806 -4.216322 3.144161 2.3804693 -2.1636546
-1.6914219 2.7471607 1.452908 1.4942447 -3.3585982 -1.5446284 2.8438158 -2.4594991
0.0066352813 0.7901317 2.8729463 -1.1519734 1.9013796 1.7438353 -1.7501726 0.16530515
2.5874891 3.4340363 2.4514806 -1.0090332 -2.7976646 -3.9332056 -1.219408 -1.1392556
0.26643953 0.22372815 4.1685886 2.8441305 -1.3259447 -1.1905248 3.7727692 -3.143607
-4.2035146 1.8494692 3.4058383 -2.6531768 -1.5843842 -0.03747287 -3.1269484 -3.9796584
00000000: 348d 34c0 0b67 78bf 5f6e 14c0 ea42 4ec0
00000010: 2b4a 84c0 2f64 0e40 ab4e 7ac0 e4a4 78bf
00000020: 41f1 c33f 3dd8 01c0 ceeb 4e40 e297 143d
00000030: cc9f 2540 d0f2 de3f 34b6 debf 67ea 3540
00000040: d08e 06c0 0796 e43f d4f1 65c0 1bb2 fa3e
00000050: 3b97 093f dea8 ebbf 7f24 1dc0 aefa c73e
00000060: 4c01 4f40 b9b3 853f 835a a23e d03b 90bf
00000070: 16f0 4440 99e7 70c0 813d ab3d 6551 0ec0
00000080: 72bb e23f 67be 0dc0 b27f 18bf 86f5 4840
00000090: 98ad 2440 082a f13e 7ae1 4240 22d4 1cc0
000000a0: 1b33 07c0 0f7c 83c0 def2 f63f 3125 d43f
000000b0: 2cd5 f6bf 6587 e33f 8b47 ccbf f815 30c0
000000c0: ccc9 4f40 6ca5 1240 b1da 1140 ccfa 8840
000000d0: c17d f53f 4fcf b43f 2af0 8440 0e43 fabf
000000e0: ac4c 35c0 c6e0 57c0 d4fe fbbf 1876 3abf
000000f0: df05 9cbf 56d4 1840 8273 d53f aff5 f7bf
00000100: 66c4 27c0 5f69 c1bf 5b9d 2940 3fa5 19c0
00000110: 1107 41c0 75eb 2ac0 599d 2bbf 0ea3 d7bf
00000120: 93d6 7bc0 e1b4 1a40 5f45 1540 f380 11c0
00000130: d379 2dc0 85cc 85bf 161d f13f b45c 55c0
00000140: 1871 94bf 9c7b 5e40 c9f9 42c0 9160 03be
00000150: 1cec 86c0 ef39 4940 9c59 1840 5179 0ac0
00000160: 8380 d8bf 7bd1 2f40 e4f8 b93f 6943 bf3f
00000170: 46f3 56c0 62b6 c5bf 1401 3640 6f68 1dc0
00000180: c66c d93b 1246 4a3f 5ade 3740 dd73 93bf
00000190: 6860 f33f ff35 df3f a805 e0bf c145 293e
000001a0: 6c99 2540 40c7 5b40 0fe5 1c40 0028 81bf
000001b0: f00c 33c0 a4b9 7bc0 9015 9cbf 21d3 91bf
000001c0: c36a 883e fe18 653e 1465 8540 3c06 3640
000001d0: 8eb8 a9bf 1e63 98bf 0d75 7140 db30 49c0
000001e0: 3183 86c0 68bb ec3f 41f9 5940 a6cd 29c0
000001f0: 1acd cabf 277d 19bd ec1f 48c0 b9b2 7ec0

pre.bias f4 [128]
0.59683114 -3.7165246 0.40522602 -0.19519874 -0.07861061 -0.8044835 -1.4337947 5.5367823
2.9379413 -2.4566836 1.352182 5.6356535 -0.9237244 3.10532 -2.9326968 0.198111
0.2595496 -2.6566133 -1.5266564 5.39819 4.8097286 -2.444731 -2.5956428 5.0956693
2.0917242 4.083593 -5.3853846 4.9771996 1.6986014 -0.052388646 5.810347 0.17687127
2.8326914 0.40119082 5.157257 0.11773853 -0.7600105 -5.603582 -0.37624225 -2.999423
1.3769572 -0.10370812 -0.843412 -3.4349272 2.7487345 2.9323719 3.2777214 0.9204665
-0.15502357 -0.27569312 -0.33573422 0.7961213 -3.0707743 3.9060667 0.8565906 1.245891
-2.584898 -1.1625429 -0.01707926 -4.3384924 5.387713 -0.4077226 3.27312 -3.4733405
-1.74607 -2.838722 2.3406706 1.2314287 -0.13140686 -1.731204 -3.9792295 4.080026
-1.4578195 2.7413917 -0.29765514 0.7737125 1.2252281 5.5514402 3.0278301 0.055687487
-4.00908 0.8092415 0.2521784 -5.28431 -0.03298606 2.4117432 -1.3528857 -3.2729843
-3.2593977 1.7940263 -3.3145206 2.6996255 -1.8998367 -3.6226554 1.6456692 0.42203084
-5.138985 5.0418572 2.1828535 5.4810452 -2.532014 -2.9246352 1.9876226 -5.9260707
-0.90439194 2.0515683 2.2282655 -4.8974123 0.5959014 -0.904936 5.3830094 -4.242235
-5.975321 -5.6915784 0.5585833 -0.7572742 -2.8798146 -4.1039824 0.25303918 -0.7867646
-0.85892683 -2.9567769 2.242646 -2.69238 3.1144953 5.4426227 -2.110981 -0.7403985
00000000: edc9 183f 8adb 6dc0 c979 cf3e 2ee2 47be
00000010: 99fe a0bd a1f2 4dbf 9686 b7bf 522d b140
00000020: 3b07 3c40 4e3a 1dc0 4d14 ad3f 4657 b440
00000030: 3479 6cbf 90bd 4640 4eb1 3bc0 9cdd 4a3e
00000040: afe3 843e f405 2ac0 7a69 c3bf f9bd ac40
00000050: 4ce9 9940 7976 1cc0 031f 26c0 b90f a340
00000060: cfde 0540 cbac 8240 1255 acc0 3845 9f40
00000070: c56b d93f 7a95 56bd 5dee b940 be1d 353e
00000080: d14a 3540 e268 cd3e 4008 a540 e620 f13d
00000090: 0c90 42bf 8b50 b3c0 d3a2 c0be 8cf6 3fc0
000000a0: 2240 b03f ec64 d4bd d9e9 57bf d9d5 5bc0
000000b0: 44eb 2f40 fbab 3b40 30c6 5140 b1a3 6b3f
000000c0: 80be 1ebe a627 8dbe 5be5 abbe 9bce 4b3f
000000d0: 9187 44c0 fffc 7940 8649 5b3f 5b79 9f3f
000000e0: f86e 25c0 35ce 94bf cee9 8bbc eed4 8ac0
000000f0: 2568 ac40 04c1 d0be cc7a 5140 364b 5ec0
00000100: 397f dfbf 9fad 35c0 8ccd 1540 759f 9d3f
00000110: 858f 06be 1898 ddbf b2ab 7ec0 938f 8240
00000120: d499 babf f672 2f40 4166 98be 0612 463f
00000130: 46d4 9c3f 66a5 b140 f8c7 4140 9018 643d
00000140: 624a 80c0 732a 4f3f 871d 813e 1119 a9c0
00000150: 641c 07bd 005a 1a40 5c2b adbf 9378 51c0
00000160: f999 50c0 a7a2 e53f 1b21 54c0 aac6 2c40
00000170: d92d f3bf 96d9 67c0 4aa5 d23f 6d14 d83e
00000180: 9172 a4c0 e556 a140 dfb3 0b40 b964 af40
00000190: 840c 22c0 392d 3bc0 6b6a fe3f 5fa2 bdc0
000001a0: 3b86 67bf e54c 0340 e79b 0e40 9ab7 9cc0
000001b0: ff8c 183f e3a9 67bf 9d41 ac40 64c0 87c0
000001c0: d435 bfc0 6921 b6c0 51ff 0e3f b9dc 41bf
000001d0: e24e 38c0 d353 83c0 5a8e 813e 6869 49bf
000001e0: a1e2 5bbf d53b 3dc0 8387 0f40 f44f 2cc0
000001f0: e453 4740 f729 ae40 501a 07c0 c28a 3dbf

evolve.conv_x_z.bias f4 [128]
0.28516355 -0.27762127 0.029496752 0.38146475 -0.7425068 -0.013648258 0.014368286 -0.06550375
-0.17718332 0.0089788465 -0.55391407 0.007464476 -0.4618269 -0.044206247 -0.7821354 -0.1187899
-0.04653579 -0.7551555 -0.4422518 -1.0785168 -0.28098378 0.120036215 -0.5168089 -0.4668333
0.4129938 -0.21891865 -1.1881922 -0.21698713 -0.048526615 -0.43314043 -0.10277821 0.011699719
-0.087346785 1.2715511 -0.16679351 -0.08586674 -0.1607723 0.64065814 -0.42685854 0.42350835
-0.15754394 -0.20996481 -0.21219184 -1.5649719 -0.6613097 -0.41975367 0.0071978406 -1.1234548
0.60239977 -0.039066292 -0.26046202 0.011889927 0.5658432 0.008549669 0.15348867 -0.09469438
-0.30426162 0.009296142 -1.1860565 -0.06690393 -0.5043042 0.0061886474 -1.1349161 -0.27101436
1.2399559 -0.057380464 -1.8505006 -0.020530041 -0.6229773 0.10719994 0.44359073 -0.116194084
-0.67982304 -1.0468557 -0.07602361 -0.63825905 0.002290976 -0.0015900012 0.16867377 -1.1160743
-0.12845644 -0.4198628 2.137275e-08 -1.5025802 0.055479 -0.0541079 0.019304398 -0.07151974
-0.50591886 -0.5460203 0.0010120606 -0.0504326 -0.8769735 0.28045228 -0.03275348 -0.30117682
-0.5033765 0.3564619 0.397342 0.22250138 -0.23852204 -0.38499928 -0.4583333 -1.7680516
0.19727029 -0.81725 -0.36019385 0.22766194 -0.66657156 -0.48077765 -0.08751115 -0.07584802
-0.33411407 -0.028736515 -0.05765232 -0.24790734 0.010359395 -0.9744239 0.25602496 -0.618502
2.6588705 -0.39806628 -0.10468018 -0.81228906 -0.15282054 -0.7141596 0.027139723 -0.15926854
00000000: f500 923e 6024 8ebe 2ca3 f13c 594f c33e
00000010: ed14 3ebf f19c 5fbc f668 6b3c d526 86bd
00000020: 8b6f 35be 031c 133c 50cd 0dbf 9098 f43b
00000030: 9374 ecbe 9c11 35bd 073a 48bf 1e48 f3bd
00000040: 509c 3ebd df51 41bf d46e e2be d70c 8abf
00000050: 1bdd 8fbe 8cd5 f53d 974d 04bf c604 efbe
00000060: ec73 d33e 362c 60be af16 98bf e031 5ebe
00000070: d8c3 46bd 95c4 ddbe 627d d2bd 2eb0 3f3c
00000080: dfe2 b2bd 30c2 a23f ebcb 2abe e7da afbd
00000090: 7ea1 24be 2c02 243f 348d dabe 16d6 d83e
000000a0: 3353 21be 0401 57be d148 59be 0051 c8bf
000000b0: 984b 29bf f4e9 d6be dddb eb3b 5ecd 8fbf
000000c0: df36 1a3f fa03 20bd 475b 85be f8cd 423c
000000d0: 1adb 103f e913 0c3c 222c 1d3e 21ef c1bd
000000e0: 2ec8 9bbe d84e 183c b3d0 97bf ed04 89bd
000000f0: 141a 01bf 23ca ca3b ee44 91bf 65c2 8abe
00000100: e0b6 9e3f c707 6bbd 34dd ecbf 9e2e a8bc
00000110: 717b 1fbf a48b db3d 531e e33e 2af7 edbd
00000120: e208 2ebf 5eff 85bf 44b2 9bbd f264 23bf
00000130: 3324 163b 9667 d0ba d1b8 2c3e 86db 8ebf
00000140: 168a 03be 42f8 d6be 2d97 b732 8c54 c0bf
00000150: f33d 633d 3fa0 5dbd 4224 9e3c f178 92bd
00000160: e683 01bf fdc7 0bbf 1ea7 843a 6a92 4ebd
00000170: 5681 60bf 7197 8f3e 8328 06bd d933 9abe
00000180: 48dd 00bf 2d82 b63e 6970 cb3e 67d7 633e
00000190: 1f3f 74be a01e c5be aaaa eabe 844f e2bf
000001a0: 3901 4a3e 4c37 51bf 546b b8be 3620 693e
000001b0: 6fa4 2abf 7d28 f6be 0c39 b3bd 3556 9bbd
000001c0: 0011 abbe d768 ebbc d724 6cbd 6cdb 7dbe
000001d0: 74ba 293c d873 79bf b415 833e 2656 1ebf
000001e0: ef2a 2a40 58cf cbbe 9062 d6bd 2df2 4fbf
000001f0: fd7c 1cbe 2ad3 36bf 2054 de3c 4b17 23be

evolve.conv_x_z.lins.0.weight f4 [128, 128]
1.0716184 -0.32477945 0.4359731 0.5263357 0.4573529 -0.556177 -0.05341721 0.22231252
0.24155505 -0.17539786 0.03397322 0.33205384 -0.2399435 0.10997285 -0.26292422 -0.52797806
0.42621836 -0.3135539 -0.112056084 0.31963062 0.24103712 -0.115998596 -0.21310407 0.13322742
0.15173942 0.15120324 -0.36558172 0.3396499 0.17755802 0.44462582 0.27952456 0.4987238
0.28660434 0.23034187 0.18550381 -0.49251866 -0.14151339 -0.24883738 -1.0682417 -0.25918397
0.4198535 0.27726176 -0.46590224 -0.4750062 0.30348104 0.027036486 0.51315856 0.2104736
-0.97415835 -0.62368256 -0.39246786 -0.20580783 -0.25824544 0.040260542 -0.06529037 0.38321635
0.0016396143 0.115817815 0.4647232 -0.3361278 0.30323762 -0.9110126 0.033247538 -0.3202289
-0.261803 -0.060150072 0.23157099 0.47700867 0.53637314 0.053772166 -0.37461388 0.280135
0.017965749 0.21948682 -0.88268185 0.25003922 0.2517693 0.3500593 0.050636843 0.66459423
-0.2420419 -0.008627875 0.95829046 -0.3143422 0.2515903 0.1737456 -0.5332054 -0.13603868
-0.10459964 0.08234911 -0.38459826 0.07455131 0.057998545 -0.08410515 0.12797822 0.32091683
-0.38185066 0.13205679 0.24995409 0.31717792 -0.30569953 -0.3195856 0.31920752 -0.28934667
-0.12257203 0.08021406 0.14247732 -0.25495446 0.879475 0.06720976 0.15181588 -0.25884086
-0.15777823 -0.40327382 -0.1479424 -0.53717405 -0.09212294 -0.090206444 -0.48929256 -0.0018224922
0.22844262 -0.3243514 -0.015810516 0.00414947 0.4623997 0.30054623 -0.2198448 0.14558753
-0.15283848 0.5149569 -0.3383856 -0.05581233 0.03231834 0.23896427 -0.015229152 -0.18276943
-0.34665233 0.34321934 -0.0705318 -0.260054 0.17852259 -0.2794737 0.16477565 0.0066102906
-0.14697325 0.18183406 0.2004832 -0.21568412 -0.37701485 0.2761614 0.1091758 -0.44755876
-0.012460833 -0.34657434 0.23654571 -0.4248476 -0.12789404 -0.16974244 -0.27991152 -0.29498184
-0.21477343 -0.16061659 -0.4636856 0.1022946 0.29469994 0.3098685 0.095316686 0.33096048
-0.36392844 -0.083743386 0.22816563 0.34950373 -0.12730159 -0.28265125 -0.389546 -0.1087552
0.108990416 0.23527698 0.23520897 -0.032010604 0.25631112 -0.42091328 0.09450922 -0.34241903
0.07648072 0.07782421 -0.1300728 0.55368614 -0.17240417 0.32667986 -0.35472625 0.34253758
0.30259046 0.3131722 -0.20109795 -0.13200307 -0.3180969 0.16795287 0.4818688 -0.28985623
0.066937275 -0.1262445 0.060712583 -0.13841262 -0.15908675 -0.47929052 -0.11534167 -0.018880872
0.34462437 -0.03320464 -0.22469696 0.47773406 -0.02667837 -0.1866562 0.35854834 0.3374516
0.20286264 -0.19238555 0.4557462 -0.36707494 0.03552894 0.41899493 -0.039147012 -0.16982737
0.49819714 -0.28320396 -0.20529471 -0.30283764 0.16145097 0.15258317 -0.40541962 0.46192047
0.22426033 -0.0048351265 -0.3665559 0.38664553 -0.22232492 0.05882413 -0.19757147 0.51455903
0.40017453 0.34059685 0.15269399 0.12729244 0.324717 0.46081588 0.042185586 -0.16214079
0.07889207 0.35932407 -0.27132627 0.18708767 -0.13808697 -0.46149543 0.2608475 -0.05632735
00000000: cb2a 893f 7e49 a6be de37 df3e f0bd 063f
00000010: 292a ea3e 9e61 0ebf 01cc 5abd e5a5 633e
00000020: 355a 773e 7f9b 33be 8127 0b3d f602 aa3e
00000030: c0b3 75be 7239 e13d 019e 86be 9229 07bf
00000040: 4b39 da3e 238a a0be a97d e5bd a0a6 a33e
00000050: 6fd2 763e ac90 edbd f437 5abe c56c 083e
00000060: 9461 1b3e 06d5 1a3e 872d bbbe 97e6 ad3e
00000070: c5d1 353e ffa5 e33e d81d 8f3e ba58 ff3e
00000080: cebd 923e bdde 6b3e b6f4 3d3e 682b fcbe
00000090: e3e8 10be 3acf 7ebe 25bc 88bf c3b3 84be
000000a0: 0af7 d63e 41f5 8d3e bd8a eebe 0334 f3be
000000b0: de61 9b3e 9f7b dd3c 5c5e 033f 6486 573e
000000c0: 7162 79bf a9a9 1fbf 8cf1 c8be 4abf 52be
000000d0: bf38 84be 3de8 243d f5b6 85bd ef34 c43e
000000e0: 54e8 d63a e431 ed3d 33f0 ed3e f118 acbe
000000f0: f641 9b3e 1f38 69bf 922e 083d 0bf5 a3be
00000100: 0b0b 86be ec5f 76bd f220 6d3e 7b3a f43e
00000110: c04f 093f 3440 5c3d 64cd bfbe db6d 8f3e
00000120: e82c 933c 27c1 603e 70f7 61bf 2405 803e
00000130: e8e7 803e f93a b33e 9468 4f3d d922 2a3f
00000140: d5d9 77be ee5b 0dbc 8652 753f 76f1 a0be
00000150: 72d0 803e 5eea 313e 2680 08bf b94d 0bbe
00000160: 5638 d6bd a6a6 a83d 10ea c4be 5bae 983d
00000170: e28f 6d3d 523f acbd b90c 033e 364f a43e
00000180: ee81 c3be e539 073e f7f3 7f3e 2565 a23e
00000190: a684 9cbe b9a0 a3be 2b6f a33e 3f25 94be
000001a0: 0b07 fbbd 4547 a43d 93e5 113e 6489 82be
000001b0: 4625 613f 45a5 893d 9f75 1b3e ca86 84be
000001c0: 9e90 21be e879 cebe 367e 17be 3d84 09bf
000001d0: f4aa bcbd 28be b8bd 8e84 fabe b1e0 eeba
000001e0: ddec 693e 6311 a6be 0e85 81bc 47f8 873b
000001f0: a7bf ec3e 32e1 993e ff1e 61be e614 153e
00000200: b181 1cbe 37d4 033f e140 adbe 789b 64bd
00000210: 3c60 043d 0db3 743e b183 79bc e927 3bbe
00000220: 6a7c b1be 72ba af3e fa72 90bd cc25 85be
00000230: a0ce 363e 2d17 8fbe f3ba 283e 239b d83b
00000240: 2880 16be b532 3a3e 784b 4d3e 4cdc 5cbe
00000250: 1708 c1be 0765 8d3e 9097 df3d 6c26 e5be
00000260: 8628 4cbc 3172 b1be 0a39 723e a085 d9be
00000270: a8f6 02be f6d0 2dbe 9050 8fbe dc07 97be
00000280: 91ed 5bbe ad78 24be 3368 edbe d57f d13d
00000290: e9e2 963e 16a7 9e3e 6535 c33d a773 a93e
000002a0: d454 babe a781 abbd 40a4 693e 27f2 b23e
000002b0: 595b 02be aab7 90be 9372 c7be 0cbb debd
000002c0: 5e36 df3d 73ec 703e 9fda 703e 8d1d 03bd
000002d0: 363b 833e f281 d7be 0d8e c13d 8c51 afbe
000002e0: eca1 9c3d 4d62 9f3d ce31 05be 60be 0d3f
000002f0: b88a 30be 9542 a73e ae9e b5be 1661 af3e
00000300: 23ed 9a3e 1b58 a03e 9fec 4dbe d02b 07be
00000310: 99dd a2be d6fb 2b3e 82b7 f63e 0968 94be
00000320: 6916 893d 3d46 01be c2ad 783d 0abc 0dbe
00000330: a3e7 22be 9165 f5be 4138 ecbd 0fac 9abc
00000340: 9b72 b03e 9701 08bd f616 66be 8f99 f43e
00000350: 998c dabc ce22 3fbe a693 b73e 75c6 ac3e
00000360: 39bb 4f3e b800 45be 9157 e93e 3ff1 bbbe
00000370: cb86 113d 8186 d63e 9e58 20bd 3ae7 2dbe
00000380: b213 ff3e 1c00 91be c738 52be 890d 9bbe
00000390: 6753 253e c33e 1c3e 2993 cfbe d780 ec3e
000003a0: 80a4 653e fb6f 9ebb 37ad bbbe 67f6 c53e
000003b0: 25a9 63be 92f1 703d 2d50 4abe 24ba 033f
000003c0: ade3 cc3e b662 ae3e d05b 1c3e f358 023e
000003d0: 4e41 a63e 0ff0 eb3e cbca 2c3d 3c08 26be
000003e0: 2a92 a13d 53f9 b73e 47eb 8abe e993 3f3e
000003f0: ac66 0dbe 2149 ecbe ce8d 853e 82b7 66bd

evolve.conv_x_z.lins.1.weight f4 [128, 128]
0.3005312 1.4816858 0.11972855 0.6981838 0.8726993 0.18254165 1.322712 -0.89030254
-1.698492 1.8386539 -1.5219123 -1.3231218 0.005153563 -1.6895854 1.74192 -0.70410734
0.11105183 0.2100932 1.4369489 -1.210054 -1.4139565 1.8465335 1.8268644 -1.1718156
-1.7325035 -1.5374045 1.1663765 -0.6652633 -1.4126894 0.6526965 -1.1880114 0.2673505
-1.9187531 0.19657981 -0.96796495 -0.72498876 -0.13642256 0.9983167 -0.3548986 1.727863
-0.17712075 0.83609766 0.06440035 0.38193482 -0.09243046 -1.6506565 -0.5131983 0.14365682
-0.5526752 -0.22893131 -0.15144356 -0.8043839 0.2874973 -1.733712 -0.9771287 -0.09832598
1.6814297 1.3044506 0.12399742 1.4017782 -0.78728074 -0.34883127 -1.9687138 1.7296113
1.5901196 1.8357754 -1.6564144 -0.060121745 0.4451018 1.6177812 1.6448114 -0.594488
1.2079897 -1.753698 -0.43500325 -0.039674852 0.03859097 -0.88985795 -1.686209 0.74153924
1.7704284 -1.1803429 0.39907485 1.1088433 0.6807617 -1.6738026 0.16727278 1.8228899
1.9377929 -1.46792 0.48907116 -1.9991235 1.5818416 1.631227 -1.4134612 0.26958543
1.0269033 -1.4469409 -1.7866358 -0.9067819 0.2581354 0.30219635 -0.2415338 1.1731656
-0.18529499 -1.723655 -1.6792889 1.4266976 0.54373455 1.1359974 -0.7556419 1.4671654
1.0228345 1.1660053 -0.8461092 -0.36515853 1.8373394 1.7975754 -0.5883991 0.9700861
0.89762026 0.39524558 -1.8480858 1.7302023 -0.18522067 -0.99587923 1.8395318 0.7977892
0.12452134 0.0034974427 -0.006136778 -0.15444747 0.10051913 -0.08614233 -0.17025226 -0.04343049
-0.0141307125 -0.1261302 0.14090192 0.10547314 -0.03337799 0.13195695 0.11869906 0.0010506053
0.12450153 0.007718129 -0.13842387 0.08676727 -0.106234185 -0.096615314 -0.031313825 0.048956815
-0.0629814 0.15682313 0.11202509 0.14137492 0.18173309 0.0069823987 -0.030800344 0.060166556
-0.119924195 -0.019968979 0.14163613 0.0019273969 -0.13309833 -0.054172657 -0.099962644 0.06333246
0.044500817 -0.05708311 0.08569614 0.115437254 -0.06014855 0.17135313 -0.08541355 -0.13376163
-0.10827234 0.0080038365 0.07384772 -0.083410144 -0.12325041 0.13451543 0.05785318 -0.09457469
-0.043015327 0.11901579 -0.121353686 -0.06363025 0.12141204 -0.14344244 -0.0397068 -0.12416546
0.0882309 -0.0010387112 -0.03285992 -0.0061786007 0.12345649 -0.03541271 -0.020955145 0.1495965
0.05761154 0.0473928 -0.080233976 -0.10394101 -0.074092895 0.0923619 0.028649215 0.0029649376
0.099897966 -0.016875038 -0.07974214 0.109827615 0.1092277 0.05336428 -0.014890402 0.109088734
0.046901017 0.052278373 0.046068016 0.10762492 -0.021143911 -0.020254405 0.1386695 -0.0037847126
0.10996726 0.11529358 -0.053107057 -0.054529667 0.09816348 -0.1180153 0.05170816 -0.036921028
-0.026035065 -0.0703681 -0.024159119 -0.17033206 0.07565493 0.041233405 0.103456914 0.081110954
0.1019411 0.078989066 -0.10149592 0.057702444 -0.1379514 -0.09093042 -0.1268169 -0.08033845
-0.07046285 0.030703284 -0.06756572 -0.012897647 -0.094617 -0.082892545 0.007041724 0.05526226
00000000: 3adf 993e e1a7 bd3f 3e34 f53d 2cbc 323f
00000010: 3969 5f3f 33ec 3a3e a04e a93f deea 63bf
00000020: 3068 d9bf 0359 eb3f 06ce c2bf 0e5c a9bf
00000030: 38df a83b 5644 d8bf 3cf7 de3f 6140 34bf
00000040: 246f e33d ac22 573e f1ed b73f 0de3 9abf
00000050: 87fc b4bf 365b ec3f b1d6 e93f 0efe 95bf
00000060: adc2 ddbf acc9 c4bf d34b 953f b24e 2abf
00000070: 02d3 b4bf 1e17 273f c210 98bf 2ae2 883e
00000080: b499 f5bf 384c 493e 8dcc 77bf dd98 39bf
00000090: 5bb2 0bbe af91 7f3f 45b5 b5be 9d2a dd3f
000000a0: 245f 35be 7f0a 563f 55e4 833d f68c c33e
000000b0: 2e4c bdbd b648 d3bf f760 03bf c61a 133e
000000c0: 1f7c 0dbf f86c 6abe 0514 1bbe 1aec 4dbf
000000d0: d932 933e 46ea ddbf 1b25 7abf 225f c9bd
000000e0: 1739 d73f 3df8 a63f 5cf2 fd3d 786d b33f
000000f0: 3b8b 49bf 039a b2be d0fe fbbf e763 dd3f
00000100: 0a89 cb3f b0fa ea3f 6305 d4bf 3842 76bd
00000110: 62e4 e33e 7413 cf3f 2e89 d23f 5e30 18bf
00000120: 689f 9a3f 2d79 e0bf bfb8 debe 1982 22bd
00000130: 9111 1e3d bbcd 63bf b2d5 d7bf 84d5 3d3f
00000140: 669d e23f 7a15 97bf 8a53 cc3e 94ee 8d3f
00000150: 6646 2e3f 2a3f d6bf 8e49 2b3e 7554 e93f
00000160: 9909 f83f cde4 bbbf 8967 fa3e 47e3 ffbf
00000170: c979 ca3f 0ccc d03f 4cec b4bf 1a07 8a3e
00000180: 9171 833f 5c35 b9bf 7bb0 e4bf dc22 68bf
00000190: 532a 843e 7bb9 9a3e a354 77be 4a2a 963f
000001a0: f8bd 3dbe baa0 dcbf f0f2 d6bf 079e b63f
000001b0: 3032 0b3f 5d68 913f bf71 41bf 13cc bb3f
000001c0: 3eec 823f a93f 953f 9d9a 58bf 0ff6 babe
000001d0: f02d eb3f f316 e63f 53a1 16bf 9057 783f
000001e0: 71ca 653f a15d ca3e 138e ecbf 4577 dd3f
000001f0: 7daa 3dbe f1f1 7ebf c775 eb3f ea3b 4c3f
00000200: 0b05 ff3d 5a35 653b 0617 c9bb 7a27 1ebe
00000210: f9dc cd3d 646b b0bd 9c56 2ebe 2be4 31bd
00000220: 8184 67bc 4628 01be 9848 103e 4d02 d83d
00000230: 5cb7 08bd b91f 073e 7e18 f33d 77b4 893a
00000240: a8fa fe3d 5ce8 fc3b fdbe 0dbe 0ab3 b13d
00000250: 4f91 d9bd 40de c5bd ed42 00bd f186 483d
00000260: 64fc 80bd 3e96 203e 696d e53d 96c4 103e
00000270: 3d18 3a3e 9bcc e43b 0151 fcbc 3571 763d
00000280: d19a f5bd fc95 a3bc 1009 113e b5a0 fc3a
00000290: ee4a 08be 26e4 5dbd 37b9 ccbd 73b4 813d
000002a0: 7d46 363d fbcf 69bd 7581 af3d 5e6a ec3d
000002b0: 535e 76bd 3277 2f3e 4ded aebd cff8 08be
000002c0: e3bd ddbd 8622 033c 793d 973d f0d2 aabd
000002d0: b66a fcbd 6abe 093e 75f7 6c3d 60b0 c1bd
000002e0: d730 30bd 8dbe f33d 4888 f8bd 9450 82bd
000002f0: e0a6 f83d 93e2 12be 99a3 22bd 764a febd
00000300: 67b2 b43d 5d25 88ba 2098 06bd dc75 cabb
00000310: c2d6 fc3d eb0c 11bd 20aa abbc d32f 193e
00000320: 14fa 6b3d f41e 423d b651 a4bd 06df d4bd
00000330: 04be 97bd 3c28 bd3d c2b1 ea3c 664f 423b
00000340: 4e97 cc3d 853d 8abc d94f a3bd 4ded e03d
00000350: c6b2 df3d 8194 5a3d dff6 73bc ea69 df3d
00000360: 481b 403d d921 563d d1b1 3c3d 746a dc3d
00000370: ff35 adbc 91ec a5bc 61ff 0d3e f108 78bb
00000380: 8436 e13d 0a1f ec3d c986 59bd 805a 5fbd
00000390: ef09 c93d 01b2 f1bd f0cb 533d 813a 17bd
000003a0: 7d47 d5bc 271d 90bd 58e9 c5bc 876b 2ebe
000003b0: f9f0 9a3d 5ce4 283d 38e1 d33d 801d a63d
000003c0: 7fc6 d03d 05c5 a13d 18dd cfbd 6659 6c3d
000003d0: 2243 0dbe ba39 babd 4adc 01be 7c88 a4bd
000003e0: d44e 90bd 7485 fb3c e55f 8abd a750 53bc
000003f0: 8fc6 c1bd 91c3 a9bd 43be e63b ae5a 623d

evolve.conv_h_z.bias f4 [128]
0.28516355 -0.27762127 0.029496752 0.38146475 -0.7425068 -0.013648258 0.014368286 -0.06550375
-0.17718332 0.0089788465 -0.55391407 0.007464476 -0.4618269 -0.044206247 -0.7821354 -0.1187899
-0.04653579 -0.7551555 -0.4422518 -1.0785168 -0.28098378 0.120036215 -0.5168089 -0.4668333
0.4129938 -0.21891865 -1.1881922 -0.21698713 -0.048526615 -0.43314043 -0.10277821 0.011699719
-0.087346785 1.2715511 -0.16679351 -0.08586674 -0.1607723 0.64065814 -0.42685854 0.42350835
-0.15754394 -0.20996481 -0.21219184 -1.5649719 -0.6613097 -0.41975367 0.0071978406 -1.1234548
0.60239977 -0.039066292 -0.26046202 0.011889927 0.5658432 0.008549669 0.15348867 -0.09469438
-0.30426162 0.009296142 -1.1860565 -0.06690393 -0.5043042 0.0061886474 -1.1349161 -0.27101436
1.2399559 -0.057380464 -1.8505006 -0.020530041 -0.6229773 0.10719994 0.44359073 -0.116194084
-0.67982304 -1.0468557 -0.07602361 -0.63825905 0.002290976 -0.0015900012 0.16867377 -1.1160743
-0.12845644 -0.4198628 2.137275e-08 -1.5025802 0.055479 -0.0541079 0.019304398 -0.07151974
-0.50591886 -0.5460203 0.0010120606 -0.0504326 -0.8769735 0.28045228 -0.03275348 -0.30117682
-0.5033765 0.3564619 0.397342 0.22250138 -0.23852204 -0.38499928 -0.4583333 -1.7680516
0.19727029 -0.81725 -0.36019385 0.22766194 -0.66657156 -0.48077765 -0.08751115 -0.07584802
-0.33411407 -0.028736515 -0.05765232 -0.24790734 0.010359395 -0.9744239 0.25602496 -0.618502
2.6588705 -0.39806628 -0.10468018 -0.81228906 -0.15282054 -0.7141596 0.027139723 -0.15926854
00000000: f500 923e 6024 8ebe 2ca3 f13c 594f c33e
00000010: ed14 3ebf f19c 5fbc f668 6b3c d526 86bd
00000020: 8b6f 35be 031c 133c 50cd 0dbf 9098 f43b
00000030: 9374 ecbe 9c11 35bd 073a 48bf 1e48 f3bd
00000040: 509c 3ebd df51 41bf d46e e2be d70c 8abf
00000050: 1bdd 8fbe 8cd5 f53d 974d 04bf c604 efbe
00000060: ec73 d33e 362c 60be af16 98bf e031 5ebe
00000070: d8c3 46bd 95c4 ddbe 627d d2bd 2eb0 3f3c
00000080: dfe2 b2bd 30c2 a23f ebcb 2abe e7da afbd
00000090: 7ea1 24be 2c02 243f 348d dabe 16d6 d83e
000000a0: 3353 21be 0401 57be d148 59be 0051 c8bf
000000b0: 984b 29bf f4e9 d6be dddb eb3b 5ecd 8fbf
000000c0: df36 1a3f fa03 20bd 475b 85be f8cd 423c
000000d0: 1adb 103f e913 0c3c 222c 1d3e 21ef c1bd
000000e0: 2ec8 9bbe d84e 183c b3d0 97bf ed04 89bd
000000f0: 141a 01bf 23ca ca3b ee44 91bf 65c2 8abe
00000100: e0b6 9e3f c707 6bbd 34dd ecbf 9e2e a8bc
00000110: 717b 1fbf a48b db3d 531e e33e 2af7 edbd
00000120: e208 2ebf 5eff 85bf 44b2 9bbd f264 23bf
00000130: 3324 163b 9667 d0ba d1b8 2c3e 86db 8ebf
00000140: 168a 03be 42f8 d6be 2d97 b732 8c54 c0bf
00000150: f33d 633d 3fa0 5dbd 4224 9e3c f178 92bd
00000160: e683 01bf fdc7 0bbf 1ea7 843a 6a92 4ebd
00000170: 5681 60bf 7197 8f3e 8328 06bd d933 9abe
00000180: 48dd 00bf 2d82 b63e 6970 cb3e 67d7 633e
00000190: 1f3f 74be a01e c5be aaaa eabe 844f e2bf
000001a0: 3901 4a3e 4c37 51bf 546b b8be 3620 693e
000001b0: 6fa4 2abf 7d28 f6be 0c39 b3bd 3556 9bbd
000001c0: 0011 abbe d768 ebbc d724 6cbd 6cdb 7dbe
000001d0: 74ba 293c d873 79bf b415 833e 2656 1ebf
000001e0: ef2a 2a40 58cf cbbe 9062 d6bd 2df2 4fbf
000001f0: fd7c 1cbe 2ad3 36bf 2054 de3c 4b17 23be

evolve.conv_h_z.lins.0.weight f4 [128, 128]
0.07717555 -0.08868949 0.049820185 0.13016587 0.0041333605 -0.077955686 0.1371725 0.022140902
-0.13199799 -0.0054718973 -0.11853135 -0.026011368 0.094025224 -0.0045198617 0.036391273 0.09994217
0.06536865 0.023085508 -0.09878309 0.06662128 0.062289543 0.120019935 0.08495229 -0.0028013024
-0.123696186 0.041428067 0.06078725 -0.12303779 -0.14244153 0.045364235 0.11748841 -0.05969542
-0.009819223 -0.03160171 0.09787608 0.02500982 -0.02692424 -0.076294556 0.12824495 -0.07228899
0.14008982 0.021350926 -0.08985728 -0.064123295 -0.027554344 0.13035837 0.13340837 -0.12949334
-0.06290601 0.027250314 0.08259078 -0.038763165 -0.028688425 -0.011626367 0.14724231 -0.09331121
-0.11553843 -0.08208359 0.0008191567 -0.11536628 -0.00037896377 -0.061876763 -0.0887723 0.11672482
0.0024917438 -0.005207234 0.13805197 -0.1442987 0.12847072 -0.039953202 0.036572184 0.018281767
-0.04292662 -0.13471957 0.104935825 -0.112576365 -0.08294956 -0.0021679867 0.019809283 0.05590443
-0.00055803393 0.13180473 -0.14153987 -0.06217634 0.00034282854 -0.12897678 -0.07645739 -0.061041582
0.06429025 0.11389034 0.09825712 0.13368282 -0.14922601 -0.015117324 -0.06716924 0.13214391
0.0135508245 -0.12067482 0.049623467 -0.10605576 0.0959929 0.11914774 -0.021723667 0.13184299
-0.11658107 -0.117818035 -0.14031684 -0.059033997 -0.08506878 0.022603195 -0.018628119 -0.0947366
0.06331677 0.07470928 0.09803582 0.105419785 0.04214716 0.013410317 -0.12409803 -0.014646014
0.01728416 0.08288203 0.1439823 0.07039225 0.052608293 0.017120257 -0.052693613 0.11748596
-0.12468536 0.041958325 0.05362415 -0.024940178 0.13296469 0.08763834 -0.066549525 -0.0106345285
0.07312844 -0.07426474 -0.03480667 -0.12349271 -0.06326142 0.089989744 -0.008481671 0.09804655
0.00088934664 -0.08486148 -0.15073742 -0.059393816 0.11408065 -0.009023681 0.12987193 -0.054565508
-0.018283026 0.010828473 0.07101613 0.03414742 -0.15180849 0.0670473 0.05563911 -0.071263365
-0.066669375 0.018936252 -0.11390494 -0.0034467727 0.15082818 0.019425867 -0.08494652 -0.09186717
0.04761683 0.061469622 0.12620915 0.14100166 -0.07167693 0.09678979 0.019089298 -0.106249034
-0.112644546 -0.084103 0.085309885 0.10392512 -0.0907697 -0.15293632 0.13335967 -0.059488334
0.12405491 -0.121794134 0.06660006 0.031177174 -0.013540185 -0.012806913 -0.12382173 0.1333296
-0.13794026 0.04022066 0.14502247 0.11347991 -0.14940283 -0.12994315 -0.09761757 0.08422904
0.07607118 -0.08944007 -0.019533033 -0.10471316 0.023389246 -0.12332136 -0.058417086 -0.06435991
-0.057248678 -0.056037854 -0.052140158 -0.08819762 0.014843243 0.101948775 0.026103934 0.10692817
-0.12945755 0.0060352967 -0.14682624 0.13112558 -0.06985296 -0.13808706 -0.14388204 -0.14089836
0.1483988 0.08303501 0.09117463 -0.13751413 0.09648472 0.021392774 0.10688598 -0.00996818
-0.0021946866 -0.07868279 -0.08006153 -0.067096114 0.15276773 0.0058060023 0.0021246243 0.05926886
0.010235417 0.14426887 -0.14719976 -0.00024250761 0.010599744 -0.114195265 -0.14751054 -0.09073024
-0.097633295 -0.07133084 0.12455894 0.0329574 0.073439434 -0.02365329 -0.05261769 -0.12869748
00000000: 370e 9e3d d6a2 b5bd 4010 4c3d 344a 053e
00000010: 2471 873b 3ba7 9fbd f376 0c3e d660 b53c
00000020: 7b2a 07be 9a4d b3bb 90c0 f2bd cb15 d5bc
00000030: 4c90 c03d 591b 94bb 040f 153d 7bae cc3d
00000040: 00e0 853d d21d bd3c ca4e cabd bd70 883d
00000050: 5223 7f3d 03cd f53d 77fb ad3d 0e96 37bb
00000060: 6d54 fdbd 7ab0 293d 0dfc 783d 3dfb fbbd
00000070: 31dc 11be d9cf 393d c39d f03d 2f83 74bd
00000080: cee0 20bc cb70 01bd 4173 c83d 65e1 cc3c
00000090: 3990 dcbc 5240 9cbd a552 033e 400c 94bd
000000a0: b573 0f3e 23e8 ae3c 1807 b8bd 1353 83bd
000000b0: a6b9 e1bc aa7c 053e 349c 083e e799 04be
000000c0: ded4 80bd 0d3c df3c 5b25 a93d 20c6 1ebd
000000d0: fd03 ebbc 857c 3ebc b0c6 163e f319 bfbd
000000e0: 6a9f ecbd 711b a8bd adbc 563a 2845 ecbd
000000f0: a8af c6b9 7d72 7dbd 40ce b5bd 6c0d ef3d
00000100: 864c 233b 72a1 aabb 7f5d 0d3e 0ac3 13be
00000110: d48d 033e f8a5 23bd b7cc 153d a5c3 953c
00000120: d3d3 2fbd edf3 09be 98e8 d63d 708e e6bd
00000130: 75e1 a9bd c814 0ebb 1447 a23c 0bfc 643d
00000140: 0649 12ba d2f7 063e d4ef 10be 9eac 7ebd
00000150: abbd b339 7d12 04be b195 9cbd bd06 7abd
00000160: 9baa 833d 573f e93d 073b c93d 26e4 083e
00000170: b4ce 18be a7ae 77bc 0790 89bd bc50 073e
00000180: 4704 5e3c 5c24 f7bd fa41 4b3d c333 d9bd
00000190: ed97 c43d bb03 f43d d5f5 b1bc d901 073e
000001a0: 0ec2 eebd 954a f1bd 38af 0fbe a2cd 71bd
000001b0: 8a38 aebd 562a b93c ff99 98bc 4305 c2bd
000001c0: 39ac 813d 2e01 993d 01c7 c83d 54e6 d73d
000001d0: 80a2 2c3d f2b6 5b3c 1c27 febd d6f5 6fbc
000001e0: 8397 8d3c 0ebe a93d 1970 133e d029 903d
000001f0: cb7b 573d c83f 8c3c 42d5 57bd 7b9c f03d
00000200: 0a5b ffbd 7edc 2b3d ffa4 5b3d 584f ccbc
00000210: e527 083e bb7b b33d 1e4b 88bd 723c 2ebc
00000220: 5dc4 953d 1d18 98bd 7091 0ebd bfe9 fcbd
00000230: 348f 81bd 8b4c b83d b5f6 0abc a1cc c83d
00000240: 0b23 693a dbcb adbd e95a 1abe ee46 73bd
00000250: 1ea3 e93d 10d8 13bc 26fd 043e 1580 5fbd
00000260: 49c6 95bc e869 313c e870 913d 2ade 0b3d
00000270: af73 1bbe 1850 893d d6e5 633d 87f2 91bd
00000280: f489 88bd 3320 9b3c fe46 e9bd 40e3 61bb
00000290: b472 1a3e ff22 9f3c 71f8 adbd db24 bcbd
000002a0: dd09 433d 92c7 7b3d f93c 013e bd62 103e
000002b0: 5bcb 92bd ba39 c63d 2961 9c3c 1899 d9bd
000002c0: 2fb2 e6bd 323e acbd f3b6 ae3d b1d6 d43d
000002d0: 77e5 b9bd 579b 1cbe 708f 083e 0aaa 73bd
000002e0: 8010 fe3d 346f f9bd 9d65 883d 4667 ff3c
000002f0: a7d7 5dbc 16d4 51bc 3f96 fdbd 8e87 083e
00000300: 3640 0dbe 6bbe 243d c580 143e 2868 e83d
00000310: 0efd 18be d10f 05be b8eb c7bd 4680 ac3d
00000320: 35cb 9b3d 5b2c b7bd bd03 a0bc da73 d6bd
00000330: ce9a bf3c e98f fcbd c146 6fbd 21cf 83bd
00000340: 977d 6abd f387 65bd eb90 55bd f4a0 b4bd
00000350: 1331 733c 85ca d03d ebd7 d53c 28fd da3d
00000360: 8590 04be bdc3 c53b 9e59 16be c945 063e
00000370: 120f 8fbd b266 0dbe d055 13be a947 10be
00000380: dbf5 173e 420e aa3d c4b9 ba3d 81d0 0cbe
00000390: c899 c53d e63f af3c 09e7 da3d 9451 23bc
000003a0: bbd4 0fbb 7124 a1bd 4df7 a3bd b069 89bd
000003b0: 256f 1c3e 4740 be3b 483d 0b3b e7c3 723d
000003c0: 73b2 273c 38bb 133e 89bb 16be a449 7eb9
000003d0: 8caa 2d3c 35df e9bd 010d 17be c7d0 b9bd
000003e0: f7f3 c7bd e715 92bd c218 ff3d 57fe 063d
000003f0: 6a67 963d 8bc4 c1bc a685 57bd 46c9 03be

evolve.conv_h_z.lins.1.weight f4 [128, 128]
0.100734614 0.0064898343 -0.09773325 -0.01150933 0.04733025 0.036034774 0.06598879 0.047873646
-0.13086107 -0.124871075 -0.021934656 0.07329871 -0.031745866 -0.137589 0.03678646 -0.046179138
-0.0021122142 -0.120364755 0.05275619 -0.1463093 -0.14657544 0.10628162 -0.06559826 -0.12527166
-0.014940407 -0.10816615 -0.119948395 -0.1044851 0.15022324 -0.099322364 -0.08749245 0.013794609
0.086954124 0.15108855 0.15095197 -0.0038115561 -0.023396801 -0.038463444 -0.06787565 -0.03624047
-0.0040556695 -0.09523368 -0.025997827 -0.013684324 0.010695411 -0.1412805 -0.05073716 0.04148019
-0.10450795 0.014144976 0.13531873 -0.09711307 -0.09337629 0.041878756 -0.10583707 0.02787956
-0.026829997 0.08268254 -0.046340123 0.10326424 0.06500556 0.10053435 -0.050548784 0.07277187
-0.03385965 -0.0962856 0.09781596 -0.14224105 0.045770574 -0.13446763 0.13530819 -0.07900603
-0.00025053768 0.05766281 0.13825582 -0.097707205 0.13991165 -0.09811853 0.034406826 0.082585305
-0.081334494 0.10609568 0.06552713 -0.12848134 -0.1332305 -0.116509214 -0.08358851 -0.06918032
-0.10308641 -0.14179698 0.0063643833 0.00033195145 -0.12028064 -0.1523238 -0.08567525 0.0039767926
0.15022631 0.085455485 0.12833856 0.068453684 -0.14145505 -0.141354 0.11851691 -0.0010980733
0.08540161 0.12420571 0.030264797 -0.12392218 -0.0580296 -0.03621401 0.051054787 0.0071128206
-0.14297438 0.08751105 -0.10328154 -0.14174975 -0.019658191 0.04204054 0.08511862 0.033592105
-0.046926007 -0.051260047 0.0932888 -0.044532668 -0.10900746 -0.12077538 0.13580436 0.09468539
-0.07129478 0.0705269 -0.09897223 -0.12698865 -0.12572607 0.116942085 0.0946273 0.1517301
-0.0427773 0.06105352 0.10400173 -0.019426817 -0.02788343 0.11462978 0.091831945 0.0665495
-0.10816902 0.033948567 -0.141713 -0.09331789 0.041546803 -0.06830159 0.07925084 -0.1136323
0.12711878 -0.03322017 0.012829562 -0.047765587 -0.040395368 0.11117921 -0.10004394 0.027906662
0.038584955 0.14514135 -0.06635414 -0.051802788 0.09300423 0.034843825 0.1357472 -0.03523726
0.046297748 0.14207263 -0.0096641695 0.028826779 -0.05355675 0.02519745 0.09980813 0.045418274
-0.14597131 0.101704404 -0.12033515 0.030840734 0.120848395 0.11543815 0.0036422133 -0.15165758
0.10580364 -0.15139769 -0.09938231 0.09479497 0.13565314 0.047417156 -0.017642265 -0.112155795
0.11165169 -0.04846035 0.078994155 0.11823699 -0.0017274835 -0.010417169 -0.07476166 0.10399146
-0.057520147 -0.04276916 -0.117345236 -0.10815088 -0.0122876605 -0.06981818 0.12374064 0.0035893791
0.1281882 0.012775158 -0.04376319 -0.03637932 0.14593348 -0.12293479 -0.11211223 0.08849219
-0.14765131 0.04700859 -0.04051277 -0.11224257 -0.151547 -0.09084337 -0.07861353 0.075831994
0.06758714 0.13415171 0.13834995 0.12546869 0.10422504 -0.008146088 0.13734357 -0.048029613
0.010394813 -0.14755177 0.07235248 0.0935207 -0.08793684 0.03807116 0.01906791 0.1352673
-0.13014399 -0.1138254 -0.03530141 0.021846253 0.14639585 -0.08646919 -0.068025485 0.1494905
-0.0071338266 -0.03825802 -0.08623407 -0.0013305616 0.07453003 0.10409904 0.0013402159 0.08499651
00000000: f34d ce3d ada8 d43b 5f28 c8bd a191 3cbc
00000010: 5ddd 413d 3399 133d 2125 873d 2817 443d
00000020: 7200 06be 68bc ffbd 4fb0 b3bc a21d 963d
00000030: f407 02bd 21e4 0cbe 66ad 163d 5626 3dbd
00000040: 136d 0abb cc81 f6bd e016 583d 1bd2 15be
00000050: df17 16be 2eaa d93d 6158 86bd 3747 00be
00000060: 9cc8 74bc 3786 ddbd 81a7 f5bd 49fc d5bd
00000070: 1fd4 193e 8669 cbbd 3e2f b3bd c902 623c
00000080: 0115 b23d f5b6 1a3e 2793 1a3e 4dcb 79bb
00000090: a6aa bfbc d88b 1dbd 6402 8bbd e370 14bd
000000a0: 6ce5 84bb e009 c3bd 65f9 d4bc 3734 60bc
000000b0: ce3b 2f3c d6ab 10be c5d1 4fbd 22e7 293d
000000c0: 4408 d6bd 54c0 673c fe90 0a3e 38e3 c6bd
000000d0: 113c bfbd 0f89 2b3d 1bc1 d8bd ad63 e43c
000000e0: 95ca dbbc 7755 a93d 24cf 3dbd 347c d33d
000000f0: a321 853d f4e4 cd3d 3e0c 4fbd 6b09 953d
00000100: 6bb0 0abd 6231 c5bd bc53 c83d a3a7 11be
00000110: ed79 3b3d e2b1 09be 3b8e 0a3e eacd a1bd
00000120: 995a 83b9 d72f 6c3d ef92 0d3e b71a c8bd
00000130: 0045 0f3e 5ef2 c8bd 2cee 0c3d 7c22 a93d
00000140: b392 a6bd b148 d93d 1733 863d 9d90 03be
00000150: 946d 08be 629c eebd 7430 abbd 69ae 8dbd
00000160: f81e d3bd 3a33 11be 518c d03b c509 ae39
00000170: b255 f6bd c5fa 1bbe 8176 afbd c14f 823b
00000180: edd4 193e 4903 af3d 2f6b 033e 7231 8c3d
00000190: 98d9 10be 1abf 10be feb8 f23d 3aed 8fba
000001a0: 0ae7 ae3d 905f fe3d e1ed f73c e9ca fdbd
000001b0: 72b0 6dbd 2455 14bd d31e 513d aa12 e93b
000001c0: e067 12be fe38 b33d 4685 d3bd d926 11be
000001d0: 370a a1bc b432 2c3d ac52 ae3d e097 093d
000001e0: 7c35 40bd 0ef6 51bd 330e bf3d e367 36bd
000001f0: 4e3f dfbd 1559 f7bd 4c10 0b3e 6aea c13d
00000200: ff02 92bd 6870 903d f4b1 cabd 5009 02be
00000210: 56be 00be 557f ef3d f5cb c13d 235f 1b3e
00000220: 4037 2fbd 4113 7a3d dcfe d43d fd24 9fbc
00000230: ca6b e4bc 05c3 ea3d 6312 bc3d 1b4b 883d
00000240: b887 ddbd a70d 0b3d 361d 11be 731d bfbd
00000250: fb2c 2a3d b4e1 8bbd 444e a23d 0db8 e8bd
00000260: 6d2b 023e df11 08bd 1533 523c d9a5 43bd
00000270: 9d75 25bd edb1 e33d d6e3 ccbd 839c e43c
00000280: 420b 1e3d ef9f 143e aee4 87bd 292f 54bd
00000290: 0079 be3d 66b8 0e3d 5001 0b3e f254 10bd
000002a0: b5a2 3d3d 7d7b 113e 7756 1ebc 2326 ec3c
000002b0: 535e 5bbd e26a ce3c 3468 cc3d 8308 3a3d
000002c0: 8179 15be 664a d03d 4672 f6bd b5a5 fc3c
000002d0: 5d7f f73d d66a ec3d 33b2 6e3b 204c 1bbe
000002e0: 94af d83d ff07 1bbe f488 cbbd dd23 c23d
000002f0: a8e8 0a3e 7e38 423d 8386 90bc f0b1 e5bd
00000300: a4a9 e43d 5c7e 46bd b0c7 a13d 3c26 f23d
00000310: ba6c e2ba c6ac 2abc a41c 99bd 79f9 d43d
00000320: 3f9a 6bbd b72e 2fbd b352 f0bd 357e ddbd
00000330: 2f52 49bc d5fc 8ebd bc6b fd3d ca3b 6b3b
00000340: c443 033e e54e 513c 0841 33bd 7b02 15bd
00000350: 966f 153e 3cc5 fbbd 199b e5bd 653b b53d
00000360: e831 17be 148c 403d b8f0 25bd 6fdf e5bd
00000370: 232f 1bbe 170c babd 2100 a1bd ce4d 9b3d
00000380: 206b 8a3d 115f 093e 9cab 0d3e dd7a 003e
00000390: f073 d53d 2b77 05bc cba3 0c3e b3ba 44bd
000003a0: 014f 2a3c d017 17be 892d 943d c887 bf3d
000003b0: 3b18 b4bd 81f0 1b3d 4e34 9c3c 8383 0a3e
000003c0: 7744 05be 4b1d e9bd 3698 10bd eaf6 b23c
000003d0: cbe8 153e c216 b1bd f250 8bbd 0a14 193e
000003e0: e0c2 e9bb 71b4 1cbd 7d9b b0bd 3d66 aeba
000003f0: 33a3 983d e131 d53d 2faa af3a a612 ae3d

evolve.conv_x_r.bias f4 [128]
0.0 0.0 0.0 0.0 0.0 0.0 0.0 0.0
0.0 0.0 0.0 0.0 0.0 0.0 0.0 0.0
0.0 0.0 0.0 0.0 0.0 0.0 0.0 0.0
0.0 0.0 0.0 0.0 0.0 0.0 0.0 0.0
0.0 0.0 0.0 0.0 0.0 0.0 0.0 0.0
0.0 0.0 0.0 0.0 0.0 0.0 0.0 0.0
0.0 0.0 0.0 0.0 0.0 0.0 0.0 0.0
0.0 0.0 0.0 0.0 0.0 0.0 0.0 0.0
0.0 0.0 0.0 0.0 0.0 0.0 0.0 0.0
0.0 0.0 0.0 0.0 0.0 0.0 0.0 0.0
0.0 0.0 0.0 0.0 0.0 0.0 0.0 0.0
0.0 0.0 0.0 0.0 0.0 0.0 0.0 0.0
0.0 0.0 0.0 0.0 0.0 0.0 0.0 0.0
0.0 0.0 0.0 0.0 0.0 0.0 0.0 0.0
0.0 0.0 0.0 0.0 0.0 0.0 0.0 0.0
0.0 0.0 0.0 0.0 0.0 0.0 0.0 0.0
00000000: 0000 0000 0000 0000 0000 0000 0000 0000
00000010: 0000 0000 0000 0000 0000 0000 0000 0000
00000020: 0000 0000 0000 0000 0000 0000 0000 0000
00000030: 0000 0000 0000 0000 0000 0000 0000 0000
00000040: 0000 0000 0000 0000 0000 0000 0000 0000
00000050: 0000 0000 0000 0000 0000 0000 0000 0000
00000060: 0000 0000 0000 0000 0000 0000 0000 0000
00000070: 0000 0000 0000 0000 0000 0000 0000 0000
00000080: 0000 0000 0000 0000 0000 0000 0000 0000
00000090: 0000 0000 0000 0000 0000 0000 0000 0000
000000a0: 0000 0000 0000 0000 0000 0000 0000 0000
000000b0: 0000 0000 0000 0000 0000 0000 0000 0000
000000c0: 0000 0000 0000 0000 0000 0000 0000 0000
000000d0: 0000 0000 0000 0000 0000 0000 0000 0000
000000e0: 0000 0000 0000 0000 0000 0000 0000 0000
000000f0: 0000 0000 0000 0000 0000 0000 0000 0000
00000100: 0000 0000 0000 0000 0000 0000 0000 0000
00000110: 0000 0000 0000 0000 0000 0000 0000 0000
00000120: 0000 0000 0000 0000 0000 0000 0000 0000
00000130: 0000 0000 0000 0000 0000 0000 0000 0000
00000140: 0000 0000 0000 0000 0000 0000 0000 0000
00000150: 0000 0000 0000 0000 0000 0000 0000 0000
00000160: 0000 0000 0000 0000 0000 0000 0000 0000
00000170: 0000 0000 0000 0000 0000 0000 0000 0000
00000180: 0000 0000 0000 0000 0000 0000 0000 0000
00000190: 0000 0000 0000 0000 0000 0000 0000 0000
000001a0: 0000 0000 0000 0000 0000 0000 0000 0000
000001b0: 0000 0000 0000 0000 0000 0000 0000 0000
000001c0: 0000 0000 0000 0000 0000 0000 0000 0000
000001d0: 0000 0000 0000 0000 0000 0000 0000 0000
000001e0: 0000 0000 0000 0000 0000 0000 0000 0000
000001f0: 0000 0000 0000 0000 0000 0000 0000 0000

evolve.conv_x_r.lins.0.weight f4 [128, 128]
0.00231271 -0.039667167 0.027406354 0.06889786 -0.028304314 0.042727675 0.0017671592 -0.06286685
0.12255406 0.096104376 -0.04202439 -0.13328904 0.13312064 0.13803026 -0.00037171846 0.14557399
-0.14231667 0.029456973 -0.13580433 0.02527138 0.02625497 -0.10435173 0.11592264 -0.07099482
0.011314637 0.07970483 0.0047267266 -0.026282072 0.06811584 0.12357903 0.03544721 -0.07160676
-0.06245186 -0.12729639 -0.116230115 0.08694546 0.037816826 0.10100639 0.028673971 -0.116007246
0.07408287 0.041525066 -0.122702554 -0.065324135 0.1502657 0.13183859 0.1255737 -0.032156587
-0.05927214 -0.077335946 0.08672147 0.0017039044 0.04387134 -0.08261253 0.0041722516 0.00062982994
0.06082468 0.13027944 -0.115665056 0.04719153 0.07720612 -0.027649682 0.13988006 -0.01316343
0.10376617 0.06039686 -0.071157865 -0.14262626 -0.08896107 0.11740911 -0.09759269 -0.12794565
0.0462046 0.0308924 0.15167074 0.1283115 0.12528573 0.08343972 0.0870326 -0.09951868
0.08447994 0.10552423 -0.111356385 -0.01486372 -0.018701319 0.12921077 0.11914331 0.08241541
-0.10658883 0.13242744 0.12338469 0.015411717 0.04661229 -0.064754695 -0.12427838 0.10761996
-0.12153663 0.13780048 0.017956678 -0.08854851 0.0021022498 -0.14541702 -0.03791003 -0.123599626
0.09672287 -0.0024501518 -0.047237173 0.08692635 0.0060232338 -0.03915182 -0.12276563 0.07776218
0.030617516 0.1170133 -0.1397533 0.15159436 0.027380785 -0.0052555604 0.11841821 -0.11106066
-0.09488592 0.013562596 -0.01998078 0.121139266 0.03395634 -0.12855761 -0.14601618 -0.12890781
0.13331398 -0.14036125 -0.05498486 -0.009030927 -0.14943121 0.0332317 0.034134243 0.0606839
-0.008833953 -0.044671096 -0.051698487 0.029887931 0.07254135 0.046828553 0.09532436 0.13321689
0.022609528 0.083400466 -0.002707223 0.07398665 -0.006927947 -0.14563447 0.061870888 0.099570505
-0.0015121138 -0.11496219 0.08343638 -0.09346084 -0.11906449 -0.12858833 -0.029435018 -0.05369149
0.15089877 -0.029758193 0.12973626 -0.029162599 -0.08431239 0.0021825137 0.029867437 -0.11639203
-0.045960158 -0.074451245 -0.106635146 -0.13160668 0.031355772 -0.030255908 0.01433505 -0.018881155
0.025124358 0.07128366 -0.03063741 -0.06960184 0.11995766 -0.12987348 -0.027898377 0.022600548
0.09401379 0.0027998607 0.058758236 0.13893051 -0.049180992 -0.12273577 -0.1188958 -0.010245472
0.13849823 0.104852736 -0.03634331 0.08666654 -0.11607844 0.12553477 -0.14879939 -0.025345001
-0.11841827 -0.07319675 -0.06959605 -0.0401007 -0.062122338 0.14846262 -0.07810068 -0.060984805
-0.03385748 0.11453964 0.076650016 0.07526217 -0.031470127 0.10169575 -0.058120303 0.006354455
0.121711284 -0.06997164 0.0360199 0.07344079 0.06021781 -0.11234213 -0.00030667504 -0.0921432
0.13787852 -0.1385928 0.020743836 0.13197565 0.0028205744 -0.0133531755 -0.14491686 0.08182513
0.002500595 0.10305287 -0.111503296 0.015469369 0.07615958 0.13986489 0.106225945 0.048228882
-0.012559259 0.12636697 -0.061814237 0.13940191 -0.07140395 0.0373993 -0.08554693 -0.04489632
0.00066810043 0.07449526 -0.10912025 0.026603566 0.08279543 -0.08862863 -0.08354103 -0.07501283
00000000: d690 173b 0a7a 22bd 4a83 e03c 521a 8d3d
00000010: 73de e7bc 3703 2f3d 06a0 e73a 56c0 80bd
00000020: 9ffd fa3d 5fd2 c43d c421 2cbd ec7c 08be
00000030: c750 083e ce57 0d3e 35e3 c2b9 5911 153e
00000040: 76bb 11be c04f f13c 4a10 0bbe ed05 cf3c
00000050: aa14 d73c 5cb6 d5bd d968 ed3d bb65 91bd
00000060: 0761 393c 493c a33d a8e2 9a3b 804d d7bc
00000070: 5180 8b3d 0117 fd3d 1831 113d 91a6 92bd
00000080: 86cd 7fbd fc59 02be 0e0a eebd 7610 b23d
00000090: d1e5 1a3d 70dc ce3d ade5 ea3c 3595 edbd
000000a0: c2b8 973d 3016 2a3d 7a4b fbbd a9c8 85bd
000000b0: 40df 193e b200 073e 6496 003e a0b6 03bd
000000c0: 58c7 72bd 4f62 9ebd 079b b13d 8b55 df3a
000000d0: 6fb2 333d c230 a9bd 62b7 883b 2c1b 253a
000000e0: 4d23 793d f967 053e cde1 ecbd e84b 413d
000000f0: 3e1e 9e3d 9681 e2bc b83c 0f3e 6dab 57bc
00000100: 5c83 d43d b362 773d 37bb 91bd 9e0c 12be
00000110: 3931 b6bd 3074 f03d adde c7bd 2f04 03be
00000120: 0941 3d3d 0f12 fd3c 934f 1b3e 1764 033e
00000130: e74a 003e 72e2 aa3d 263e b23d 73d0 cbbd
00000140: d203 ad3d 161d d83d d10e e4bd f686 73bc
00000150: 8233 99bc d44f 043e 6801 f43d 69c9 a83d
00000160: 3f4b dabd 0f9b 073e 1db1 fc3d 6d81 7c3c
00000170: 87ec 3e3d 1c9e 84bd aa85 febd db67 dc3d
00000180: 32e8 f8bd 921b 0d3e e219 933c ec58 b5bd
00000190: e6c5 093b 33e8 14be 8c47 1bbd cd21 fdbd
000001a0: a416 c63d ba92 20bb c47b 41bd 7106 b23d
000001b0: 8c5e c53b a95d 20bd 8c6c fbbd c741 9f3d
000001c0: 96d1 fa3c aba4 ef3d 7d1b 0fbe 8d3b 1b3e
000001d0: ab4d e03c d636 acbb 3f85 f23d c573 e3bd
000001e0: 8d53 c2bd a735 5e3c bcae a3bc dd17 f83d
000001f0: ce15 0b3d 9ba4 03be 4485 15be 6900 04be
00000200: 7683 083e dcba 0fbe ce37 61bd 74f6 13bc
00000210: 7f04 19be f71d 083d 59d0 0b3d ae8f 783d
00000220: 49bc 10bc 0af9 36bd cbc1 53bd 89d7 f43c
00000230: 8f90 943d 4ccf 3f3d 6b39 c33d 026a 083e
00000240: 9e37 b93c ddcd aa3d aa6b 31bb 5086 973d
00000250: d503 e3bb 3421 15be 546c 7d3d 9feb cb3d
00000260: 1f32 c6ba 4c71 ebbd b1e0 aa3d 6668 bfbd
00000270: 15d8 f3bd a9ac 03be b521 f1bc 9ceb 5bbd
00000280: 3585 1a3e 74c7 f3bc 95d9 043e 67e6 eebc
00000290: f9ab acbd 8108 0f3b 8eac f43c f25e eebd
000002a0: b840 3cbd e579 98bd 8763 dabd e7c3 06be
000002b0: e96e 003d 3ddb f7bc 8fdd 6a3c a7ac 9abc
000002c0: 99d1 cd3c 2bfd 913d 4efb fabc 698b 8ebd
000002d0: 5dac f53d 8efd 04be 238b e4bc c924 b93c
000002e0: 4d8a c03d de7d 373b 7aac 703d cd43 0e3e
000002f0: 0272 49bd e45c fbbd a47f f3bd a0dc 27bc
00000300: 7bd2 0d3e 08bd d63d b9dc 14bd 3a7e b13d
00000310: 88ba edbd 308c 003e de5e 18be 52a0 cfbc
00000320: 4785 f2bd 2de8 95bd 6088 8ebd a240 24bd
00000330: fe73 7ebd 9606 183e 40f3 9fbd 34cb 79bd
00000340: 24ae 0abd c293 ea3d affa 9c3d 0d23 9a3d
00000350: d2e6 00bd dd45 d03d 8e0f 6ebd 0839 d03b
00000360: c443 f93d 4b4d 8fbd 9a89 133d 2068 963d
00000370: f3a6 763d a113 e6bd 3ac9 a0b9 93b5 bcbd
00000380: 0730 0d3e 45eb 0dbe faee a93c a024 073e
00000390: 63d9 383b 47c7 5abc 1665 14be ef93 a73d
000003a0: 06e1 233b 620d d33d d75b e4bd 3c73 7d3c
000003b0: 8ef9 9b3d be38 0f3e fd8c d93d a68b 453d
000003c0: 5ac5 4dbc 5866 013e ed30 7dbd 60bf 0e3e
000003d0: 3c3c 92bd 0230 193d 3b33 afbd 34e5 37bd
000003e0: 7623 2f3a f990 983d 707a dfbd b9ef d93c
000003f0: a790 a93d ed82 b5bd 8f17 abbd 54a0 99bd
