trained_models/roland_email-eu.pt (torch, 932614 bytes, 16 tensors)

preprocess1.weight f4 [128, 1]
0.24395905 -0.6747057 -0.4260454 0.7868275 -0.94116664 -0.18907467 0.40747505 0.45953113
-0.67557704 -0.015413284 0.14682665 -0.71446145 0.67726475 -0.9058867 -0.006117355 0.23227468
1.0980251 -0.28456947 -0.31922123 0.96663314 0.262106 0.39853856 -0.12922345 -0.061830163
0.54424983 0.6573602 -1.030758 -0.4798615 -0.7772602 0.9529198 -0.9290082 0.82971317
-0.79094636 -0.9052919 1.0555818 1.2217124 -0.62860346 0.76066715 0.22456619 -1.1193464
-0.0766114 0.38718432 -0.7336862 -0.9787352 0.45037702 0.6901678 -0.092742555 -0.37577686
-0.9393884 0.046139836 -0.06723082 -0.149706 0.58628887 0.9116739 0.5851566 0.40554473
0.2505488 -0.98017025 0.88249123 1.0449622 0.7475581 0.6872567 0.43593493 1.03101
-0.951544 0.74311364 0.22954138 0.8715718 0.20923674 -0.9727774 0.044456467 0.21378161
-0.6671588 1.0770657 -0.98695195 -0.080759615 0.41845948 1.0721545 0.8440116 -0.80560166
-0.37237328 -1.0379688 0.5730841 -0.15543331 -1.025658 0.13577104 0.16165654 -0.40823632
-0.8622173 -0.8923912 -0.43336543 -0.7301721 -0.57949746 -1.1528404 1.0049884 -1.0662295
0.4666602 0.75323534 -0.9308238 0.94932514 -0.28725183 -0.4673157 -0.97037303 0.5164707
-0.03410741 1.0536221 0.3146566 0.719215 -0.19839747 -0.7767932 -0.70055276 -0.84869313
-0.7570743 0.2743851 1.044793 -0.36467814 0.24486089 -1.024855 -0.33173558 0.28526378
0.046925426 0.32109028 0.4252036 0.45445558 1.0861676 0.80318147 -0.5177004 0.46604717
00000000: 67d0 793e 83b9 2cbf 9f22 dabe 876d 493f
00000010: 4cf0 70bf ca9c 41be 92a0 d03e aa47 eb3e
00000020: 9ef2 2cbf 0088 7cbc ba59 163e f2e6 36bf
00000030: 3961 2d3f 31e8 67bf 1874 c8bb 6ad9 6d3e
00000040: 168c 8c3f 17b3 91be f770 a3be 4575 773f
00000050: c232 863e 3f0d cc3e 2753 04be a041 7dbd
00000060: f553 0b3f c248 283f e1ef 83bf 68b0 f5be
00000070: 86fa 46bf 8df2 733f 7bd3 6dbf 1568 543f
00000080: 767b 4abf 36c1 67bf 4e1d 873f 1261 9c3f
00000090: 28ec 20bf 15bb 423f aef4 653e be46 8fbf
000000a0: 70e6 9cbd 063d c63e dcd2 3bbf 648e 7abf
000000b0: d197 e63e d6ae 303f cfef bdbd d365 c0be
000000c0: c27b 70bf 20fd 3c3d 50b0 89bd 884c 19be
000000d0: 0717 163f 7663 693f d3cc 153f 8fa3 cf3e
000000e0: ef47 803e 70ec 7abf f2ea 613f 52c1 853f
000000f0: f85f 3f3f 0ef0 2f3f dd32 df3e 23f8 833f
00000100: 6398 73bf b23c 3e3f e50c 6b3e 541f 5f3f
00000110: 2842 563e f107 79bf fc17 363d 91e9 5a3e
00000120: ebca 2abf 4add 893f e2a8 7cbf 4c65 a5bd
00000130: 5240 d63e 5c3c 893f 2511 583f e93b 4ebf
00000140: b6a7 bebe 29dc 84bf a4b5 123f e929 1fbe
00000150: c348 83bf 9007 0b3e 4b89 253e 5a04 d1be
00000160: 46ba 5cbf c073 64bf 13e2 ddbe 8fec 3abf
00000170: f259 14bf 4690 93bf 76a3 803f 357a 88bf
00000180: 16ee ee3e 08d4 403f 784a 6ebf f906 733f
00000190: ac12 93be 0144 efbe 5e6a 78bf 6c37 043f
000001a0: 36b4 0bbd 17dd 863f ab1a a13e 791e 383f
000001b0: b528 4bbe ebdb 46bf 6d57 33bf f443 59bf
000001c0: 9fcf 41bf 347c 8c3e c7bb 853f 18b7 babe
000001d0: d0bc 7a3e 732e 83bf 3fd9 a9be 180e 923e
000001e0: e034 403d f265 a43e 49b4 d93e 67ae e83e
000001f0: 8a07 8b3f 4d9d 4d3f 0388 04bf bc9d ee3e

preprocess1.bias f4 [128]
0.6477673 -0.39396468 -0.27372637 -0.48772007 0.8248579 -0.31386492 0.19571891 -0.18003577
0.47416452 -0.2979908 -0.19151692 -0.028962553 1.0310887 -0.18011855 0.4005664 0.81655574
0.20833594 1.0754939 0.5312054 0.08843523 0.15817523 0.49847847 0.43851724 -0.5373161
-0.85857266 -0.3600361 0.25813264 0.16735765 0.5442804 -0.37178805 0.16447903 0.027166408
-0.70329714 -0.65810686 0.3151974 -0.66692126 0.40160254 -0.059919238 0.37863532 -0.7195058
-0.3896103 0.901863 0.4770202 0.37791696 -0.54811406 -0.8954909 -0.15375309 -0.23429324
-0.5921211 -0.21517742 -0.94634175 -0.7650721 -0.5902066 -0.49992773 -0.29452753 0.20167053
0.8773835 -0.078246206 -0.61392874 1.0014012 0.02724474 0.31985074 0.66649795 0.674852
0.6940786 0.38907817 0.8012308 0.9892548 -0.9587641 -0.40682152 0.54604226 0.7474297
0.70585084 -0.54984885 0.21886757 0.846798 0.35803166 0.3708993 0.031703684 0.32062936
0.81561625 -0.70551544 -0.55182534 0.5131044 -0.65357596 -0.9863609 0.38964793 -0.34126776
0.67003226 0.5323997 -0.04055157 -0.17432418 -0.35307354 -0.6824831 0.72309697 -0.6272628
-0.25014317 -0.4113842 0.6971654 0.7098663 -0.4768489 -0.5239941 0.67247427 0.6403136
0.90097684 0.33620498 -0.41028258 -0.48385173 0.62417626 0.43002072 0.5284505 0.07329831
-0.53102654 -0.94823694 0.036247347 0.57449675 -0.79100513 -0.078368954 -0.012715658 -0.907362
-0.5614829 0.5223161 0.4344665 0.15766768 -0.43129686 -0.43901163 -0.859087 -0.60343283
00000000: 14d4 253f bdb5 c9be dd25 8cbe 72b6 f9be
00000010: e329 533f e7b2 a0be 8a6a 483e 4c5b 38be
00000020: b1c5 f23e 4092 98be 031d 44be e042 edbc
00000030: b7fa 833f ff70 38be 0a17 cd3e cc09 513f
00000040: 0456 553e c9a9 893f 14fd 073f 881d b53d
00000050: b0f8 213e 9238 ff3e 5585 e03e 8c8d 09bf
00000060: 6bcb 5bbf a756 b8be f629 843e ce5f 2b3e
00000070: f655 0b3f 015b bebe 316d 283e 168c de3c
00000080: 480b 34bf b179 28bf 8e61 a13e 5abb 2abf
00000090: d99e cd3e e06d 75bd 7ddc c13e 8831 38bf
000000a0: 007b c7be 7ee0 663f fe3b f43e 557e c13e
000000b0: 3451 0cbf e43e 65bf 7371 1dbe 91ea 6fbe
000000c0: 4095 17bf 7857 5cbe 7443 72bf c4db 43bf
000000d0: c817 17bf 87f6 ffbe 50cc 96be b882 4e3e
000000e0: 349c 603f 8c3f a0bd 6f2a 1dbf ea2d 803f
000000f0: 5c30 df3c 7ac3 a33e 9c9f 2a3f 1ac3 2c3f
00000100: 23af 313f 4135 c73e 761d 4d3f cd3f 7d3f
00000110: 9071 75bf e94a d0be 6dc9 0b3f 8e57 3f3f
00000120: a4b2 343f e5c2 0cbf d21e 603e c1c7 583f
00000130: ed4f b73e 83e6 bd3e b9db 013d 8829 a43e
00000140: 3acc 503f a99c 34bf 6d44 0dbf cf5a 033f
00000150: c150 27bf 2682 7cbf ef7f c73e a6ba aebe
00000160: 3c87 2b3f 594b 083f 6719 26bd 0a82 32be
00000170: 0ec6 b4be 36b7 2ebf e21c 393f 4b94 20bf
00000180: c412 80be f3a0 d2be 6f79 323f ccb9 353f
00000190: 8a25 f4be 7a24 06bf 4627 2c3f 98eb 233f
000001a0: 6ba6 663f 0f23 ac3e 8f10 d2be 6abb f7be
000001b0: 04ca 1f3f ad2b dc3e 8848 073f 6d1d 963d
000001c0: 5bf1 07bf a8bf 72bf 1978 143d 3812 133f
000001d0: 507f 4abf e77f a0bd 5655 50bc e048 68bf
000001e0: 58bd 0fbf 82b6 053f 6572 de3e a373 213e
000001f0: f1d2 dcbe 22c6 e0be 20ed 5bbf 937a 1abf

convs.0.bias f4 [128]
-0.008256695 0.046770778 0.0 0.0 0.004035093 -0.013017941 0.013967336 0.039839443
0.015298829 0.0 -0.046234474 0.0 -0.031720493 0.017887402 -0.006843456 0.0018291438
-0.011488715 0.044610184 0.04236118 0.0 0.032085884 0.046104755 0.060313225 0.04181536
0.0036831896 0.039370358 0.037667572 0.017328374 -0.012137385 -0.0095555475 -0.013946078 0.05465953
0.041710306 0.016556771 0.012200435 -0.0014541794 0.006359282 0.010144812 0.050710533 -0.010606571
-0.0060045854 0.03766355 0.03510959 0.06741012 -0.016187996 0.0054407893 0.047927435 0.014309726
0.03895221 0.02587899 0.010692087 0.0 0.06885137 0.0115554 0.0 -0.009844186
-0.013650144 0.015994044 0.11716276 -0.04011703 0.060479667 0.15119824 0.0 -0.00050409173
0.0 0.0021950419 -0.018091224 -0.009602755 0.0 -0.012427247 0.009266461 0.022359809
-0.02158451 0.0060127475 0.0021095139 0.0 -0.03221156 0.00089125306 0.0 0.009947438
-0.011647832 -0.0056099487 0.11340045 0.0 -0.007180972 0.036206502 0.048516385 -0.0053947205
0.0013640615 0.0 -0.009444146 0.05501936 -0.00419035 -0.009966384 -0.009808234 -0.018575076
-0.038803365 0.09163071 0.0073853387 0.03761026 0.016368426 0.0 0.009677625 -0.0150748445
-0.005211032 0.0391416 -0.0072138663 -0.011183148 0.028100712 0.11270392 0.0128759835 0.02570772
0.03501963 0.031291153 0.031706974 0.031196428 0.049086247 0.029105302 -0.009685166 -0.0027537376
0.044188667 0.02724562 0.0 0.029720392 0.011155314 0.14775892 0.0 -0.046379324
00000000: 1747 07bc b792 3f3d 0000 0000 0000 0000
00000010: d038 843b 3449 55bc 41d7 643c af2e 233d
00000020: f1a7 7a3c 0000 0000 5c60 3dbd 0000 0000
00000030: 59ed 01bd 9a88 923c 123f e0bb e2bf ef3a
00000040: 2a3b 3cbc 2bb9 363d eb82 2d3d 0000 0000
00000050: 7d6c 033d 57d8 3c3d 000b 773d 9546 2b3d
00000060: ab61 713b d042 213d 5049 1a3d 3cf4 8d3c
00000070: e2db 46bc df8e 1cbc 177e 64bc ace2 5f3d
00000080: 6dd8 2a3d 11a2 873c 55e4 473c 2a9a beba
00000090: 8661 d03b 6d36 263c d9b5 4f3d 2fc7 2dbc
000000a0: 1dc2 c4bb 1845 1a3d 13cf 0f3d 510e 8a3d
000000b0: b09c 84bc a648 b23b 8f4f 443d 5773 6a3c
000000c0: 5a8c 1f3d 2d00 d43c dd2d 2f3c 0000 0000
000000d0: f201 8d3d dc52 3d3c 0000 0000 8249 21bc
000000e0: dba4 5fbc f105 833c 07f3 ef3d c151 24bd
000000f0: 87b9 773d b6d3 1a3e 0000 0000 0625 04ba
00000100: 0000 0000 b1da 0f3b 0c34 94bc e054 1dbc
00000110: 0000 0000 a79b 4bbc 5bd2 173c eb2b b73c
00000120: 00d2 b0bc 9506 c53b c53f 0a3b 0000 0000
00000130: 45f0 03bd fba2 693a 0000 0000 94fa 223c
00000140: 8cd6 3ebc a9d3 b7bb 7f3e e83d 0000 0000
00000150: 5c4e ebbb 454d 143d 1eb9 463d 32c6 b0bb
00000160: 4fca b23a 0000 0000 9fbb 1abc fb5b 613d
00000170: 344f 89bb 0b4a 23bc b7b2 20bc c22a 98bc
00000180: 47f0 1ebd e2a8 bb3d b600 f23b 370d 1a3d
00000190: 1417 863c 0000 0000 e78e 1e3c 7bfc 76bc
000001a0: 4ec1 aabb f152 203d 4c62 ecbb 8639 37bc
000001b0: 7733 e63c 50d1 e63d caf5 523c ff98 d23c
000001c0: be70 0f3d 272b 003d 2cdf 013d a78f ff3c
000001d0: a90e 493d 3e6e ee3c 88ae 1ebc 0d78 34bb
000001e0: 2dff 343d 3532 df3c 0000 0000 2e78 f33c
000001f0: c7c4 363c 1d4e 173e 0000 0000 3ff8 3dbd

convs.0.lin.weight f4 [128, 128]
-0.018958416 0.010025352 0.06648468 -0.08684038 0.1374895 0.002122066 0.099958844 -0.094160765
-0.13899599 0.02281966 -0.115327425 0.13348629 0.074246176 0.004057192 -0.056255598 -0.11417575
-0.12154871 0.036732905 -0.1048028 -0.117286615 -0.024273459 -0.0703492 -0.08076229 0.104680814
0.16854951 -0.12384283 0.13012551 -0.13495588 -0.098860934 0.07047062 -0.0405087 -0.0061411667
0.124520764 -0.08275836 0.12604925 0.054814424 0.14612977 -0.18278913 0.043164458 0.055321865
0.10560263 0.03620988 0.14237413 -0.00936853 -0.19753332 -0.07357476 -0.09821985 -0.038644683
-0.016144352 -0.061227534 0.0018160696 -0.05453534 -0.008872136 0.14545134 -0.11931281 0.049041707
0.13667305 -0.0043770517 -0.06851105 -0.019360628 0.0661511 -0.15412232 -0.009213484 0.0015903335
-0.06781444 0.13623948 -0.091060735 0.13538656 0.039272107 -0.1133683 0.021747764 0.038728293
-0.10352016 -0.051851925 0.08661819 -0.008008997 -0.12605488 -0.12595013 -0.04941226 -0.07644039
0.11664122 0.1335604 -0.08764072 -0.018769702 -0.036605854 -0.13200676 -0.13406774 -0.09230037
0.05081526 0.028611084 -0.112302504 0.14280806 -0.014442781 0.069661096 0.019564558 0.052793633
-0.10984252 0.07168019 0.062571004 -0.12113789 -0.11147235 0.062490188 0.08727994 -0.035566103
0.052441124 -0.0039319913 -0.3204894 0.08420097 0.04855091 -0.12659259 -0.055115126 -0.028960623
-0.0698114 -0.048394322 0.10113039 0.1445024 0.0737156 0.08884878 0.09206137 0.120177634
0.058127075 0.14641601 -0.061951883 -0.046744667 0.066681474 0.11191496 -0.03820986 -0.066528134
-0.014513102 -0.1319868 0.07141329 -0.027353397 -0.0618964 0.23120716 -0.04543603 -0.046777874
-0.05731478 0.11499465 -0.03168792 0.1229088 0.20316462 -0.013909915 0.15827109 0.036981355
0.111380644 -0.06355769 0.041243065 -0.07450555 -0.08887051 -0.04121358 0.1881607 0.12297255
-0.24173126 0.085330024 0.0970703 -0.14459737 -0.036087994 -0.017812464 0.054865144 0.08728791
-0.108273044 0.03283443 -0.07139109 -0.14312242 -0.04787665 -0.12192693 0.121158436 -0.07189904
-0.08966467 0.09935954 -0.13792875 -0.036084052 -0.25312948 -0.21425013 0.3240899 -0.06343223
-0.0020214238 -0.10468578 0.06338132 0.02605579 -0.10703054 -0.06852069 0.09867513 -0.013692617
-0.0048808185 0.062486853 -0.05010566 0.20094977 0.011137114 0.0026781505 0.15308341 0.13103046
0.14448 0.12212591 0.00027799112 0.057027858 0.019037595 -0.15179946 0.13054053 -0.09808935
-0.09316215 -0.12712477 0.11384039 -0.04555777 -0.06942255 -0.048237603 -0.13134556 -0.034847923
0.0063376664 -0.1366256 0.07111622 0.13128704 0.08762355 -0.090889275 -0.011040128 0.088197835
0.1402839 0.00893133 0.049416464 0.00089939014 0.008924832 0.05080264 0.07684198 0.07653899
-0.17048004 0.057190705 0.14885046 0.109429695 0.2968179 -0.12847331 -0.09029048 0.15070796
0.16550656 0.054218046 -0.097915076 0.07473807 -0.036298785 0.15474594 -0.009689998 0.103202365
-0.1757755 0.018715864 -0.12345008 -0.09985894 -0.078256845 -0.17419057 -0.10669407 0.11672544
-0.08394886 0.17756541 0.18888192 0.14900115 0.016156584 0.08354374 0.41246435 -0.2993366
00000000: ae4e 9bbc 6041 243c 1f29 883d 5fd9 b1bd
00000010: 0cca 0c3e 5c12 0b3b 39b7 cc3d 5cd7 c0bd
00000020: f754 0ebe 4cf0 ba3c c930 ecbd a1b0 083e
00000030: 610e 983d 31f2 843b 456c 66bd fad4 e9bd
00000040: 88ee f8bd 3e75 163d daa2 d6bd f733 f0bd
00000050: 22d9 c6bc 3e13 90bd b366 a5bd e562 d63d
00000060: 3e98 2c3e 4fa1 fdbd 9f3f 053e e031 0abe
00000070: 9a77 cabd e752 903d 73ec 25bd d73b c9bb
00000080: be04 ff3d 377d a9bd 0e13 013e 1785 603d
00000090: 0ba3 153e 132d 3bbe 37cd 303d 2e99 623d
000000a0: 3146 d83d d050 143d 86ca 113e 767e 19bc
000000b0: 2d46 4abe 5dae 96bd 7d27 c9bd e349 1ebd
000000c0: 2941 84bc b9c9 7abd 2f09 ee3a 7360 5fbd
000000d0: 6f5c 11bc 32f1 143e 465a f4bd f5df 483d
000000e0: 05f4 0b3e 5f6d 8fbb 854f 8cbd 2e9a 9ebc
000000f0: 3a7a 873d 3ed2 1dbe 27f4 16bc bd72 d03a
00000100: 4ce2 8abd 5d82 0b3e 0d7e babd c6a2 0a3e
00000110: cadb 203d a42d e8bd 5e28 b23c 8fa1 1e3d
00000120: 6102 d4bd af62 54bd e164 b13d 2b38 03bc
00000130: 8814 01be 12f9 00be 8364 4abd c78c 9cbd
00000140: 98e1 ee3d 0fc4 083e fa7c b3bd ebc2 99bc
00000150: 05f0 15bd c82c 07be 0e49 09be fa07 bdbd
00000160: a923 503d cb61 ea3c dbfe e5bd 473c 123e
00000170: 6aa1 6cbc 7aaa 8e3d da45 a03c 233e 583d
00000180: 1df5 e0bd 10cd 923d 3a25 803d 2417 f8bd
00000190: 9e4b e4bd b6f5 7f3d d3bf b23d c3ad 11bd
000001a0: 81cc 563d efd7 80bb 3017 a4be 8f71 ac3d
000001b0: 52dd 463d 7da1 01be 66c0 61bd d43e edbc
000001c0: 47f9 8ebd 2039 46bd 731d cf3d 70f8 133e
000001d0: 34f8 963d 59f6 b53d ac8a bc3d b11f f63d
000001e0: a816 6e3d 14ee 153e 42c1 7dbd 5677 3fbd
000001f0: 4c90 883d ac33 e53d f181 1cbd e73f 88bd
00000200: 5dc8 6dbc 8c27 07be 2241 923d 3b14 e0bc
00000210: 1487 7dbd 92c1 6c3e 211b 3abd 289a 3fbd
00000220: e7c2 6abd 5182 eb3d 31cb 01bd 9cb7 fb3d
00000230: 630a 503e 6ae6 63bc d111 223e c379 173d
00000240: 891b e43d 892a 82bd 7dee 283d 5e96 98bd
00000250: be01 b6bd 92cf 28bd 33ad 403e 08d9 fb3d
00000260: 6688 77be 82c1 ae3d cbcc c63d 5511 14be
00000270: 01d1 13bd 72eb 91bc 46ba 603d 01c4 b23d
00000280: 42be ddbd 657d 063d 7e35 92bd af8e 12be
00000290: 4e1a 44bd d4b4 f9bd ea21 f83d ce3f 93bd
000002a0: 1ca2 b7bd 047d cb3d 323d 0dbe dfcc 13bd
000002b0: 309a 81be 6364 5bbe 1def a53e c2e8 81bd
000002c0: dd79 04bb 8065 d6bd 11ce 813d f472 d53c
000002d0: d432 dbbd 9354 8cbd 3016 ca3d 0057 60bc
000002e0: 46ef 9fbb 37f2 7f3d 983b 4dbd c7c5 4d3e
000002f0: 7178 363c e983 2f3b e6c1 1c3e d92c 063e
00000300: 91f2 133e 261d fa3d 56bf 9139 0b96 693d
00000310: bbf4 9b3c 5171 1bbe 6bac 053e 12e3 c8bd
00000320: cccb bebd ff2c 02be 2725 e93d c99a 3abd
00000330: 692d 8ebd cb94 45bd 737f 06be b2bc 0ebd
00000340: 33ac cf3b 95e7 0bbe 61a5 913d 1c70 063e
00000350: fa73 b33d 2824 babd a7e1 34bc 11a1 b43d
00000360: 95a6 0f3e b754 123c eb68 4a3d 0dc5 6b3a
00000370: 7539 123c 6e16 503d 545f 9d3d 79c0 9c3d
00000380: 5292 2ebe cd40 6a3d 416c 183e ad1c e03d
00000390: 84f8 973e 828e 03be 37ea b8bd 3053 1a3e
000003a0: 8d7a 293e be13 5e3d b387 c8bd 4610 993d
000003b0: 09ae 14bd b875 1e3e ccc2 1ebc c35b d33d
000003c0: 7efe 33be 0352 993c 65d3 fcbd d882 ccbd
000003d0: 2045 a0bd 035f 32be 6c82 dabd bf0d ef3d
000003e0: 61ed abbd b5d3 353e 436a 413e c293 183e
000003f0: d05a 843c fb18 ab3d 872e d33e a642 99be

convs.1.bias f4 [128]
-0.007853533 0.0 -0.04532957 0.0 0.086208515 -0.043637753 0.120829396 -0.07144937
-0.065352455 0.0 -0.08945082 -0.11039636 0.16130552 -0.0227572 -0.09106839 -0.010592747
-0.014710533 -0.07162115 0.08131943 -0.003967653 -0.044179596 -0.06601827 -0.11146411 -0.06201391
0.0 0.06623355 0.087760225 -0.018644849 0.0906695 -0.016984206 -0.014252735 -0.061500322
0.08896333 0.08192213 0.0 0.0 0.08876114 0.0 -0.03962727 -0.01149174
0.08659526 -0.027525624 -0.090387315 0.0 -0.107715786 -0.1715687 -0.111187175 0.0
-0.048910007 -0.02967077 -0.0060101743 0.17610231 -0.0031882045 0.0 -0.06849583 0.0
0.079362385 -0.09208251 0.0 -0.0030063828 0.018167032 -0.008030131 0.19139732 -0.01966021
0.18205678 -0.00200612 0.08398714 -0.024515867 -0.021136196 -0.00989335 -0.009017187 0.07993029
-0.022165278 -0.03512934 -0.12724532 0.0 -0.050839745 -0.0011979487 -0.013098458 -0.096462086
0.15506172 0.0 -0.044788323 -0.03707564 -0.008121654 -0.052724015 0.08025699 0.0
-0.01521993 -0.020106219 0.06196163 -0.03612599 -0.05149429 0.13793269 -0.027495367 -0.045166463
-0.07238659 0.11789115 -0.11432675 0.0 -0.03638609 -0.048795674 -0.0699414 -0.03255456
-0.06599843 -0.01775102 -0.07814758 -0.020754041 0.0 -0.017403193 -0.057628885 0.05967942
-0.058306843 -0.0019568806 -0.005997802 0.08537617 -0.10257655 0.0 -0.010678693 0.08639536
-0.10092723 -0.10960805 -0.08592849 -0.10809117 -0.10398185 0.07580144 -0.08585349 -0.09634496
00000000: 1bac 00bc 0000 0000 80ab 39bd 0000 0000
00000010: 178e b03d 80bd 32bd 6775 f73d 0c54 92bd
00000020: 82d7 85bd 0000 0000 fe31 b7bd 7d17 e2bd
00000030: 462d 253e 4f6d babc 1082 babd 338d 2dbc
00000040: 7304 71bc 1cae 92bd cd8a a63d 1603 82bb
00000050: aaf5 34bd 9634 87bd 4c47 e4bd 4c02 7ebd
00000060: 0000 0000 75a5 873d a2bb b33d 15bd 98bc
00000070: eeb0 b93d 7622 8bbc 4e84 69bc c3e7 7bbd
00000080: 6832 b63d cac6 a73d 0000 0000 0000 0000
00000090: 67c8 b53d 0000 0000 3450 22bd da47 3cbc
000000a0: db58 b13d 6b7d e1bc fc1c b9bd 0000 0000
000000b0: 189a dcbd b5af 2fbe 1ab6 e3bd 0000 0000
000000c0: dc55 48bd 1d10 f3bc fff0 c4bb 2a54 343e
000000d0: 32f1 50bb 0000 0000 8b47 8cbd 0000 0000
000000e0: bf88 a23d c195 bcbd 0000 0000 bc06 45bb
000000f0: 07d3 943c d090 03bc a9fd 433e 730e a1bc
00000100: 186d 3a3e 1c79 03bb 7301 ac3d 80d5 c8bc
00000110: d125 adbc b817 22bc d3bc 13bc 7eb2 a33d
00000120: f593 b5bc c8e3 0fbd 994c 02be 0000 0000
00000130: 563d 50bd 7d04 9dba ea9a 56bc ea8d c5bd
00000140: 80c8 1e3e 0000 0000 f673 37bd a0dc 17bd
00000150: b010 05bc 23f5 57bd c75d a43d 0000 0000
00000160: 035d 79bc ccb5 a4bc 7acb 7d3d d9f8 13bd
00000170: adeb 52bd 3a3e 0d3e f73d e1bc 7800 39bd
00000180: 6c3f 94bd ea70 f13d 2524 eabd 0000 0000
00000190: 9509 15bd f9dd 47bd 703d 8fbd ee57 05bd
000001a0: 2f2a 87bd 966a 91bc d70b a0bd 6104 aabc
000001b0: 0000 0000 2491 8ebc 440c 6cbd 6872 743d
000001c0: 28d3 6ebd 023f 00bb 3689 c4bb b4d9 ae3d
000001d0: a713 d2bd 0000 0000 aff5 2ebc 0df0 b03d
000001e0: f0b2 cebd 2f7a e0bd 47fb afbd e75e ddbd
000001f0: 70f4 d4bd c93d 9b3d f4d3 afbd 8250 c5bd

convs.1.lin.weight f4 [128, 128]
0.11484234 -0.14378147 0.017108265 -0.077628754 -0.026977144 0.007737255 -0.12863421 -0.090803094
0.0026750688 0.103070386 0.09682782 -0.025181243 0.13877012 -0.036574364 0.038098436 -0.04507576
0.107402824 -0.026569488 -0.059497397 0.05501145 -0.009407726 -0.0016838553 0.08504782 -0.08023974
0.080471344 0.014180881 -0.14542045 -0.112830475 0.07209295 -0.13854586 -0.11011863 0.10969375
-0.06356146 0.08310348 -0.0027321093 -0.003961224 0.07056923 -0.097831726 0.10208993 -0.010426478
0.048073217 0.08949854 0.10918062 -0.13960461 0.05340696 -0.1450539 0.01838492 -0.115786344
-0.107071735 -0.0683284 0.046683386 0.06443446 -0.15631151 -0.1424226 0.13336554 0.061739452
-0.135494 0.014961267 -0.05006599 0.11362111 -0.0023449943 -0.14439552 0.069473594 0.08656411
-0.07183171 -0.07036699 -0.015588407 0.026934715 0.12042653 0.07097965 0.13141082 -0.11946341
0.017711613 -0.055847194 0.112659566 0.03603178 0.12446569 0.031882938 -0.065863974 0.015070921
-0.091972776 0.005244357 0.0986187 0.022713682 -0.030853795 -0.15362424 0.12952861 0.11583216
-0.14714159 -0.04423552 -0.011118764 0.10080163 0.015445245 -0.01785988 0.0976306 0.013890111
-0.09590974 -0.10384894 -0.10457411 -0.13378093 -0.13784431 0.074761294 -0.12936388 0.080192454
-0.07598982 -0.10917384 0.1293742 0.105636336 -0.15114367 0.050918613 0.13209386 -0.082300216
0.102344714 0.037118733 0.13800618 0.12549229 -0.15388714 -0.11120472 0.07116583 -0.09618805
-0.10957098 0.04589941 0.051581066 0.12325192 -0.14502834 0.116046265 -0.10089231 0.14296906
0.080770805 -0.029500354 -0.13799502 0.06821262 0.024333088 -0.07487404 0.048755564 -0.0020008339
0.11339675 -0.14780284 -0.072404146 0.12176424 0.08895095 -0.026271379 -0.10047939 -0.052038014
-0.067805186 0.08599368 0.094555214 -0.11161763 -0.06389099 0.08795779 0.021257687 -0.04386988
-0.100907564 -0.0031094556 0.09873279 -0.08332011 0.06709002 -0.067706056 0.07194291 0.03937484
-0.13923822 0.083987184 0.11314365 -0.00084222486 -0.05912647 -0.13530445 -0.15107545 0.10306501
-0.023745032 0.053209286 -0.0018785215 0.12857372 -0.022657873 -0.08781577 -0.012052033 0.10095584
-0.15151432 0.030822374 0.02586794 0.13865292 0.0756456 0.10529776 0.029491302 -0.13711698
-0.056079082 0.062624305 0.08544802 0.018348161 0.00501778 -0.026451325 0.119413175 -0.102253586
0.031536464 -0.12739947 -0.086889975 0.11800702 0.14281519 0.10841972 0.008347588 -0.108634666
-0.12497608 -0.11626273 -0.021915402 -0.0019148027 0.04993642 0.021917118 0.06951201 0.10302292
-0.07442366 -0.10146777 -0.12555142 -0.085904986 0.085238285 -0.124687366 -0.07824793 0.088495605
0.14009678 0.093468346 0.114104375 -0.09329953 -0.13040383 0.07160296 -0.07053557 -0.1092361
-0.082241654 -0.14379755 0.06680957 0.006991731 0.08201574 0.117947616 -0.08749871 -0.13780402
0.01522938 0.13334827 -0.05319142 -0.028829351 -0.029515574 -0.10508402 -0.10330801 -0.07191937
0.03502432 -0.024428261 -0.12039169 0.116152056 -0.028959677 -0.06265183 -0.09692342 -0.0143317655
-0.08819421 -0.14896773 -0.15213872 -0.04327372 -0.06753768 -0.06708334 -0.043635674 0.09502278
00000000: 7632 eb3d 733b 13be a226 8c3c d3fb 9ebd
00000010: 2cff dcbc cd88 fd3b b0b8 03be f9f6 b9bd
00000020: 3550 2f3b 9116 d33d aa4d c63d e548 cebc
00000030: c119 0e3e 00cf 15bd 1b0d 1c3d 5ca1 38bd
00000040: 03f6 db3d 41a8 d9bc 8bb3 73bd b053 613d
00000050: dd22 1abc cfb4 dcba 8d2d ae3d bc54 a4bd
00000060: 29ce a43d ed56 683c 19e9 14be aa13 e7bd
00000070: 78a5 933d f7de 0dbe e085 e1bd 1ea7 e03d
00000080: 832c 82bd 2832 aa3d 300d 33bb 28cd 81bb
00000090: 9a86 903d 005c c8bd 8614 d13d d2d3 2abc
000000a0: 6ce8 443d 034b b73d 179a df3d 83f4 0ebe
000000b0: 42c1 5a3d 0289 14be f99b 963c 6421 edbd
000000c0: 6d48 dbbd c3ef 8bbd 1437 3f3d 37f6 833d
000000d0: 2010 20be 3bd7 11be fa90 083e 82e2 7c3d
000000e0: f0be 0abe 1a20 753c ff11 4dbd 2fb2 e83d
000000f0: 7aae 19bb 6bdc 13be 2c48 8e3d 8648 b13d
00000100: 811c 93bd 921c 90bd 8566 7fbc 31a6 dc3c
00000110: 2fa2 f63d c75d 913d 8f90 063e 3ba9 f4bd
00000120: f217 913c 07c0 64bd 0fba e63d 0f96 133d
00000130: dee7 fe3d af97 023d b1e3 86bd 06ec 763c
00000140: 395c bcbd dbd8 ab3b 9af8 c93d 0b12 ba3c
00000150: 19c1 fcbc ac4f 1dbe 26a3 043e 6939 ed3d
00000160: 49ac 16be 4e30 35bd 7a2b 36bc 1671 ce3d
00000170: 0e0e 7d3c e24e 92bc 8df2 c73d 5993 633c
00000180: 536c c4bd c1ae d4bd f32a d6bd defd 08be
00000190: 0f27 0dbe 731c 993d f777 04be f13b a43d
000001a0: 8da0 9bbd 8996 dfbd ac7a 043e dd57 d83d
000001b0: 68c5 1abe 0990 503d 9d43 073e 048d a8bd
000001c0: 1b9a d13d d009 183d 7e51 0d3e 0d81 003e
000001d0: 9794 1dbe 4dbf e3bd 64bf 913d 3efe c4bd
000001e0: c066 e0bd 0501 3c3d ab46 533d 816b fc3d
000001f0: 4f82 14be aaa9 ed3d a1a0 cebd 7b66 123e
00000200: 2a6b a53d baaa f1bc 914e 0dbe 0fb3 8b3d
00000210: 2f56 c73c 9057 99bd eab3 473d 6c20 03bb
00000220: 8e3c e83d a159 17be a048 94bd 885f f93d
00000230: ea2b b63d 1337 d7bc 23c8 cdbd d025 55bd
00000240: 72dd 8abd 741d b03d 2aa6 c13d c997 e4bd
00000250: 48d9 82bd 3723 b43d 9a24 ae3c e7b0 33bd
00000260: a0a8 cebd 02c8 4bbb 6b34 ca3d bca3 aabd
00000270: 7e66 893d 79a9 8abd ce56 933d 8347 213d
00000280: 7794 0ebe 7901 ac3d dcb7 e73d c1c8 5cba
00000290: 992e 72bd 408d 0abe 86b3 1abe bf13 d33d
000002a0: f184 c2bc fbf1 593d b938 f6ba d4a8 033e
000002b0: 019d b9bc c1d8 b3bd e475 45bc efc1 ce3d
000002c0: 9226 1bbe 347f fc3c 01e9 d33c 08fb 0d3e
000002d0: 15ec 9a3d 5aa6 d73d be97 f13c 6568 0cbe
000002e0: 2eb3 65bd 2c41 803d 5fff ae3d e24e 963c
000002f0: 306c a43b 73b0 d8bc e58e f43d 546a d1bd
00000300: 612c 013d 0275 02be 5ff3 b1bd aaad f13d
00000310: 253e 123e 280b de3d 52c4 083c da7b debd
00000320: 76f3 ffbd 271b eebd ee87 b3bc 1efa faba
00000330: 228a 4c3d 878b b33c 505c 8e3d aefd d23d
00000340: 6f6b 98bd 56ce cfbd 8d90 00be f4ee afbd
00000350: 6991 ae3d 175c ffbd 7340 a0bd 2f3d b53d
00000360: 8875 0f3e 556c bf3d 8eaf e93d d313 bfbd
00000370: 9588 05be 93a4 923d f474 90bd 2db7 dfbd
00000380: 506e a8bd aa3f 13be 75d3 883d e41a e53b
00000390: def7 a73d 858e f13d 8632 b3bd 7f1c 0dbe
000003a0: a684 793c 738c 083e 3fdf 59bd 882b ecbc
000003b0: a5ca f1bc 4a36 d7bd 2693 d3bd 764a 93bd
000003c0: a975 0f3d c71d c8bc eb8f f6bd 21e1 ed3d
000003d0: d83c edbc 9a4f 80bd c97f c6bd c8cf 6abc
000003e0: 2a9f b4bd ff8a 18be 41ca 1bbe c93f 31bd
000003f0: 3251 8abd fd62 89bd 52bb 32bd 4e9b c23d

postprocess1.weight f4 [2, 128]
0.5443067 13.053179 -14.441638 2.082334 -0.23632188 0.31026936 -5.9029703 -2.553686
-7.880604 9.2479315 19.07529 -6.3773723 2.1554213 -14.016221 3.1217527 2.082911
14.135405 6.2009335 1.9025233 14.406222 6.104738 -13.794344 66.60303 32.74821
-3.1325085 -1.5795904 19.175098 6.665259 2.0523167 6.761152 19.303474 37.015984
-3.1393018 -3.1156907 -8.762423 7.0949483 -12.454877 13.954128 -8.609457 -0.91331214
0.2188466 22.18435 -29.209015 1.3393272 9.5708475 8.519626 -10.818098 7.5142145
4.048052 2.6308928 4.7412667 3.5350137 -2.6251905 12.850805 13.874913 -3.0373335
-3.3022373 -1.5993387 7.586569 -9.2046385 -10.855923 9.613675 -4.087781 -2.477887
0.8767421 -23.349596 14.44809 10.355355 39.660873 -4.6615596 -0.18941103 -0.49172023
-0.8530381 5.276416 1.3973793 4.7020683 -12.236671 18.26193 -7.3301353 7.0982165
0.0017255178 6.703051 -1.4913342 21.91741 1.4339422 33.53298 4.2266135 7.3728223
-2.2843988 10.387562 -6.851113 43.660873 -9.517873 -5.049437 -2.4372842 -0.2617394
13.064994 -18.083729 10.394099 10.274963 -4.1636767 2.893063 2.4822721 7.045166
-0.9277808 6.301729 1.4771798 -1.1241382 -3.2015736 14.086407 -1.0564618 -47.517998
-8.307827 -1.3834786 7.321918 -0.41710508 4.305683 5.6867604 23.188553 0.87840325
3.8824735 68.724335 17.18741 1.1298884 3.3705368 6.4667177 -42.561367 25.168257
0.5338212 13.063709 -14.471842 1.9819124 -0.1209222 0.3718556 -6.01816 -2.5247653
-7.8258066 9.36513 19.03747 -6.508073 2.063692 -13.931627 3.1071002 2.0452845
13.997133 6.2018137 1.9865843 14.501584 6.1222677 -13.712758 66.57482 32.752148
-3.1445749 -1.5583124 19.092344 6.6879783 1.9684297 6.7505107 19.213928 37.005787
-3.1342106 -3.1334207 -8.803568 7.0499597 -12.607017 13.984014 -8.606361 -0.9374219
0.19877388 22.219862 -29.331942 1.3497461 9.558341 8.54992 -10.958224 7.6779885
3.956432 2.6129637 4.6466575 3.6255124 -2.6510797 12.961807 13.90053 -3.1797552
-3.2272878 -1.6307621 7.6521163 -9.118101 -10.745341 9.549457 -4.056284 -2.4178932
0.91018623 -23.42543 14.479797 10.189527 39.77945 -4.6359234 -0.22923626 -0.414196
-0.8603809 5.3182096 1.3512082 4.708965 -12.167337 18.10016 -7.2973056 6.995509
0.00025804713 6.589663 -1.5328957 21.891972 1.4548317 33.567234 4.358948 7.353907
-2.4185085 10.264388 -6.7728777 43.637474 -9.672438 -5.016158 -2.4301221 -0.2578097
13.009025 -18.030714 10.387293 10.290011 -4.144622 2.991082 2.5702863 7.052014
-0.7994724 6.3706846 1.4744067 -1.1206777 -3.2123518 14.079972 -1.001889 -47.485832
-8.354912 -1.4240675 7.3857937 -0.31952244 4.3939056 5.581159 23.171629 0.8552174
3.9862945 68.75645 17.185343 1.0585191 3.3615391 6.3916917 -42.47592 25.135365
00000000: af57 0b3f d2d9 5041 f310 67c1 f644 0540
00000010: 5dfe 71be a0db 9e3e 22e5 bcc0 976f 23c0
00000020: e82d fcc0 87f7 1341 329a 9841 6f13 ccc0
00000030: 6cf2 0940 7142 60c1 ccca 4740 6a4e 0540
00000040: 9e2a 6241 0c6e c640 e285 f33f e37f 6641
00000050: 045a c340 a2b5 5cc1 c034 8542 2bfe 0242
00000060: 057b 48c0 0530 cabf 9a66 9941 cd49 d540
00000070: 2859 0340 5b5b d840 846d 9a41 5e10 1442
00000080: 52ea 48c0 7a67 47c0 e232 0cc1 d109 e340
00000090: 2d47 47c1 1c44 5f41 56c0 09c1 d3ce 69bf
000000a0: 5319 603e 8c79 b141 10ac e9c1 136f ab3f
000000b0: 3122 1941 6350 0841 ee16 2dc1 7274 f040
000000c0: a489 8140 8c60 2840 75b8 9740 aa3d 6240
000000d0: 1f03 28c0 e69c 4d41 a5ff 5d41 ac63 42c0
000000e0: db57 53c0 21b7 ccbf 2cc5 f240 3346 13c1
000000f0: dcb1 2dc1 9dd1 1941 1acf 82c0 b395 1ec0
00000100: 2c72 603f f9cb bac1 602b 6741 89af 2541
00000110: bca4 1e42 7f2b 95c0 f7f4 41be c1c2 fbbe
00000120: b460 5abf 66d8 a840 53dd b23f 5877 9640
00000130: 68c9 43c1 6f18 9241 7890 eac0 9724 e340
00000140: c52a e23a 657f d640 0ae4 bebf db56 af41
00000150: 6b8b b73f c621 0642 6b40 8740 29ee eb40
00000160: 9733 12c0 7433 2641 513c dbc0 bca4 2e42
00000170: 3549 18c1 fd94 a1c0 77fc 1bc0 b502 86be
00000180: 370a 5141 7aab 90c1 3b4e 2641 4066 2441
00000190: d73c 85c0 f227 3940 8cdd 1e40 0072 e140
000001a0: 0b83 6dbf c4a7 c940 3a14 bd3f c3e3 8fbf
000001b0: 95e6 4cc0 ec61 6141 243a 87bf 6e12 3ec2
000001c0: dcec 04c1 d415 b1bf 274d ea40 cc8e d5be
000001d0: 28c8 8940 f1f9 b540 2882 b941 09df 603f
000001e0: 727a 7840 dc72 8942 d17f 8941 2fa0 903f
000001f0: e0b6 5740 5aef ce40 d73e 2ac2 9758 c941
00000200: 82a8 083f f404 5141 aa8c 67c1 4eaf fd3f
00000210: 0fa6 f7bd db63 be3e c494 c0c0 c195 21c0
00000220: 026d fac0 93d7 1541 bd4c 9841 2242 d0c0
00000230: 8813 0440 f2e7 5ec1 bbda 4640 f1e5 0240
00000240: 42f4 5f41 4275 c640 6548 fe3f 7d06 6841
00000250: 9ee9 c340 7567 5bc1 4f26 8542 3302 0342
00000260: b740 49c0 c876 c7bf 1fbd 9841 eb03 d640
00000270: 81f5 fb3f 2f04 d840 20b6 9941 ed05 1442
00000280: e896 48c0 f789 48c0 6adb 0cc1 4599 e140
00000290: 57b6 49c1 85be 5f41 a8b3 09c1 e2fa 6fbf
000002a0: 618b 4b3e 47c2 b141 d1a7 eac1 7bc4 ac3f
000002b0: f7ee 1841 79cc 0841 e354 2fc1 15b2 f540
000002c0: 2f36 7d40 cc3a 2740 6bb1 9440 6508 6840
000002d0: 4aab 29c0 9063 4f41 9268 5e41 1c81 4bc0
000002e0: e28b 4ec0 d0bc d0bf 23de f440 bee3 11c1
000002f0: ebec 2bc1 93ca 1841 14cd 81c0 c3be 1ac0
00000300: f701 693f 4867 bbc1 40ad 6741 4d08 2341
00000310: 281e 1f42 7c59 94c0 e9bc 6abe 8011 d4be
00000320: ec41 5cbf c62e aa40 64f4 ac3f d7af 9640
00000330: 6aad 42c1 21cd 9041 8783 e9c0 36db df40
00000340: 804a 8739 85de d240 ed35 c4bf c222 af41
00000350: ed37 ba3f d944 0642 817c 8b40 3553 eb40
00000360: d8c8 1ac0 ef3a 2441 6abb d8c0 c68c 2e42
00000370: 4ec2 1ac1 5e84 a0c0 1f87 1bc0 a2ff 83be
00000380: f724 5041 e73e 90c1 5a32 2641 e3a3 2441
00000390: bea0 84c0 e36d 3f40 927f 2440 19aa e140
000003a0: 39aa 4cbf a6dc cb40 5cb9 bc3f 5e72 8fbf
000003b0: 2c97 4dc0 9147 6141 e63d 80bf 7ef1 3dc2
000003c0: b8ad 05c1 d847 b6bf 6c58 ec40 7298 a3be
000003d0: e09a 8c40 db98 b240 7f5f b941 87ef 5a3f
000003e0: 731f 7f40 4d83 8942 957b 8941 8e7d 873f
000003f0: 7523 5740 bd88 cc40 58e7 29c2 3a15 c941

postprocess1.bias f4 [2]
-5.624123 -5.669892
00000000: d1f8 b3c0 c16f b5c0

updates.0.weight_ih f4 [384, 128]
-0.088266075 0.033659738 -0.05381553 0.07852585 -0.019756367 -0.041567117 0.04485847 0.06016586
-0.06842433 0.06226614 0.005135804 -0.08293864 -0.07575172 -0.0049043233 0.048241273 -0.058465905
-0.074934 0.025050411 0.069001935 0.011892956 0.013867072 -0.011442448 0.059941743 0.015177238
-0.07363481 -0.016463581 -0.023672115 0.009920304 0.071589276 0.03805049 -0.07685369 0.08735541
-0.0031880508 0.0058143367 0.073930815 0.03828918 -0.08337495 -0.019357815 0.083270356 0.0815497
-0.06971021 0.08259609 0.079361886 -0.023720162 0.03237213 0.03673687 0.0708443 -0.056842506
-0.004469357 0.014781532 -0.082430966 0.008027458 -0.07980474 0.052502003 -0.048141193 0.02964641
-0.047510106 -0.07235132 0.068945475 0.016105765 0.08024556 0.009369307 -0.07861523 0.05781908
-0.006430039 -0.03732114 0.04977611 -0.0023724672 0.03956868 -0.020197138 0.039099872 -0.007100132
0.0062100007 0.045963287 -0.035430096 0.006389262 -0.0055200886 -0.008903553 0.070025966 0.08407354
0.06113807 -0.00877765 0.015816111 -0.06839311 -0.07406212 0.039051656 -0.08511642 -0.018013721
0.0010725424 -0.020619797 0.08527146 -0.064532 -0.063204095 -0.020657413 0.010938045 0.0026839008
-0.078085884 -0.031707022 0.058547925 0.0069067306 0.0042871987 -0.03670899 0.00094522734 0.065207504
0.07015288 0.032520086 -0.042209752 0.03477083 0.050636645 0.018201442 -0.08782242 0.0060717487
0.010624093 -0.0425776 -0.07890632 -0.07929184 -0.009147794 0.048214264 -0.07385622 -0.032823134
0.00095969427 0.026621014 -0.06041012 -0.04869046 -0.03132221 0.06621209 -0.04397835 0.019273965
0.05845733 0.06349838 -0.0863975 0.06134381 0.07533564 -0.007048976 -0.07224799 -0.07046235
0.055036396 4.8521557e-05 0.0059740944 0.061754182 0.050626785 0.065879494 -0.07664297 0.065891095
-0.015432711 0.06311006 -0.016802251 0.086777434 -0.07545083 0.080198824 -0.005123139 0.07675144
-0.0128405215 -0.07051969 -0.018344963 -0.051511023 0.011511326 -0.027304709 -0.064630814 -0.086134925
0.015275799 -0.080842294 0.037788957 0.016934572 -0.06822308 0.004751151 -0.036711264 0.031310555
0.068987615 -0.028790796 -0.05484247 -0.020382658 -0.061236884 0.044695426 0.066670515 0.045967333
-0.060194097 -0.073892415 -0.08729268 -0.081342846 0.0034981356 0.046350922 0.08144291 0.0018435663
0.08237982 0.08807412 -0.039792314 -0.021703014 -0.078280985 -0.01590777 -0.05750365 -0.03555977
-0.07594525 -0.035093214 -0.076102026 0.07183654 0.03347169 -0.014093053 0.05090391 0.015344456
-0.026659535 0.068832755 -0.010113768 -0.04660254 -0.05296509 -0.029875888 0.056061797 0.076972365
0.030689595 0.029276423 0.062510744 0.059264336 0.08692015 -0.007495132 -0.017713793 -0.016970828
0.043122917 0.030005047 0.02012356 0.039399948 0.012753246 0.071011886 0.005924393 -0.03840679
-0.060147 0.087876186 0.0339704 -0.010314661 -0.012910348 0.042100348 -0.021742526 -0.0339146
0.008665771 -0.060770307 0.078199714 -0.035463065 -0.08129243 -0.027487174 -0.026168851 0.025069272
0.037897013 0.059955355 -0.024320375 -0.023944847 0.0751824 0.009509046 0.0659073 -0.023585755
0.022270732 0.02914367 -0.065425746 -0.08710575 -0.07496967 0.06235037 0.078150064 -0.0035611135
00000000: d8c4 b4bd cbde 093d ac6d 5cbd 29d2 a03d
00000010: 1bd8 a1bc 4842 2abd 84bd 373d 7a70 763d
00000020: 0e22 8cbd c80a 7f3d 3f4a a83b bcdb a9bd
00000030: b823 9bbd 72b4 a0bb a498 453d f279 6fbd
00000040: ff76 99bd 8536 cd3c e350 8d3d acda 423c
00000050: b732 633c 1b79 3bbc 7985 753d f3a9 783c
00000060: d9cd 96bd a2de 86bc 06ec c1bc c588 223c
00000070: 669d 923d d5da 1b3d 7865 9dbd 65e7 b23d
00000080: 9eee 50bb 3186 be3b 0a69 973d 1dd5 1c3d
00000090: 7cc0 aabd 4894 9ebc a689 aa3d 8703 a73d
000000a0: 3ac4 8ebd 2428 a93d 7c88 a23d c950 c2bc
000000b0: a398 043d 6679 163d d116 913d b0d3 68bd
000000c0: af73 92bb 3d2e 723c 91d1 a8bd 9985 033c
000000d0: ab70 a3bd 570c 573d b32f 45bd 07dd f23c
000000e0: f599 42bd ee2c 94bd 4933 8d3d 3df0 833c
000000f0: c957 a43d b981 193c 0601 a1bd b3d3 6c3d
00000100: 14b3 d2bb 0dde 18bd 09e2 4b3d 657b 1bbb
00000110: c512 223d 7874 a5bc 3027 203d 39a8 e8bb
00000120: 437d cb3b 0044 3c3d 261f 11bd 045d d13b
00000130: dce1 b4bb 35e0 11bc c669 8f3d c02e ac3d
00000140: ea6b 7a3d 22d0 0fbc ca90 813c b011 8cbd
00000150: e1ad 97bd a1f4 1f3d 8551 aebd 8391 93bc
00000160: 8d94 8c3a d9ea a8bc cea2 ae3d 5a29 84bd
00000170: 2671 81bd bc39 a9bc 7c35 333c 62e4 2f3b
00000180: 7eeb 9fbd 39df 01bd f3cf 6f3d db51 e23b
00000190: a17b 8c3b 2a5c 16bd 22c9 773a 838b 853d
000001a0: 50ac 8f3d c833 053d 22e4 2cbd dc6b 0e3d
000001b0: 5f68 4f3d 311b 953c 3edc b3bd 85f5 c63b
000001c0: ad10 2e3c d965 2ebd a399 a1bd c363 a2bd
000001d0: a1e0 15bc 527c 453d ee41 97bd 8d71 06bd
000001e0: fe93 7b3a 5014 da3c 9a70 77bd a66f 47bd
000001f0: b84b 00bd 349a 873d a422 34bd 6fe4 9d3c
00000200: f470 6f3d 700b 823d 2cf1 b0bd a643 7b3d
00000210: 9249 9a3d 19fb e6bb c1f6 93bd 914e 90bd
00000220: d86d 613d a083 4b38 56c2 c33b f4f1 7c3d
00000230: 085e 4f3d d4eb 863d fdf6 9cbd e9f1 863d
00000240: 7bd9 7cbc d93f 813d e0a4 89bc 5eb8 b13d
00000250: f785 9abd 483f a43d 01e0 a7bb dc2f 9d3d
00000260: 0d61 52bc a16c 90bd 2d48 96bc 39fd 52bd
00000270: 009a 3c3c 20ae dfbc 295d 84bd 8267 b0bd
00000280: 5847 7a3c a590 a5bd 98c8 1a3d 5fba 8a3c
00000290: 8bb8 8bbd 8baf 9b3b 8d5e 16bd 7f3f 003d
000002a0: 6149 8d3d adda ebbc 7fa2 60bd 88f9 a6bc
000002b0: 87d3 7abd 8d12 373d 8d8a 883d 3e48 3c3d
000002c0: 168e 76bd e854 97bd 81c6 b2bd 1497 a6bd
000002d0: fa40 653b 77da 3d3d 8acb a63d d2a3 f13a
000002e0: c0b6 a83d 3460 b43d 44fd 22bd 85ca b1bc
000002f0: c851 a0bd 0351 82bc f388 6bbd 1fa7 11bd
00000300: 2f89 9bbd e7bd 0fbd 61db 9bbd 091f 933d
00000310: 9c19 093d 8ce6 66bc 9e80 503d 5067 7b3c
00000320: 1965 dabc 30f8 8c3d 38b4 25bc 4ee2 3ebd
00000330: ecf1 58bd 47be f4bc 0ea1 653d b0a3 9d3d
00000340: bf68 fb3c 1cd5 ef3c a205 803d 29bf 723d
00000350: 3103 b23d b999 f5bb 841c 91bc 6806 8bbc
00000360: a8a1 303d 25cd f53c 2ada a43c d761 213d
00000370: fef2 503c ae6e 913d 6921 c23b 7050 1dbd
00000380: b35c 76bd 6ef8 b33d 8c24 0b3d d3fe 28bc
00000390: ed85 53bc 6a71 2c3d 621d b2bc 09ea 0abd
000003a0: e1fa 0d3c 49ea 78bd 2c27 a03d b841 11bd
000003b0: a57c a6bd c82c e1bc 0f60 d6bc 135e cd3c
000003c0: e639 1b3d bf93 753d 863b c7bc fc27 c4bc
000003d0: 3bf9 993d d4cb 1b3c 68fa 863d ea36 c1bc
000003e0: 1c71 b63c b5be ee3c effd 85bd 8064 b2bd
000003f0: b389 99bd 1a63 7f3d 240d a03d 9261 69bb

updates.0.weight_hh f4 [384, 128]
-0.037281364 0.015303921 0.07046103 0.019858867 0.01410577 -0.038585756 -0.043080844 0.079041615
-0.0046302634 -0.032566596 -0.024147298 0.011812118 0.0038755818 0.06759001 0.08032165 -0.0010502889
0.0009101085 0.022993688 0.044793744 0.07829254 0.054329805 -0.08719445 -0.05522097 0.059656072
0.0471324 0.002460122 0.0124981105 -0.020733478 -0.014633807 0.027910033 0.027505897 -0.01261826
0.021396985 0.009194809 0.05731849 0.040520433 0.038856845 -0.068048455 -0.077266574 0.038096663
-0.08782279 0.0060238275 -0.034988385 0.013607858 -0.044871822 0.07967497 0.059512623 0.041727297
-0.031326097 -0.008305816 0.035668887 0.052848175 -0.029441807 0.036886554 -0.060018744 0.0035347508
-0.04665498 -0.008755027 -0.05064144 0.06354544 -0.051789615 0.07366701 0.07498324 0.028417597
-0.07587796 0.064895816 -0.08352812 -0.07004178 0.035946097 0.020702627 0.048693802 0.054157823
-0.028023018 -0.069568254 0.036977325 -0.057608776 0.07718935 -0.036336914 0.06924362 -0.033462808
0.078703545 0.060837995 -0.0026263702 0.07826788 -0.057045095 -0.07683292 0.08713049 0.057763036
-0.027707402 -0.04524324 0.036695596 0.00022835162 0.08064953 0.03899906 0.021618836 -0.08619026
-0.064257845 -0.014346955 -0.072709985 0.07415502 0.018880565 -0.025376512 0.0019209058 0.046276197
-0.07355931 -0.047353722 -0.024747923 -0.05442213 0.00027344874 0.030922815 0.014205774 0.039884172
-0.032283146 0.00881789 -0.029944303 -0.08095775 -0.0020613496 -0.012348152 0.042894173 0.046871804
-0.026408931 -0.07229162 0.047284927 0.05972635 0.07236282 0.04809248 0.06250686 -0.08613564
-0.08514895 -0.08557385 0.06607323 -0.011334067 -0.00909038 0.05324953 -0.08769719 -0.0762769
0.027130432 -0.0027937987 0.079176776 0.004055064 0.03876848 0.07858834 0.012551511 0.07292257
-0.02246661 0.042205494 -0.057866 -0.03093782 -0.08643016 -0.07830894 -0.0057826843 -0.058453314
-0.01160387 -0.000988607 0.08329533 0.027723532 -0.066445455 0.004780464 -0.035868905 0.04220891
0.026365688 -0.080970414 0.07329568 -0.009320344 -0.050818644 -0.05704756 -0.0007484437 -0.05276026
-0.06276325 -0.020586764 0.015936123 -0.044817608 -0.03130923 -0.055212423 0.037019208 0.049331546
0.052509017 -0.028838042 -0.0849693 0.013456361 0.001871025 0.03937015 0.050866716 0.029430417
-0.026221715 -0.001419411 0.00087180757 0.032889217 -0.073217966 -0.056317776 0.055252064 0.064959764
0.08799523 -0.06559768 0.061019912 0.067912884 0.059106316 0.010287003 0.052630402 -0.05307623
-0.07842426 0.0049786596 -0.032354996 -0.045015343 -0.034180377 0.03092661 0.015174804 0.026533738
0.0005237589 0.033505164 0.0036495167 0.042540964 0.0019330757 0.037886962 -0.016477142 -0.038454045
-0.0013592569 0.084460616 0.06696297 -0.030048933 0.017928626 -0.0041924627 -0.070644766 -0.012310852
0.022984415 0.07196832 -0.022227088 -0.063909784 -0.07376192 0.03664796 0.010176946 0.08417185
-0.06772056 -0.08660819 -0.088140704 -0.029342657 0.054440577 0.025003502 -0.057103656 -0.025691655
0.04237127 -0.043225788 0.06879741 -0.048410416 -0.07265988 -0.018856078 0.019590667 -0.060097
0.065142356 -0.06965669 -0.010172237 0.017429681 -0.08004127 0.048362117 -0.014788212 0.011200356
00000000: 58b4 18bd 4cbd 7a3c df4d 903d 10af a23c
00000010: e31b 673c 190c 1ebd 8a75 30bd 92e0 a13d
00000020: 77b9 97bb 8d64 05bd 8ed0 c5bc 9d87 413c
00000030: 79fd 7d3b a26c 8a3d ad7f a43d d9a9 89ba
00000040: 5994 6e3a 425d bc3c a579 373d d757 a03d
00000050: ee88 5e3d 0193 b2bd 622f 62bd ed59 743d
00000060: e70d 413d 003a 213b e0c4 4c3c 41d9 a9bc
00000070: a3c2 6fbc 95a3 e43c 0c54 e13c d2bc 4ebc
00000080: bb48 af3c d3a5 163c cbc6 6a3d c1f8 253d
00000090: 5b28 1f3d fd5c 8bbd f03d 9ebd 3f0b 1c3d
000000a0: 6fdc b3bd 8763 c53b fb4f 0fbd 7ef3 5e3c
000000b0: 84cb 37bd a12c a33d 82c3 733d 3eea 2a3d
000000c0: cb4f 00bd 1e15 08bc 8a19 123d 5477 583d
000000d0: f22f f1bc 5b16 173d 37d6 75bd 47a7 673b
000000e0: 4b19 3fbd 3f71 0fbc 666d 4fbd 1d24 823d
000000f0: 5921 54bd bbde 963d d090 993d 05cc e83c
00000100: e765 9bbd 19e8 843d ca10 abbd 1172 8fbd
00000110: 373c 133d 8e98 a93c 2773 473d 98d4 5d3d
00000120: 8790 e5bc cd79 8ebd 8975 173d 2ef7 6bbd
00000130: 7315 9e3d 04d6 14bd 99cf 8d3d 4c10 09bd
00000140: 532f a13d 4331 793d 2e1f 2cbb e94a a03d
00000150: 1ea8 69bd 945a 9dbd 7871 b23d ef98 6c3d
00000160: a2fa e2bc fa50 39bd 1f4e 163d ac71 6f39
00000170: 952b a53d 7abd 1f3d fc19 b13c 8584 b0bd
00000180: 9e99 83bd 7e0f 6bbc f9e8 94bd 96de 973d
00000190: 6aab 9a3c 67e2 cfbc e7c6 fb3a 1c8c 3d3d
000001a0: 43a6 96bd faf5 41bd 28bc cabc bde9 5ebd
000001b0: ab5d 8f39 d851 fd3c 56bf 683c 965d 233d
000001c0: 553b 04bd e978 103c c14d f5bc 2dcd a5bd
000001d0: b517 07bb e74f 4abc cdb1 2f3d a6fc 3f3d
000001e0: 8b57 d8bc a10d 94bd d7ad 413d 9ea3 743d
000001f0: f532 943d 9ffc 443d 9903 803d e267 b0bd
00000200: 9362 aebd 5841 afbd 6751 873d 86b2 39bc
00000210: d1ef 14bc 2e1c 5a3d 969a b3bd 1037 9cbd
00000220: a440 de3c 2a18 37bb 6f27 a23d 58e0 843b
00000230: b3cb 1e3d ecf2 a03d daa4 4d3c 6e58 953d
00000240: e50b b8bc abdf 2c3d e604 6dbd 5071 fdbc
00000250: 4c02 b1bd 7060 a0bd ac7c bdbb be6c 6fbd
00000260: 291e 3ebc 2594 81ba be96 aa3d 761c e33c
00000270: 8e14 88bd 70a5 9c3b 46eb 12bd 40e3 2c3d
00000280: dbfc d73c d1d3 a5bd 0c1c 963d 5bb4 18bc
00000290: 3627 50bd b4aa 69bd 3533 44ba 241b 58bd
000002a0: 058a 80bd 93a5 a8bc 798c 823c ab92 37bd
000002b0: 1b3e 00bd 6c26 62bd 74a1 173d e00f 4a3d
000002c0: b213 573d c23d ecbc 6204 aebd 1278 5c3c
000002d0: 2e3d f53a 9842 213d 9e59 503d 0f18 f13c
000002e0: ecce d6bc 880b baba 048a 643a d8b6 063d
000002f0: 4df3 95bd 78ad 66bd fd4f 623d a009 853d
00000300: d836 b43d 1458 86bd 04f0 793d e915 8b3d
00000310: 7719 723d d18a 283c fa92 573d 7666 59bd
00000320: e69c a0bd 0624 a33b ac86 04bd 0262 38bd
00000330: b900 0cbd cd59 fd3c be9f 783c 485d d93c
00000340: dd4c 093a b63c 093d bb2c 6f3b 6f3f 2e3d
00000350: 425f fd3a 5c2f 1b3d 12fb 86bc fd81 1dbd
00000360: 1829 b2ba b0f9 ac3d e223 893d 2e29 f6bc
00000370: 0edf 923c ed60 89bb 34ae 90bd 75b3 49bc
00000380: d049 bc3c 2064 933d 9515 b6bc 22e3 82bd
00000390: 7d10 97bd 2c1c 163d 35bd 263c 4a62 ac3d
000003a0: 14b1 8abd a25f b1bd 1d83 b4bd 0360 f0bc
000003b0: 15fd 5e3d 25d4 cc3c 86e5 69bd 4e77 d2bc
000003c0: 7f8d 2d3d 860d 31bd a8e5 8c3d 004a 46bd
000003d0: b4ce 94bd 1078 9abc 9b7c a03c 4628 76bd
000003e0: 5b69 853d 2ba8 8ebd 74a9 26bc b1c8 8e3c
000003f0: adec a3bd 5b17 463d 424a 72bc b381 373c

updates.0.bias_ih f4 [384]
-0.03822164 -0.056415293 0.004588011 0.042772856 -0.049022146 0.050020646 -0.01764619 -0.011486007
-0.0880869 0.022058638 -0.061775982 -0.051327128 -0.03400594 -0.002587848 -0.024975369 0.009739409
0.019379005 0.004004351 0.03500834 0.02819407 -0.087896146 -0.044835955 -0.02402208 -0.05274425
-0.0037456008 0.051464748 -0.07116916 0.05496599 -0.0729881 -0.07150723 -0.022543516 0.06143649
0.02634334 -0.0048790667 0.06442696 -0.019150136 0.033400092 -0.005092024 0.05602141 0.078580365
0.02607143 0.036806654 0.060831927 -0.037295893 -0.026064148 0.057063725 -0.009219844 -0.030082682
0.046631355 0.004468872 -0.043352954 0.047218148 0.03182676 -0.079544336 -0.012744964 -0.018538386
0.06853787 0.0220155 0.039942663 0.02698138 0.033267625 0.024914192 -0.069690004 -0.020205842
-0.008451676 0.0017010573 0.008039353 -0.08306112 0.049680132 0.085646115 -0.049325794 0.044803616
0.03510528 0.009107249 0.007609972 -0.047401253 0.002144874 -0.02251591 -0.034246884 0.03483591
-0.03393251 -0.0026497091 0.08715968 -0.04789589 0.08280395 -0.010055605 0.030150916 0.014455336
-0.071229205 0.008772645 -0.08111577 -0.040009096 -0.0005204293 -0.0696609 -0.033154756 0.08061529
0.0098415315 -0.06889853 -0.08490135 -0.0024886555 0.057651944 0.08741496 -0.064527094 0.0033434462
0.044763863 -0.05519569 0.044382937 0.051981624 0.055777464 0.034481294 -0.007013004 0.014692802
-0.025225678 0.059152953 0.08073978 0.03620545 0.060038712 -0.04653666 -0.08510633 0.05837055
-0.00773362 -0.038065314 -0.029158643 0.075667776 0.066360995 0.047893014 -0.005290599 0.058461525
0.04497592 0.070810385 0.038300507 0.012659565 0.06262233 -0.030755008 0.07910335 -0.0207337
-0.046844084 0.078896 0.08358587 -0.08728079 0.020327393 0.0865512 -0.058530856 0.01915646
0.040090196 0.08079779 0.02187631 -0.013130576 -0.02071132 0.035907798 0.012516476 0.042105827
-0.066998094 -0.03232576 0.007322572 -0.06084555 -0.012949345 -0.025186483 -0.013986 -0.05066502
0.061382353 0.025848873 -0.024967866 -0.07712746 -0.0044753314 0.038507774 -0.014566888 0.074724436
0.04153885 -0.06423788 0.07407379 0.08432478 0.056813877 0.0824284 -0.039082456 0.034364633
-0.06141467 -0.05897777 0.026262417 0.06806699 -0.04988185 0.034568697 0.044479277 -0.08069914
0.027509838 -0.07835693 0.02172196 0.07672726 -0.033675943 -0.001260391 -0.08050642 0.0035544122
-0.021083413 0.07285137 0.06809932 0.0766902 -0.004210059 -0.037362706 -0.073979564 -0.05065224
-0.038201153 0.03794149 0.07410343 -0.070342965 -0.01841383 0.07198643 -0.0529857 -0.0033623807
0.07124303 0.078862645 -0.080594 0.009709253 0.037663784 -0.0290502 0.012803843 0.046993304
-0.0057046916 0.034765303 -0.006670234 -0.05638501 0.03027841 -0.07757587 -0.08316392 -0.0726394
-0.07164285 -0.044714224 0.065484576 -0.052528217 -2.1031277e-05 -0.04162291 -0.019318819 0.0067436644
0.027893025 0.06731479 -0.03708341 0.04047386 0.08741158 -0.005597544 -0.046095163 -0.023419654
-0.021888122 -0.027478397 0.05060299 0.0027041312 -0.05212803 -0.03727913 0.06489993 0.06977313
0.00965796 0.07668481 -0.031582486 -0.0046020565 0.016913382 -0.020076755 -0.04669853 0.06202254
00000000: 4b8e 1cbd b913 67bd 0757 963b 9732 2f3d
00000010: 72cb 48bd 73e2 4c3d be8e 90bc ce2f 3cbc
00000020: e866 b4bd 51b4 b43c d008 7dbd 653c 52bd
00000030: d049 0bbd e398 29bb 2599 ccbc 0b92 1f3c
00000040: b8c0 9e3c ee36 833b e864 0f3d 40f7 e63c
00000050: e502 b4bd e8a5 37bd f4c9 c4bc 5b0a 58bd
00000060: c178 75bb b3cc 523d 23c1 91bd 0524 613d
00000070: c97a 95bd 6272 92bd 2ead b8bc d4a4 7b3d
00000080: fdcd d73c 94e0 9fbb 48f2 833d bfe0 9cbc
00000090: 89ce 083d feda a6bb b576 653d beee a03d
000000a0: c093 d53c 93c2 163d e62a 793d 94c3 18bd
000000b0: 7b84 d5bc a7bb 693d d40e 17bc f56f f6bc
000000c0: 8500 3f3d 9e6f 923b de92 31bd d167 413d
000000d0: c75c 023d 24e8 a2bd 41d0 50bc d0dd 97bc
000000e0: 955d 8c3d da59 b43c eb9a 233d 0e08 dd3c
000000f0: a243 083d d918 cc3c a2b9 8ebd b986 a5bc
00000100: e678 0abc 03f6 de3a 7eb7 033c f31b aabd
00000110: 657d 4b3d 3b67 af3d d809 4abd ff83 373d
00000120: 8eca 0f3d 9236 153c 125d f93b d127 42bd
00000130: 0491 0c3b 4973 b8bc 7646 0cbd 19b0 0e3d
00000140: d1fc 0abd bea6 2dbb c680 b23d 7b2e 44bd
00000150: 1e95 a93d 44c0 24bc 0eff f63c 13d6 6c3c
00000160: 9ee0 91bd 24bb 0f3c 0620 a6bd 94e0 23bd
00000170: 6b6d 08ba 60aa 8ebd 48cd 07bd a119 a53d
00000180: 603e 213c ac1a 8dbd c2e0 adbd b618 23bb
00000190: 7224 6c3d 9d06 b33d c826 84bd b81d 5b3b
000001a0: 505a 373d e014 62bd e2ca 353d afea 543d
000001b0: e976 643d 423c 0d3d 57cd e5bb 14ba 703c
000001c0: 15a6 cebc 5e4a 723d e65a a53d 2a4c 143d
000001d0: 27eb 753d 3a9d 3ebd 3a4c aebd f515 6f3d
000001e0: 4e6a fdbb 60ea 1bbd 1bde eebc b5f7 9a3d
000001f0: 46e8 873d 772b 443d c35c adbb 5a75 6f3d
00000200: ac38 383d 0905 913d fee0 1c3d 106a 4f3c
00000210: 2340 803d edf1 fbbc f000 a23d b8d9 a9bc
00000220: 95df 3fbd 3a94 a13d 122f ab3d 45c0 b2bd
00000230: a285 a63c c141 b13d 0dbe 6fbd 02ee 9c3c
00000240: 9e35 243d 5079 a53d f335 b33c a121 57bc
00000250: c9aa a9bc 0e14 133d e811 4d3c 2977 2c3d
00000260: 4c36 89bd 0468 04bd 30f2 ef3b 2f39 79bd
00000270: 7d29 54bc e253 cebc 8925 65bc 2086 4fbd
00000280: 106c 7b3d 04c1 d33c 6989 ccbc 00f5 9dbd
00000290: cda5 92bb 54ba 1d3d f5a9 6ebc 2009 993d
000002a0: a424 2a3d 268f 83bd 00b4 973d 78b2 ac3d
000002b0: abb5 683d 39d0 a83d ed14 20bd eec1 0c3d
000002c0: f38d 7bbd ad92 71bd 4824 d73c b566 8b3d
000002d0: e950 4cbd e897 0d3d e72f 363d 9745 a5bd
000002e0: 505c e13c 9979 a0bd 40f2 b13c 2f23 9d3d
000002f0: c9ef 09bd b433 a5ba 8de0 a4bd 24f1 683b
00000300: 1fb7 acbc 1933 953d a877 8b3d c00f 9d3d
00000310: 89f4 89bb a309 19bd 9982 97bd b978 4fbd
00000320: d078 1cbd 8968 1b3d 8ac3 973d f90f 90bd
00000330: 9ad8 96bc 9f6d 933d 8907 59bd 635b 5cbb
00000340: dee7 913d bd82 a13d 780e a5bd 8f13 1f3c
00000350: 5745 1a3d affa edbc 36c7 513c 0d7c 403d
00000360: 6cee babb 1066 0e3d fa91 dabb f8f3 66bd
00000370: 6e0a f83c 19e0 9ebd d851 aabd f7c3 94bd
00000380: 7db9 92bd 4326 37bd c71c 863d d427 57bd
00000390: 536c b0b7 c97c 2abd 8042 9ebc f5f9 dc3b
000003a0: ea7f e43c 56dc 893d c6e4 17bd ebc7 253d
000003b0: d804 b33d 9a6b b7bb 48ce 3cbd 93da bfbc
000003c0: b84e b3bc 601a e1bc 1545 4f3d cb37 313b
000003d0: 3484 55bd 00b2 18bd 41ea 843d 37e5 8e3d
000003e0: 6c3c 1e3c ed0c 9d3d a35c 01bd d9cc 96bb
000003f0: ef8d 8a3c 0278 a4bc f546 3fbd 590b 7e3d
