trained_models/roland_bitcoinotc.pt (torch, 572846 bytes, 16 tensors)

preprocess1.weight f4 [100, 1]
0	0xbe4e66c0	-0.20156384
1	0xbe9de0e0	-0.30835629
2	0xbf781502	-0.96907055
3	0x3e4f9644	0.20272166
4	0xbeeaf550	-0.45890284
5	0xbf094912	-0.5362712
6	0xbf2b9ecb	-0.67039174
7	0xbe9033ec	-0.28164613
8	0xbf1d5d30	-0.6147032
9	0x3e421d32	0.1895645
10	0x3f04e9a2	0.51918995
11	0x3d92b730	0.071638465
12	0xbd096d42	-0.033551462
13	0xbf7ffede	-0.9999827
14	0x3f4ef549	0.80843025
15	0xbf6b8786	-0.9200367
16	0xbe93d8c0	-0.28876305
17	0x3e6e3de8	0.23265803
18	0xbf747328	-0.95488214
19	0x3f511935	0.8167909
20	0x3eb9cc48	0.36288667
21	0x3f33c54d	0.7022293
22	0x3f61e527	0.88240284
23	0xbe3dc13d	-0.18530746
24	0xbf03de16	-0.5151075
25	0xbda4b210	-0.08041775
26	0x3f328d2c	0.6974666
27	0xbd8ed7ab	-0.06974729
28	0xbf661abe	-0.89884555
29	0x3f079226	0.5295738
30	0x3d20bc40	0.03924203
31	0x3f458c30	0.77167034
32	0xbf7fccba	-0.9992176
33	0x3ea820f2	0.32837635
34	0xbe91dfe4	-0.28491127
35	0xbe344641	-0.17604925
36	0xbf277766	-0.6541656
37	0x3ef36c22	0.47543436
38	0xbe6261c0	-0.22107601
39	0x3e896c06	0.26840228
40	0x3f0b9b6a	0.5453402
41	0x3e1de130	0.15417933
42	0x3f77a05b	0.9672906
43	0xbcc83100	-0.024437428
44	0x3dc1b880	0.09459019
45	0x3e82253c	0.25419033
46	0x3e1f7d43	0.15575127
47	0xbf36fd70	-0.71480465
48	0xbf709f36	-0.93992937
49	0x3f736281	0.9507218
50	0xbf2fc7ae	-0.6866406
51	0xbeb1e000	-0.3474121
52	0xbf6c2f20	-0.9225941
53	0x3f6f0851	0.93372065
54	0x3f33d291	0.70243174
55	0x3ed2229d	0.41042033
56	0x3ea25407	0.31704733
57	0xbef9d45c	-0.4879483
58	0x3f78bf88	0.97167253
59	0x3eff904a	0.4991477
60	0xbe1f0f52	-0.15533188
61	0x3ec69e46	0.38792628
62	0x3e693802	0.22775272
63	0x3dbac1f0	0.09119022
64	0xbf1aac9a	-0.6041962
65	0x3f5a49b5	0.8526872
66	0xbf7926c0	-0.9732475
67	0x3f51a5ec	0.818938
68	0xbf31508c	-0.6926353
69	0xbe9939b4	-0.29926836
70	0xbe71add1	-0.23601462
71	0x3f68531a	0.907518
72	0xbdc41020	-0.09573388
73	0xbe6ea6b3	-0.23305778
74	0xbc723200	-0.014782429
75	0x3ea3a018	0.3195808
76	0x3f275d38	0.65376616
77	0x3db63760	0.08897281
78	0x3f44458e	0.7666863
79	0x3e605cd8	0.21910417
80	0xbe954e3f	-0.2916126
81	0xbf49585c	-0.7865045
82	0x3f5c0eab	0.8595988
83	0x3f440e96	0.76584756
84	0x3f2427fe	0.64123523
85	0xbf58b4ac	-0.84650683
86	0x3db563ae	0.08856903
87	0x3f0e204e	0.55518043
88	0x3edd2006	0.43188494
89	0xbf26897c	-0.65053535
90	0x3f3600c0	0.71094894
91	0x3ea0d3b0	0.31411505
92	0xbf47c2d2	-0.7803165
93	0xbe8b758e	-0.27238125
94	0x3dc7429b	0.09729501
95	0x3d2c1864	0.04201545
96	0x3f0d2f97	0.5515074
97	0x3e95ba8a	0.2924388
98	0xbe1c9565	-0.15291364
99	0x3f6757e6	0.903685

preprocess1.bias f4 [100]
0	0xbdf4e160	-0.11957049
1	0xbd8277e0	-0.063705206
2	0x3f191256	0.59793603
3	0x3f7361fd	0.95071393
4	0x3f344fdc	0.70434356
5	0x3ef76e24	0.48326218
6	0x3f64a621	0.8931599
7	0xbbb06800	-0.0053834915
8	0xbf1bb2ea	-0.60819876
9	0x3f495731	0.7864867
10	0xbf4c7b38	-0.79875517
11	0xbf6e300a	-0.9304205
12	0x3e7ae977	0.24503122
13	0xbf1aa7b4	-0.60412145
14	0xbf16382b	-0.58679456
15	0xbeddb578	-0.43302512
16	0xbf5cb020	-0.86206245
17	0xbf7c93d2	-0.98663056
18	0x3f2fc7c4	0.68664193
19	0xbf342f93	-0.7038509
20	0xbf09cc58	-0.5382743
21	0x3e88e287	0.26735327
22	0x3eb241ae	0.34815735
23	0x3f461eda	0.77390826
24	0xbe22df80	-0.15905571
25	0x3da350f0	0.07974422
26	0x3ebe5caf	0.37180087
27	0x3db9a3f5	0.090644754
28	0xbf32fc44	-0.69916177
29	0x3f6791d8	0.90456915
30	0xbe9c0328	-0.30471158
31	0x3ea75f6c	0.3268999
32	0xbdc11bc0	-0.09429121
33	0x3f244d9b	0.64180917
34	0xbe160d60	-0.1465354
35	0x3ec2e324	0.3806392
36	0x3f087dfa	0.53317225
37	0xbe0a826b	-0.13526313
38	0xbf65b544	-0.89729714
39	0x3eff6019	0.49878004
40	0xbe324459	-0.17408885
41	0xbe72d510	-0.2371409
42	0x3f1d6949	0.6148878
43	0xbe029628	-0.12752593
44	0xbe600730	-0.21877742
45	0x3f3ec158	0.7451377
46	0x3ef5e6e2	0.48027712
47	0xbeab90b4	-0.33508837
48	0x3f3ec998	0.7452636
49	0xbeec7d9b	-0.4618958
50	0xbec63888	-0.38715005
51	0xbf17bb28	-0.5926995
52	0x3ec213ac	0.37905633
53	0x3ec04a3a	0.3755663
54	0xbf35dbb3	-0.7103836
55	0xbd244399	-0.04010353
56	0x3f5ff5d0	0.87484455
57	0xbf0e2e78	-0.55539656
58	0xbd3e18c1	-0.046410326
59	0x3edcadfb	0.43101487
60	0x3f7b026b	0.98050565
61	0x3e2d10c3	0.16900925
62	0x3f7c41ea	0.98538077
63	0xbf5e8330	-0.86918926
64	0x3f14fa86	0.5819477
65	0xbe5a4f12	-0.21319225
66	0xbb0aa000	-0.0021152496
67	0x3eaf6a48	0.34260774
68	0x3eee3cd0	0.4653077
69	0xbf11201a	-0.5668961
70	0x3f3a4216	0.7275709
71	0xbf6fac32	-0.93622124
72	0xbf2d39c0	-0.67666245
73	0x3f152dcf	0.58273023
74	0xbebc4e24	-0.36778367
75	0xbd764ba2	-0.060130723
76	0x3f6a36be	0.9148978
77	0xbf426cd4	-0.7594731
78	0xbdf7efc8	-0.121062815
79	0x3d3de140	0.046357393
80	0x3f3c0ade	0.7345408
81	0x3f0d8fc4	0.55297494
82	0xbee44117	-0.4458091
83	0xbaaa2d6b	-0.0012983506
84	0xbec077cb	-0.37591395
85	0x3dd843b0	0.10559785
86	0x3f36d4d5	0.71418506
87	0xbf030b32	-0.5118896
88	0x3ea27c6a	0.31735545
89	0xbef38d08	-0.47568536
90	0x3e9d9410	0.30777025
91	0xbf3866d8	-0.7203193
92	0x3f354f46	0.70824087
93	0x3f7a2134	0.97706914
94	0x3edfc767	0.4370682
95	0xbd036b3c	-0.03208469
96	0x3e56e303	0.20985036
97	0x3f3db803	0.74108905
98	0x3f11fe15	0.57028323
99	0xbd6ab341	-0.057299856

convs.0.bias f4 [100]
0	0x00000000	0.0
1	0x3b2a4ee5	0.0025986966
2	0xbc88cd6c	-0.016699515
3	0x00000000	0.0
4	0x00000000	0.0
5	0xbc82c34e	-0.01596227
6	0x00000000	0.0
7	0x3c92d9c9	0.017926114
8	0x00000000	0.0
9	0x3b281180	0.0025645196
10	0x00000000	0.0
11	0x00000000	0.0
12	0x00000000	0.0
13	0x00000000	0.0
14	0x00000000	0.0
15	0x00000000	0.0
16	0x00000000	0.0
17	0x00000000	0.0
18	0x00000000	0.0
19	0x00000000	0.0
20	0x00000000	0.0
21	0xbc90193f	-0.017590163
22	0x00000000	0.0
23	0xbc88ce23	-0.016699856
24	0x00000000	0.0
25	0x3b281ee3	0.0025653176
26	0xbc8f51aa	-0.017494995
27	0x00000000	0.0
28	0x00000000	0.0
29	0x00000000	0.0
30	0x3b2d71f8	0.0026465636
31	0x00000000	0.0
32	0x00000000	0.0
33	0xbc88cdd9	-0.016699718
34	0x00000000	0.0
35	0x00000000	0.0
36	0x00000000	0.0
37	0x00000000	0.0
38	0x00000000	0.0
39	0x00000000	0.0
40	0x00000000	0.0
41	0x3b39001d	0.0028228827
42	0x00000000	0.0
43	0xbc93021f	-0.017945347
44	0x3c8ff472	0.017572615
45	0x3b29688d	0.002584967
46	0x00000000	0.0
47	0x3b2c2ac8	0.0026270617
48	0x3b30d00a	0.002697947
49	0x00000000	0.0
50	0xbb397fed	-0.002830501
51	0x00000000	0.0
52	0x3b2b2aec	0.0026118113
53	0xbb436d9d	-0.0029819973
54	0xbc8eb166	-0.017418575
55	0xbc88c91a	-0.016697455
56	0x00000000	0.0
57	0xbc91211d	-0.017715985
58	0x00000000	0.0
59	0x00000000	0.0
60	0x00000000	0.0
61	0x3b276302	0.002554119
62	0x00000000	0.0
63	0x3b3691e6	0.0027857958
64	0xbc88ce00	-0.016699791
65	0x3b3ab5a7	0.002848962
66	0x3b2cfb3d	0.0026394867
67	0xbc8f49ac	-0.017491184
68	0xbb4a801f	-0.003089912
69	0x00000000	0.0
70	0xbc9359d3	-0.017987167
71	0x00000000	0.0
72	0x00000000	0.0
73	0x3b2e28c8	0.00265746
74	0xbc88cee0	-0.016700208
75	0x00000000	0.0
76	0x00000000	0.0
77	0xbc88cf0a	-0.016700286
78	0x00000000	0.0
79	0xbc8f498f	-0.01749113
80	0x00000000	0.0
81	0x3b2c475d	0.0026287653
82	0x00000000	0.0
83	0x3b2eacea	0.0026653358
84	0x00000000	0.0
85	0x3b29da21	0.0025917368
86	0xbc88c7cb	-0.016696831
87	0x00000000	0.0
88	0xbc9065a4	-0.017626591
89	0xbb3251ac	-0.0027209325
90	0x3b28b484	0.0025742361
91	0xbc88ce55	-0.01669995
92	0x00000000	0.0
93	0x00000000	0.0
94	0x00000000	0.0
95	0x3b339c8a	0.0027406537
96	0x00000000	0.0
97	0x00000000	0.0
98	0x00000000	0.0
99	0xbc8e9a42	-0.01740754

convs.0.lin.weight f4 [100, 100]
0	0x3aceec59	0.001578699
1	0x3e0c47ed	0.13699313
2	0x3de2fb1f	0.11083054
3	0x3e271193	0.16315298
4	0xbc444ac7	-0.011980719
5	0xba38d0b3	-0.00070501416
6	0x3d355375	0.044269044
7	0xbdfc573d	-0.12321327
8	0xbd6b5369	-0.057452593
9	0xbd30a41f	-0.043125268
10	0x3e1ede23	0.15514426
11	0xbdc25aad	-0.09489951
12	0x3e1e3f89	0.15453924
13	0xbe301338	-0.17194831
14	0xbd7e2aa7	-0.062052395
15	0xbe1518ec	-0.14560288
16	0x3dcda4d7	0.10041206
17	0xbe2164ab	-0.15761058
18	0x3e0ece2e	0.13945839
19	0xbdebd31e	-0.11514877
20	0x3e13ee95	0.1444648
21	0x3db360b7	0.08758681
22	0x3ddccd77	0.10781377
23	0xbe02ceab	-0.1277415
24	0xbd88bd47	-0.06676727
25	0xbdf2b5f7	-0.11851113
26	0xbd877bcc	-0.06615409
27	0xbdceb986	-0.100939795
28	0xbd8c8b91	-0.06862558
29	0xbd1441a1	-0.0361954
30	0x3da3c70d	0.0799695
31	0xbda09313	-0.07840552
32	0x3daf7d91	0.08568872
33	0x3d7841b5	0.060609538
34	0xbc56b3c6	-0.013104385
35	0xbc8f3cfd	-0.017485136
36	0x3d7af024	0.061264172
37	0xbe063546	-0.1310626
38	0xbe16d207	-0.14728557
39	0x3da7b929	0.08189613
40	0xbdb37a83	-0.08763602
41	0xbd6a4453	-0.057194065
42	0xbd864882	-0.065567985
43	0x3dd70d55	0.1050059
44	0xbe23c242	-0.15992072
45	0x3e0d0ec5	0.13775165
46	0xbe2677b8	-0.16256607
47	0x3c6fc214	0.014633674
48	0x3d958730	0.073011756
49	0x3db1987b	0.086716615
50	0x3dff3da0	0.12462926
51	0xbda80e13	-0.082058094
52	0xbd7d3423	-0.0618173
53	0x3d034088	0.032043964
54	0x3d639d59	0.05556998
55	0x3d024aaa	0.031809486
56	0xbdada191	-0.08478082
57	0xbd8841fd	-0.06653211
58	0xbdda7bc3	-0.10668137
59	0x3ce67e4b	0.028136393
60	0x3e1ab8dd	0.15109582
61	0x3dc46dfb	0.095912896
62	0x3dc09573	0.09403505
63	0x3e2b57ec	0.16732758
64	0x3d317493	0.043324064
65	0xbe2f2df0	-0.17107368
66	0x3d958048	0.07299858
67	0xbe1d9438	-0.15388572
68	0xbe18f444	-0.1493693
69	0x3df33ebc	0.118772
70	0x3d1c73e6	0.038196467
71	0x3de0a5f4	0.10969153
72	0x3e2d713b	0.16937725
73	0x3e23b917	0.15988575
74	0x3a17da26	0.00057926995
75	0xbcd46f5d	-0.025932008
76	0xbd7e0000	-0.06201172
77	0xbe19a065	-0.15002592
78	0xbb844a19	-0.0040371534
79	0xbd4d2f57	-0.050093975
80	0x3ded58cc	0.11589202
81	0x3d3e2239	0.046419356
82	0x3c90d38b	0.017678997
83	0x3ce28b35	0.02765427
84	0xbd926358	-0.071478546
85	0x3e16b458	0.14717233
86	0xbe1e5182	-0.1546078
87	0xbdcecbf8	-0.10097498
88	0xbda19681	-0.078900345
89	0xbdfe8360	-0.124274015
90	0xbe18239a	-0.14857331
91	0xbd0c3e03	-0.034238826
92	0xbb8b65ca	-0.0042540776
93	0xbdadb2f9	-0.08481402
94	0x3e08afcd	0.13348313
95	0xbe2a9528	-0.16658461
96	0xbdc7787f	-0.0973978
97	0xbd4fd9bf	-0.05074477
98	0xbd442d87	-0.04789498
99	0xbc48f09c	-0.012264397
100	0x3d5b5bc5	0.053554315
101	0xbe2864cd	-0.16444702
102	0xbd889787	-0.066695265
103	0xbd5d352a	-0.05400578
104	0x3e173d90	0.14769578
105	0x3e2d5ebc	0.1693067
106	0xbda2fe6e	-0.07958685
107	0x3c168178	0.009186141
108	0x3da67edc	0.08129665
109	0xbdcaccd4	-0.09902349
110	0x3e1b55c2	0.15169433
111	0xbdccc648	-0.09998757
112	0x3dc1ccf5	0.094629206
113	0x3d9f26c0	0.07771063
114	0xbd7012e3	-0.05861176
115	0xbbc02164	-0.0058633555
116	0x3dae885f	0.085221045
117	0xbdf68f5a	-0.12039061
118	0xbe1617f3	-0.14657573
119	0xbdb8e6b9	-0.09028382
120	0xbba31f92	-0.0049781287
121	0x3afde531	0.0019370673
122	0x3dcba1a0	0.09942937
123	0xbde5d0b6	-0.11221449
124	0x3db05be0	0.08611274
125	0x3d23ae3a	0.039961077
126	0x3d89bda6	0.06725626
127	0x3d713b75	0.058894593
128	0x3d783ccb	0.06060485
129	0x3db91913	0.09037986
130	0x3e189f90	0.14904618
131	0xbe28af8b	-0.16473214
132	0xbe1cac9b	-0.15300219
133	0x3c8e4029	0.017364578
134	0x3cbbb574	0.022913672
135	0xbb9ad7c2	-0.0047254274
136	0xbe0e2ef4	-0.13885099
137	0xbd85949a	-0.06522484
138	0x3d51bf01	0.051207546
139	0xbe14cc5a	-0.14531079
140	0xbde1bde6	-0.110225484
141	0x3cb3ceda	0.02194922
142	0x3d3360b1	0.043793384
143	0xbdc3fe1a	-0.095699504
144	0x3d901833	0.07035866
145	0x3de3154e	0.11088048
146	0x3e2156ef	0.15755819
147	0x3e05f061	0.13079979
148	0x3dffe1ce	0.12494241
149	0xbd79b2a2	-0.060961373
150	0x3d9df38a	0.07712467
151	0xbd06d6bc	-0.03291963
152	0x3d2de312	0.04245288
153	0x3e1b17bb	0.15145771
154	0x3c593660	0.013257593
155	0x3d755fa8	0.059905678
156	0x3e002f81	0.12518121
157	0xbe1c63e8	-0.15272486
158	0xbd8f983b	-0.070114575
159	0x3c39ac26	0.011332547
160	0xbdfc5346	-0.12320571
161	0x3de4086b	0.11134418
162	0x3d398fac	0.04530303
163	0xbdc9a7ce	-0.09846459
164	0xbe1c0e4f	-0.15239833
165	0x3e2ce944	0.16885859
166	0xbc500f6b	-0.012698988
167	0xbdc8cece	-0.0980507
168	0xbdc14424	-0.09436825
169	0x3df089c3	0.11745026
170	0x3d46e527	0.04855838
171	0x3de33814	0.110946804
172	0x3c9c3429	0.01906784
173	0x3d0395b1	0.03212518
174	0xbc8098be	-0.015697833
175	0xbd0eb192	-0.034837313
176	0x3d896b64	0.06709936
177	0x3d8ffb36	0.070303366
178	0xbdea069b	-0.11427041
179	0x3e26f6b1	0.16305043
180	0xbd50dfd0	-0.050994694
181	0xbdf0fb2e	-0.11766659
182	0xbe231de1	-0.15929367
183	0x3df0a752	0.11750664
184	0xbd46b55c	-0.0485128
185	0xbe2c891a	-0.16849175
186	0x3e2bd4a4	0.16780335
187	0xbc4d0118	-0.012512468
188	0x3dea8a63	0.114521764
189	0xbd87f02e	-0.066376075
190	0xbc1c4024	-0.009536777
191	0xbdedc6f7	-0.11610215
192	0x3d4b07fc	0.04956816
193	0xbd275f03	-0.040862095
194	0x3d932597	0.07184904
195	0x3d849be6	0.06475048
196	0x3b001fcd	0.0019550205
197	0xbdb4da75	-0.0883073
198	0xbdc8ce8a	-0.09805019
199	0xbcd33a81	-0.025784733
200	0xbe2c0424	-0.16798455
201	0x3d86b1a2	0.065768495
202	0x3d9f9a87	0.077931456
203	0x3c548d9c	0.012973215
204	0xbdebfc22	-0.115227
205	0x3dd353c3	0.10318711
206	0x3da51fb2	0.08062686
207	0x3d99000b	0.07470711
208	0x3df7eb9d	0.121054865
209	0xbe15acfd	-0.14616771
210	0xbde6b239	-0.11264462
211	0x3b65c57c	0.0035060337
212	0xbdfe7934	-0.124254614
213	0xbe1d8942	-0.15384391
214	0xbdbdbdd5	-0.09264723
215	0x3e2b870a	0.16750732
216	0x3d6d36c3	0.057913553
217	0xbda028d0	-0.07820284
218	0xbd72cea0	-0.059279084
219	0x3d9b14d0	0.07572329
220	0x3dfd2b78	0.12361807
221	0xbceb0cff	-0.02869272
222	0xbd233d8d	-0.03985362
223	0x3e1629dd	0.14664407
224	0x3da4d1a8	0.08047801
225	0xbe22dc54	-0.15904361
226	0xbdf3a14a	-0.11895998
227	0x3dafd6f3	0.0858592
228	0x3db97533	0.09055557
229	0xbdf3eddf	-0.11910605
230	0x3d890482	0.06690313
231	0xbddc53d9	-0.1075818
232	0xbd2ee9b6	-0.042703353
233	0xbe0aa1b0	-0.13538241
234	0xbd500fb3	-0.050796222
235	0xbdbc452d	-0.09192882
236	0xbe1762ad	-0.14783736
237	0xbd3951bd	-0.045243967
238	0x3da6c1c5	0.08142427
239	0x3ca6b1b6	0.020348411
240	0xb85ace2f	-5.2167274e-05
241	0xbe0dd6f8	-0.13851535
242	0xbc371c94	-0.011176247
243	0xbdef1653	-0.1167418
244	0x3d0ed1d1	0.034868065
245	0xbccb32cf	-0.0248045
246	0x3d94bc48	0.07262474
247	0x3dee89b9	0.11647362
248	0x3e1928fe	0.14957044
249	0x3e08d048	0.13360703
250	0x3e08a138	0.1334275
251	0x3db561c2	0.088565364
252	0x3d8c5bb8	0.068534315
253	0xbd0bba34	-0.034113124
254	0x3acd685c	0.001567136
255	0xbd61d21f	-0.055132028

convs.1.bias f4 [100]
0	0x00000000	0.0
1	0xbbf3d20e	-0.007440812
2	0xbbf3d6a3	-0.007441358
3	0x3b35705d	0.0027685382
4	0x00000000	0.0
5	0x00000000	0.0
6	0x00000000	0.0
7	0xbb352999	-0.0027643202
8	0x3b30729b	0.002692378
9	0x00000000	0.0
10	0x00000000	0.0
11	0x00000000	0.0
12	0x00000000	0.0
13	0x00000000	0.0
14	0xbc88cec7	-0.016700162
15	0x00000000	0.0
16	0x00000000	0.0
17	0x00000000	0.0
18	0x3b2bcfa0	0.0026216283
19	0x3b2628dd	0.0025353946
20	0x00000000	0.0
21	0x3bf3d580	0.0074412227
22	0xbc88c978	-0.01669763
23	0xbc88cf1d	-0.016700322
24	0xbc88cf63	-0.016700452
25	0x3b2caa38	0.0026346575
26	0x3b37fd86	0.0028074696
27	0x3b3a4f63	0.0028428666
28	0x00000000	0.0
29	0xbbf3d5a7	-0.007441241
30	0xbc88ce8e	-0.016700055
31	0x00000000	0.0
32	0x00000000	0.0
33	0x3b39d232	0.0028354046
34	0x00000000	0.0
35	0x3b2b41cc	0.0026131747
36	0x3b3d0305	0.002884091
37	0x00000000	0.0
38	0x3b351a81	0.0027634206
39	0x3b30b4bb	0.0026963193
40	0xbbf3d696	-0.007441352
41	0x3b3c5dd5	0.0028742452
42	0xbbf3d662	-0.007441328
43	0xbc88cf46	-0.016700398
44	0x3b3789ee	0.0028005796
45	0xbc88cf92	-0.01670054
46	0xbc88cf22	-0.016700331
47	0x00000000	0.0
48	0x3b2c7e04	0.0026320228
49	0x00000000	0.0
50	0xbb96a67f	-0.0045974846
51	0x3b366744	0.0027832547
52	0x3bf3d6aa	0.0074413614
53	0x3b39a753	0.0028328493
54	0x3bf3d62e	0.0074413037
55	0x3b32ffdc	0.0027313149
56	0x3bf3d185	0.007440748
57	0x3bf3d694	0.007441351
58	0x3b366d01	0.0027835967
59	0x3b35b433	0.0027725815
60	0x3b2d3aa3	0.0026432655
61	0x3b353d83	0.0027655072
62	0x00000000	0.0
63	0xbc88cea6	-0.0167001
64	0x00000000	0.0
65	0x00000000	0.0
66	0xbc88cf0a	-0.016700286
67	0x00000000	0.0
68	0xbbf3d60e	-0.007441289
69	0xbbf3d69b	-0.0074413544
70	0x00000000	0.0
71	0x00000000	0.0
72	0x00000000	0.0
73	0xbc76ed98	-0.015071295
74	0x3b559a0c	0.003259304
75	0x00000000	0.0
76	0x3b2eb643	0.002665893
77	0x00000000	0.0
78	0x00000000	0.0
79	0x00000000	0.0
80	0x3b2fbe13	0.0026816174
81	0x00000000	0.0
82	0xbc166e45	-0.009181564
83	0xbc9687ac	-0.01837524
84	0x3b3d2e48	0.0028866697
85	0x3b2f4221	0.0026742297
86	0x00000000	0.0
87	0xbbf3d5b3	-0.0074412464
88	0xbc88cf00	-0.016700268
89	0xbc88cf3e	-0.016700383
90	0xbc88ce8a	-0.016700048
91	0x00000000	0.0
92	0x00000000	0.0
93	0x00000000	0.0
94	0x3b4016db	0.0029310498
95	0xbc88cf63	-0.016700452
96	0xbbc85539	-0.006113675
97	0xbba2e58d	-0.0049712122
98	0x00000000	0.0
99	0x00000000	0.0

convs.1.lin.weight f4 [100, 100]
0	0x3d95f013	0.07321181
1	0xbe117129	-0.14203323
2	0xbd1568ec	-0.036477014
3	0xbcf4f63e	-0.029902574
4	0x3d09cfaa	0.03364531
5	0xbdf03e4c	-0.11730632
6	0xbd7ee564	-0.062230483
7	0x3dd94a4b	0.106098734
8	0xbe172da5	-0.14763506
9	0x3cb967f3	0.022632575
10	0x3de1af5b	0.110197745
11	0xbd991061	-0.07473827
12	0xbe266944	-0.16251093
13	0xbbe3ff2b	-0.0069579086
14	0xbe034fb2	-0.1282337
15	0x3d8a40de	0.06750654
16	0x3dd4c778	0.10389608
17	0xbda6ba5b	-0.08141013
18	0xbe12ad68	-0.14323962
19	0xbe0f4c9e	-0.13994071
20	0x3df54432	0.11975898
21	0x3dab19c2	0.08354522
22	0xbe2ac189	-0.1667539
23	0x3dda478d	0.106581785
24	0xbd8d3c98	-0.06896323
25	0x3d630a79	0.05542991
26	0xbdfca865	-0.12336806
27	0x3d27fed8	0.041014522
28	0xbdb3b133	-0.087740324
29	0xbb310456	-0.002701064
30	0xbc7c8a44	-0.0154138245
31	0x3e1b0440	0.1513834
32	0x3d1c26ac	0.038122818
33	0x3cb11587	0.02161671
34	0x3e129bc4	0.14317232
35	0xbda72ef7	-0.08163255
36	0xbd09ed22	-0.033673413
37	0x3dbcca58	0.092182815
38	0x3e0b4134	0.13599092
39	0x3dbb5c22	0.09148432
40	0x3e2122c0	0.15735912
41	0x3e172a62	0.14762262
42	0x3dad038c	0.08447942
43	0x3e1fe558	0.15614831
44	0xbe2ccca3	-0.16874938
45	0x3e25d879	0.16195859
46	0xbd952c60	-0.072838545
47	0xbd98eae4	-0.07466677
48	0xbdcec194	-0.10095516
49	0xbe25f9be	-0.1620855
50	0xbdfe3e8d	-0.12414274
51	0xbd95b24b	-0.07309397
52	0xbc9e3694	-0.019313134
53	0x3e093d95	0.13402398
54	0xbc51d152	-0.0128062535
55	0xbafbe018	-0.0019216565
56	0x3e1252f6	0.1428946
57	0xbd968d42	-0.073511615
58	0xbd15c86c	-0.03656809
59	0x3dbfaf3a	0.09359594
60	0xbdbaf0f7	-0.09127992
61	0x3d66f809	0.05638889
62	0xbe02d439	-0.12776269
63	0x3e0f6cbb	0.14006321
64	0x3d6b03d3	0.057376694
65	0xbdecd91f	-0.1156485
66	0x3c717755	0.014737924
67	0xbd5b982d	-0.053611923
68	0x3bdf2efc	0.006811021
69	0xbe1c8417	-0.15284763
70	0x3dce76b8	0.100812376
71	0xbe2de020	-0.16980028
72	0x3de85404	0.1134415
73	0x3d9db10a	0.07699783
74	0xbe00860b	-0.12551133
75	0x3e021b63	0.1270576
76	0xbdf2e4c1	-0.118600376
77	0xbe17263e	-0.14760682
78	0x3c3286c2	0.010896387
79	0xbda40c39	-0.08010144
80	0xbcd514b0	-0.026010841
81	0x3e1d3e87	0.15355884
82	0x3e15344c	0.14570731
83	0xbdfc19e7	-0.12309628
84	0xbdfa85c2	-0.122325435
85	0xbe27e727	-0.16396771
86	0xbe1b2ff5	-0.15155013
87	0xbe0181e9	-0.12647213
88	0xbe16c9e0	-0.14725447
89	0xbd19f879	-0.037590478
90	0x3e217177	0.1576594
91	0xbd34e95f	-0.044167873
92	0x3d49d13c	0.049271807
93	0xbd2300d9	-0.03979573
94	0x3d8e7da9	0.069575615
95	0xbe0932ec	-0.13398331
96	0xbd132967	-0.035928156
97	0x3ddc7f7b	0.107665025
98	0x3def349d	0.11679957
99	0xbcb914fc	-0.022593014
100	0x3d1a92ff	0.037737843
101	0x3d60d431	0.05488986
102	0x3c94b98d	0.018154884
103	0xbdfdd407	-0.12393957
104	0xbd96d27f	-0.07364368
105	0xbcc5b9b6	-0.024136405
106	0xbe0488fb	-0.12942879
107	0x3e26d9e0	0.1629405
108	0xbde104b5	-0.10987226
109	0x3dd44359	0.10364408
110	0xbd97994e	-0.074022874
111	0xbdd100fa	-0.102052644
112	0xbdf62ac6	-0.12019877
113	0xbaabcd9e	-0.0013107543
114	0xbe15a01e	-0.14611861
115	0x3d2aa5da	0.041662075
116	0xbe1b2201	-0.1514969
117	0x3d0b82de	0.03406035
118	0x3c789917	0.015173218
119	0xbe1c5c42	-0.15269569
120	0x3e0c2bb4	0.13688546
121	0x3c5b0274	0.013367284
122	0xbe189b9b	-0.14903109
123	0xbe2ee7a0	-0.17080545
124	0xbd7f7449	-0.062366758
125	0xbda4c961	-0.080462225
126	0xbcd5b4f1	-0.026087256
127	0x3d29d7ac	0.041465446
128	0xbd85bc4d	-0.06530056
129	0x3e2fba29	0.17160858
130	0xbe31676a	-0.17324606
131	0x3d84ddf0	0.06487644
132	0xbcd682a0	-0.026185334
133	0xbc98ad96	-0.01863746
134	0x3de98f82	0.11404325
135	0xbdaebfdf	-0.0853269
136	0x3e10fe82	0.14159587
137	0x3da757a8	0.08171016
138	0x3daa9172	0.08328523
139	0xbc518a0c	-0.012789261
140	0x3dc7bab4	0.09752408
141	0xbe1549fe	-0.14579007
142	0x3e0bc683	0.13649945
143	0xbd554b72	-0.052073903
144	0x3d8914f3	0.06693449
145	0x3e208ac5	0.15677936
146	0xbcc86a76	-0.024464827
147	0x3dc68753	0.0969378
148	0xbda51577	-0.08060735
149	0xbd0243a6	-0.031802796
150	0x3d07255e	0.03299462
151	0xbe113517	-0.14180408
152	0xbd1d9fbb	-0.03848241
153	0x3daadd99	0.08343048
154	0x3dbc755c	0.09202072
155	0xbc3dccca	-0.01158447
156	0x3dfd6779	0.123732515
157	0xbdcb488b	-0.09925946
158	0x3cccb26b	0.02498742
159	0xbcb36ac8	-0.021901503
160	0x3e170bf7	0.14750658
161	0xbdea2c36	-0.11434214
162	0x3b3d0e01	0.0028847458
163	0xbdc49539	-0.095987745
164	0xbdcd1b4b	-0.10014971
165	0x3d49a68c	0.049231097
166	0xbe30319f	-0.17206429
167	0x3d85620c	0.065128416
168	0x3e171534	0.14754182
169	0x3de0e973	0.10982027
170	0xbdcf0341	-0.101080425
171	0xbe2d81d0	-0.16944051
172	0xbdbadda7	-0.09124308
173	0xbd1ff394	-0.039050654
174	0xbceb4728	-0.028720453
175	0x3de73d96	0.112910435
176	0x3dc3ebe5	0.09566478
177	0xbe22b687	-0.15889941
178	0xbd831733	-0.06400909
179	0x3df3a003	0.11895754
180	0x3c63148f	0.013859882
181	0xbd30f57f	-0.043202873
182	0x3dda2686	0.10651879
183	0x3dcd6f25	0.10030965
184	0x3cf0677d	0.029346222
185	0x3e0663e3	0.13124041
186	0xbd784505	-0.060612697
187	0xbccbffcd	-0.024902249
188	0x3c2107f3	0.009828555
189	0xbc057799	-0.00814619
190	0x3da38bfa	0.07985683
191	0x3d4b0986	0.04956963
192	0xbca1779c	-0.019710355
193	0x3d939bd6	0.07207458
194	0xbdad7f2f	-0.08471524
195	0xbd342473	-0.043980073
196	0x3dd94008	0.10607916
197	0x3cc665ec	0.024218522
198	0x3cf7f6e2	0.03026909
199	0xbc839f9e	-0.016067322
200	0xbe03e2bc	-0.12879461
201	0x3d9fcb34	0.0780243
202	0xbcd276e7	-0.025691463
203	0xbdac2893	-0.084061764
204	0x3e0229b1	0.12711217
205	0x3e085d4d	0.13316841
206	0x3dcb0339	0.09912724
207	0x3e127083	0.14300732
208	0xbd883897	-0.06651419
209	0x3de76c7b	0.11299988
210	0x3e00f844	0.12594706
211	0x3e30f72f	0.17281793
212	0xbe207ec8	-0.15673363
213	0x3d8e52e7	0.06949406
214	0x3e1e43b8	0.1545552
215	0xbe2adb32	-0.16685179
216	0xbde5e536	-0.11225359
217	0x3cafeaec	0.021474324
218	0x3c6d4972	0.014482843
219	0xbdc22082	-0.094788566
220	0x3e2925b7	0.16518293
221	0xbdde50b3	-0.10855236
222	0x3d8649f9	0.06557078
223	0xbdc380e5	-0.09546069
224	0x3e252fba	0.16131487
225	0xbca3ca1c	-0.019993834
226	0x3d236367	0.03988972
227	0x3c9ff787	0.01952721
228	0x3c5ced2c	0.013484281
229	0xbdc9bfb5	-0.09851018
230	0x3ca1f309	0.019769209
231	0x3db50fe6	0.08840923
232	0xbe15dd7a	-0.14635268
233	0x3e18afed	0.1491086
234	0xbe1a2f87	-0.15057193
235	0x3de2799e	0.11058353
236	0xbcb66603	-0.02226544
237	0x3a52257f	0.00080164516
238	0xbd626f79	-0.05528209
239	0xbdf53485	-0.11972908
240	0x3c025faa	0.007957378
241	0x3db8bb26	0.09020071
242	0x3db824b5	0.08991376
243	0xbe239d85	-0.15978058
244	0x3d9ab88c	0.07554731
245	0x3e182460	0.14857626
246	0xbda66e2d	-0.08126483
247	0x3dd7f8d3	0.10545506
248	0xbb4238bb	-0.0029635865
249	0xbd9546d8	-0.07288903
250	0xbe1b0e21	-0.15142109
251	0x3e301a8b	0.17197625
252	0xbd552fa1	-0.052047376
253	0xbd1cc05c	-0.038269386
254	0x3c9d0f98	0.019172475
255	0x3cacdead	0.021102274

postprocess1.weight f4 [2, 100]
0	0x42196c69	38.35587
1	0x42884b2a	68.146805
2	0xc20aec4c	-34.73076
3	0xc302f7b5	-130.9676
4	0x42d73274	107.59854
5	0x415bcc9d	13.737454
6	0x4280b79e	64.35863
7	0xc2e6d9d9	-115.42548
8	0xc2a922c5	-84.56791
9	0x42ef306b	119.59457
10	0x42d5e876	106.954025
11	0xc2be3658	-95.10614
12	0xc1ced035	-25.851664
13	0xc2999b9c	-76.803925
14	0xc30aefc1	-138.93654
15	0xc3326c0c	-178.42206
16	0xc27976a3	-62.365856
17	0xc120f4bf	-10.059752
18	0x436979e6	233.47617
19	0x42772fa6	61.79653
20	0xc29c6d60	-78.21362
21	0x42478ae5	49.88564
22	0xc10fbc39	-8.983453
23	0xc1c5b0c3	-24.71131
24	0xc33e90fb	-190.56633
25	0x42b6ad51	91.33851
26	0x41e3cd15	28.475138
27	0xc348600f	-200.37523
28	0xc3973f51	-302.49466
29	0xc22ec58f	-43.69293
30	0x42cd90f1	102.78309
31	0xc2fad0c7	-125.40777
32	0xc1d6bff1	-26.843721
33	0x430abc8d	138.73653
34	0x42d0ad67	104.33868
35	0xc25e2ef8	-55.545868
36	0x43319e86	177.61923
37	0x430886d2	136.52664
38	0xc2dd136e	-110.53795
39	0xc2fed4b0	-127.415405
40	0xc34da261	-205.6343
41	0xc33309f6	-179.03891
42	0xc270b131	-60.17304
43	0x430fecfb	143.9257
44	0xc2e19293	-112.78628
45	0x42fe7bd3	127.241844
46	0xc1dcc13b	-27.59435
47	0x42e76d4f	115.71349
48	0xc2dc4bef	-110.14831
49	0x4180490f	16.035673
50	0x42a4a896	82.32927
51	0xc1a51ad9	-20.63811
52	0xc3a56784	-330.80872
53	0x42c6a5bb	99.32369
54	0x426eccdb	59.700054
55	0xc293e981	-73.95606
56	0xc2f46c3e	-122.21141
57	0xc361cd95	-225.80305
58	0xc3206813	-160.40654
59	0xc2b6d1ba	-91.40962
60	0x43068611	134.5237
61	0xc2beb73c	-95.35788
62	0xc32a6503	-170.39458
63	0xc3637cea	-227.48795
64	0x42ebc32a	117.88118
65	0xc2dfd51e	-111.916245
66	0x42a4b6f3	82.35732
67	0x432c4869	172.28285
68	0xc371d4f5	-241.83186
69	0x422fec1b	43.98057
70	0xc329646a	-169.39224
71	0x433508af	181.03392
72	0x430516c9	133.089
73	0x42d42146	106.06499
74	0x431ded87	157.92784
75	0x42d01b55	104.05338
76	0xc26771e1	-57.86121
77	0x4280c54c	64.385345
78	0x42ffcf73	127.905174
79	0xc2342853	-45.03938
80	0x42c8a0eb	100.31429
81	0xc30802bc	-136.01068
82	0x419ff335	19.993753
83	0x417dbdb0	15.85881
84	0x41254569	10.329446
85	0x428a8455	69.25846
86	0xc2f21587	-121.042046
87	0x433aa27d	186.63472
88	0x431e2eb8	158.1825
89	0xc314f683	-148.96294
90	0x42afa6b2	87.82558
91	0x430953df	137.32762
92	0x435c8da3	220.55327
93	0xc13e6e26	-11.901892
94	0x42a01cb9	80.0561
95	0xc2928182	-73.252945
96	0xc3057833	-133.46953
97	0x42f653a4	123.16336
98	0x4364e4f9	228.89442
99	0xc2c3cad9	-97.89619
100	0x42191fbb	38.280987
101	0x42880e1b	68.02755
102	0xc20b3888	-34.805206
103	0xc302fec2	-130.99515
104	0x42d74066	107.62578
105	0x415c4405	13.766606
106	0x4280e2e3	64.44314
107	0xc2e6b2fd	-115.34959
108	0xc2a92083	-84.5635
109	0x42ef5f60	119.68628
110	0x42d5d774	106.92081
111	0xc2be3d6a	-95.11995
112	0xc1cf07bd	-25.878778
113	0xc299a036	-76.81291
114	0xc30af0b8	-138.9403
115	0xc3324d9f	-178.3032
116	0xc27924ba	-62.285866
117	0xc122a419	-10.165063
118	0x43697591	233.45924
119	0x42777ad7	61.86996
120	0xc29c905b	-78.281944
121	0x42482858	50.0394
122	0xc11059a0	-9.021881
123	0xc1c63859	-24.777514
124	0xc33e91db	-190.56975
125	0x42b67c7f	91.24316
126	0x41e37ba4	28.435371
127	0xc348620d	-200.38301
128	0xc3973ec2	-302.4903
129	0xc22e71cd	-43.611134
130	0x42cd85d0	102.76135
131	0xc2faa7ab	-125.32748
132	0xc1d67925	-26.809153
133	0x430ac298	138.76013
134	0x42d0a96a	104.33089
135	0xc25dcd09	-55.45023
136	0x43318781	177.52931
137	0x43085970	136.34937
138	0xc2dd623a	-110.69185
139	0xc2feea88	-127.45807
140	0xc34d9dc4	-205.61627
141	0xc332ed42	-178.92679
142	0xc270c553	-60.1927
143	0x430fd3b4	143.82697
144	0xc2e18d21	-112.77564
145	0x42fe77e8	127.23419
146	0xc1dd784e	-27.683743
147	0x42e73da5	115.6204
148	0xc2dc7cdd	-110.24387
149	0x41812116	16.141155
150	0x42a4d1f0	82.410034
151	0xc1a52cb5	-20.64683
152	0xc3a569ea	-330.82745
153	0x42c6cfc5	99.4058
154	0x426e6367	59.597073
155	0xc293c57d	-73.88572
156	0xc2f43d3b	-122.11959
157	0xc361d170	-225.81812
158	0xc3206bae	-160.42062
159	0xc2b6b2ab	-91.34896
160	0x43068238	134.50867
161	0xc2bea527	-95.32256
162	0xc32a5920	-170.34814
163	0xc3636e8b	-227.43181
164	0x42ec1d34	118.05704
165	0xc2dfd2f4	-111.91202
166	0x42a4b08e	82.34483
167	0x432c3167	172.19298
168	0xc371cc07	-241.79698
169	0x422fbd13	43.934643
170	0xc32968e4	-169.40973
171	0x4334febe	180.99509
172	0x43051118	133.06677
173	0x42d44e0e	106.15245
174	0x431deede	157.93307
175	0x42d02552	104.07289
176	0xc267b712	-57.92878
177	0x4281052f	64.510124
178	0x42fff6c5	127.98197
179	0xc2337131	-44.86054
180	0x42c8ad0e	100.338
181	0xc307d66b	-135.83757
182	0x41a043fc	20.033195
183	0x417d592c	15.8342705
184	0x4126c307	10.422614
185	0x428ad551	69.41663
186	0xc2f25097	-121.1574
187	0x433a7ec7	186.49522
188	0x431e3f31	158.24684
189	0xc314f2cd	-148.94844
190	0x42afb610	87.85559
191	0x43093635	137.21175
192	0x435c9ae4	220.60504
193	0xc13f0887	-11.939582
194	0x429fdcd9	79.93134
195	0xc2928b00	-73.271484
196	0xc3058234	-133.5086
197	0x42f6555a	123.1667
198	0x4364f153	228.94267
199	0xc2c3e7c1	-97.952644

postprocess1.bias f4 [2]
0	0xc11b4e7c	-9.706661
1	0xc11ad4a0	-9.67691

updates.0.weight_ih f4 [300, 100]
0	0xbd994b68	-0.07485086
1	0xbdb7e34b	-0.089788996
2	0xbd96f1d3	-0.07370343
3	0x3c9c79cd	0.019101048
4	0x3d908037	0.07055705
5	0xbb698000	-0.0035629272
6	0x3d0f48e3	0.03498162
7	0xbd94ccf3	-0.072656535
8	0x3d57f6c7	0.05272558
9	0x3dbafe15	0.091304936
10	0xbcee0660	-0.029055774
11	0x3d79d110	0.060990393
12	0xbd4eb1ca	-0.05046252
13	0xbd9d933b	-0.076940976
14	0x3d10e91a	0.035378553
15	0x3d3c15e7	0.045919325
16	0x3d0633c0	0.032764196
17	0xbd5914d0	-0.052998364
18	0x3b288b9a	0.0025717975
19	0xbcd4c8ad	-0.025974596
20	0xbd86c39d	-0.06580279
21	0xbc6bf027	-0.0144005185
22	0x3d8edbf7	0.06975549
23	0x3cce1e7a	0.025161017
24	0xbdc05343	-0.09390881
25	0xbdb90c0d	-0.09035502
26	0x3d271120	0.040787816
27	0x3da18d9b	0.07888337
28	0x3d5b7bf7	0.05358502
29	0x3d816ed5	0.06319968
30	0x3d22eccd	0.039776612
31	0x3d839bb8	0.06426185
32	0x3d90cd53	0.070704125
33	0xbd639aea	-0.05556766
34	0x3da3a4ea	0.07990439
35	0xbac5e933	-0.0015099406
36	0x3c95d820	0.018291533
37	0xbd894bea	-0.067039326
38	0x397e399a	0.00024244786
39	0xbd334f4d	-0.0437768
40	0xbd75676d	-0.059913088
41	0x3cb1767a	0.02166294
42	0x3d8ff0a3	0.0702832
43	0xbdaae425	-0.08344296
44	0x3d962877	0.07331937
45	0xbcf45660	-0.029826343
46	0x3d501cb3	0.05080862
47	0xbd1ba543	-0.037999403
48	0x3dcbd553	0.09952798
49	0xbcfa858d	-0.03058126
50	0x3d5ce627	0.053930428
51	0x3cb958ed	0.02262541
52	0xbd81bddd	-0.06335042
53	0xbca80e47	-0.02051462
54	0x3d264c10	0.040599883
55	0xbc97c62d	-0.018527115
56	0x3d98d193	0.07461848
57	0xbd032673	-0.03201909
58	0xbd969782	-0.073531166
59	0xbce97d73	-0.028502202
60	0xbd309de3	-0.043119323
61	0xbcd70367	-0.02624674
62	0x3d9f465a	0.0777709
63	0xbd70f537	-0.058827605
64	0xbc7cc70d	-0.015428317
65	0xbba59d33	-0.00505414
66	0xbda21e2a	-0.079159096
67	0xbd339ca0	-0.04385054
68	0x3c8cceb3	0.017188406
69	0xbd6ae82a	-0.057350315
70	0xbd100be0	-0.035167575
71	0x3d18b68d	0.03728347
72	0x3b24eacd	0.0025164366
73	0xbc68ca00	-0.014208317
74	0xbd79d313	-0.06099231
75	0xbd87c925	-0.06630162
76	0x3dab2333	0.08356323
77	0xbc30b067	-0.010784245
78	0xbdc1dbf5	-0.094657816
79	0xbd49a533	-0.049229812
80	0x3d3b9f40	0.04580617
81	0x3dbc8a0f	0.0920602
82	0x3ce4b540	0.027918458
83	0x3d57e8c0	0.052712202
84	0x3c227f00	0.0099179745
85	0x3d1b7b9d	0.037959684
86	0x3dbfcecf	0.093656175
87	0x3ce5d733	0.028056717
88	0x3d2f02f3	0.042727422
89	0x3db35193	0.087557934
90	0xbdbddfc2	-0.09271194
91	0xbc1631e7	-0.009167171
92	0xbd763183	-0.06010581
93	0x3d827ae3	0.06371095
94	0x3cc6cd80	0.024267912
95	0x3dc76d90	0.09737694
96	0xbdae462a	-0.085094765
97	0xbda1afa0	-0.07894826
98	0xbbbec4e7	-0.0058218124
99	0xbdb56442	-0.08857013
100	0xbc54890d	-0.012972129
101	0x3cd9216d	0.026505196
102	0x3c74aa80	0.0149332285
103	0xbcae1600	-0.021250725
104	0xbd4ea073	-0.050445985
105	0x3dba928b	0.09109982
106	0xbd875a1a	-0.066089824
107	0x3d107ead	0.035277057
108	0xbce227ad	-0.02760681
109	0x3c41370d	0.01179291
110	0x3cc758ba	0.0243343
111	0xbd9505e5	-0.07276515
112	0x3d92fbd2	0.07176937
113	0x3c85e4f3	0.016344523
114	0x3da3db92	0.08000864
115	0x3c9ef8a0	0.019405663
116	0xbd6ae4a7	-0.057346966
117	0x3b5ff833	0.0034175038
118	0x3d7e2310	0.062045157
119	0xbd944f68	-0.07241708
120	0xbd4457f0	-0.047935426
121	0xbdbacbda	-0.09120913
122	0xbb5147cd	-0.0031933666
123	0x3db3358b	0.08750447
124	0x3dbf3df0	0.093379855
125	0x3d9d6f20	0.07687211
126	0x3d982b0a	0.07430084
127	0x3d04110a	0.032242812
128	0xbd6b02aa	-0.057375588
129	0xbd45f60a	-0.048330344
130	0xbd8b795d	-0.068102576
131	0x3d2ee313	0.042697024
132	0x3db29775	0.087202944
133	0xbd5c78cd	-0.053826142
134	0x3d51642a	0.051120915
135	0xbc9d033a	-0.019166578
136	0x3da41c2d	0.080131866
137	0x3d0d093d	0.03443264
138	0xbd0c2680	-0.034216404
139	0x3dac635d	0.084173895
140	0x3d828d6d	0.06374631
141	0x3b246d33	0.0025089502
142	0xbdacc88b	-0.08436688
143	0xbd6f53e0	-0.0584296
144	0x3c25404d	0.010086131
145	0xbdabe772	-0.08393754
146	0xbd6f24fa	-0.058384873
147	0x3d91853b	0.0710549
148	0x3d056777	0.032569375
149	0x3d46f100	0.04856968
150	0x3d43f857	0.047844257
151	0x3dc34127	0.09533911
152	0x3d0d29e0	0.034463763
153	0x3d47f970	0.048821867
154	0xbcf82e7a	-0.0302956
155	0x3d4d7963	0.05016459
156	0x3db40d70	0.087916255
157	0x3d80586d	0.06266866
158	0x3d4d7fda	0.050170757
159	0xbdc7b418	-0.09751147
160	0x3d66e9d7	0.05637535
161	0x3dbe395f	0.092882864
162	0x3daac66b	0.083386265
163	0xbd1b15bd	-0.037862528
164	0x3d00d75d	0.031455386
165	0xbce4485a	-0.027866531
166	0xbd88f350	-0.06687033
167	0x3d9d5c23	0.07683589
168	0xbd15d3d3	-0.036578964
169	0x3dca2c4f	0.098717324
170	0x3dab915a	0.08377333
171	0xbd982c23	-0.074302934
172	0x3d8a7420	0.0676043
173	0x3dc85347	0.09781509
174	0xbd6da0f7	-0.058014836
175	0xbcf8daad	-0.03037771
176	0xbd6c69dd	-0.057718147
177	0xbc6e2d67	-0.014537192
178	0xbcce1960	-0.025158584
179	0x3d43b3e7	0.04777899
180	0xbb0a8e9a	-0.0021142126
181	0xbd195b5a	-0.037440635
182	0x3dc8ad28	0.09798652
183	0x3d8b363f	0.06797456
184	0xbdb89c1f	-0.09014153
185	0xbd6ba563	-0.057530772
186	0xbd8f997d	-0.070116974
187	0x3d974607	0.073864035
188	0xbb269767	-0.0025419833
189	0xbd8c6882	-0.06855871
190	0x3d84f26d	0.064915515
191	0xbd1b9b23	-0.037989747
192	0x3cc262c0	0.023728728
193	0xbccb29d3	-0.024800217
194	0xbcc80647	-0.024417056
195	0xbd760363	-0.060061824
196	0x3a23a400	0.00062423944
197	0xbba0e980	-0.004910648
198	0x3da9bd33	0.0828804
199	0xbd8de4ad	-0.06928382
200	0x3d68bdaa	0.056821503
201	0x3c491f9a	0.012275601
202	0xbd326c03	-0.04356004
203	0x3dbdca58	0.0926711
204	0x3bad679a	0.0052918913
205	0x3c567ea7	0.01309172
206	0x3d9a5640	0.07535982
207	0xbcec3420	-0.028833449
208	0xbd8a6ac2	-0.06758644
209	0xbd3fde9d	-0.04684316
210	0x3d90134f	0.07034933
211	0x3dc787bf	0.097426884
212	0x3bd9584d	0.0066328407
213	0x3d8d60f0	0.06903255
214	0x3db5c66d	0.08875737
215	0xbd1c943a	-0.038227297
216	0x3db10387	0.08643251
217	0x3c5b4680	0.013383508
218	0x3d34a113	0.044098925
219	0xbd90c197	-0.07068174
220	0x3d36e9f0	0.044656694
221	0xbd3bf130	-0.04588431
222	0xbd8df060	-0.069306135
223	0x3d897c53	0.06713166
224	0xbd856c5a	-0.06514807
225	0x3ba22ee7	0.004949439
226	0x3db139e0	0.08653617
227	0xbd63c8d0	-0.05561143
228	0xbcd21a47	-0.025647296
229	0xbd56d48a	-0.052448787
230	0x3d0d882a	0.034553684
231	0xbda71243	-0.0815778
232	0xbd6686d7	-0.056280937
233	0xbc8a7fe0	-0.016906679
234	0xbd7a1177	-0.061051812
235	0xbd9bd912	-0.07609762
236	0x3d149037	0.036270346
237	0xbcfcf2cd	-0.030877495
238	0xbcc468c7	-0.023975743
239	0xbd8537d8	-0.06504792
240	0x3cce7b13	0.02520517
241	0xbd885195	-0.066561855
242	0xbdbfb662	-0.09360959
243	0x3cafb3e0	0.021448076
244	0x3db361af	0.08758866
245	0xbca91df3	-0.020644164
246	0x3d980f83	0.074248336
247	0x3dca2048	0.098694384
248	0x3dbbfe2a	0.09179337
249	0xbd3d4753	-0.0462106
250	0xbda7bcdf	-0.08190321
251	0x3d866548	0.065622866
252	0xbd92ebd5	-0.07173888
253	0xbbe1cf00	-0.0068911314
254	0x3da308f5	0.07960693
255	0xbd30451a	-0.04303465

updates.0.weight_hh f4 [300, 100]
0	0xbd2c22a7	-0.042025235
1	0xbca0d6ed	-0.019633735
2	0xbdbf568a	-0.09342678
3	0x3c134ac0	0.00898999
4	0xbdbbc7ca	-0.09168966
5	0xbd3c6ad3	-0.046000313
6	0xbd2b4960	-0.041818023
7	0xbc3cd900	-0.011526346
8	0x3d3431a3	0.04399265
9	0x3dcba2f0	0.09943187
10	0x3d13f66d	0.03612368
11	0xbd2078fd	-0.039177883
12	0x3c9a5dcd	0.018843556
13	0x3c2ae980	0.010431647
14	0xbb479433	-0.0030453324
15	0xbcc1c2fa	-0.023652542
16	0x3d5012f0	0.05079931
17	0x3dafcd52	0.085840836
18	0x3d11ef00	0.03562832
19	0x3d235da7	0.039884236
20	0xbdc54990	-0.096331716
21	0x3cb9f61a	0.022700358
22	0x3dbf9a13	0.09355559
23	0x3cd519cd	0.02601328
24	0x3dc6fc48	0.097160876
25	0xbbdddae7	-0.00677048
26	0xbd09cafd	-0.03364085
27	0x3d883fed	0.06652818
28	0xbd61cf27	-0.055129196
29	0xbd48ccdd	-0.049023498
30	0xbc645380	-0.013935924
31	0x3d6a74e0	0.057240367
32	0x3d7addbd	0.061246622
33	0xbda43f6b	-0.080199085
34	0x3d9eae98	0.07748145
35	0x3da94cd8	0.0826661
36	0x3d96731b	0.073461734
37	0x3daba1a8	0.08380443
38	0x3d674363	0.05646075
39	0xbca47353	-0.020074522
40	0xbd9e401b	-0.07727071
41	0x3da7923f	0.08182191
42	0xbd893d52	-0.06701149
43	0x3d63785a	0.055534698
44	0xbdb90a62	-0.090351835
45	0xbdbde33d	-0.09271858
46	0xbca5418d	-0.020172859
47	0x3c0dfa00	0.008665562
48	0x3d1d8a90	0.03846222
49	0x3d97a183	0.07403853
50	0xbd651133	-0.055924606
51	0xbd826f02	-0.06368829
52	0xbdbc27e7	-0.09187298
53	0x3ca61a53	0.020276224
54	0x3d709853	0.058739018
55	0xbd499423	-0.04921354
56	0xbd8b888d	-0.06813154
57	0x3d2d7270	0.042345464
58	0xbd8e08bd	-0.069352604
59	0xbc555f9a	-0.0130232815
60	0xbdb5ae7f	-0.08871173
61	0x3dbaa925	0.09114293
62	0x3b68d533	0.0035527467
63	0xbd8b8d70	-0.068140864
64	0x3d9a0dd7	0.07522171
65	0xbd6bb750	-0.057547867
66	0x3d906e6b	0.070523106
67	0xbd2b9413	-0.04188926
68	0x3d89a402	0.06720735
69	0xbd983c0b	-0.07433327
70	0xbd329927	-0.04360309
71	0xbd8a781f	-0.067611925
72	0x3c9a3bb3	0.018827295
73	0x3cbf829a	0.023377705
74	0xbc83567a	-0.016032446
75	0xbb8970cd	-0.004194355
76	0xb9a0d800	-0.0003067851
77	0x3d97b1ab	0.07406934
78	0xbb01af00	-0.0019788146
79	0xbd7ec233	-0.06219692
80	0xbda21978	-0.07915014
81	0x3d78326a	0.060594954
82	0x3c40c9da	0.011766875
83	0xbd927b93	-0.07152476
84	0xbd8e0412	-0.0693437
85	0x3cc20fed	0.023689235
86	0xbd8a99c2	-0.06767608
87	0x3dc9e6ed	0.09858499
88	0xbd4924f0	-0.049107492
89	0x3cb8160d	0.022471452
90	0x3cbdf99a	0.023190308
91	0xbdc4dc48	-0.09612328
92	0xbd18fad0	-0.03734857
93	0xbd6b3d9d	-0.057431806
94	0x3cc560b3	0.024093961
95	0xbdba1fa3	-0.090880655
96	0xbd928567	-0.07154351
97	0xbd573dca	-0.05254916
98	0x3d19db3d	0.037562598
99	0xbdb89e97	-0.090146236
100	0xbad038cd	-0.0015886069
101	0x3cfbd1c7	0.030739678
102	0x3db915a0	0.09037328
103	0x3da5488b	0.08070477
104	0xbd8f9d23	-0.07012393
105	0xbcccf13a	-0.02501737
106	0xbd8a974a	-0.06767137
107	0x3cab39e0	0.02090162
108	0xbd4f9747	-0.05068138
109	0x3d8291d0	0.06375468
110	0x3dacda2a	0.08440049
111	0xbdccb33f	-0.09995126
112	0x3d624540	0.055241823
113	0x3d52d13a	0.051469065
114	0xbd82eee3	-0.0639322
115	0x3c9bb960	0.019009292
116	0xbd3c37f3	-0.045951795
117	0xbd7c2c67	-0.061565783
118	0x3d0b7657	0.034048405
119	0xbdcc1a53	-0.099659584
120	0xbd9f0285	-0.077641524
121	0x3d4e213d	0.050324667
122	0x3d888a88	0.06667048
123	0xbd0a4017	-0.033752527
124	0x3c91765a	0.01775663
125	0xbc1c62c0	-0.009545028
126	0xbdb50125	-0.08838109
127	0xbc5897b3	-0.013219762
128	0x3d28d7a0	0.04122126
129	0x3da56842	0.08076526
130	0x3da13dd3	0.0787312
131	0xb9d70ccd	-0.00041017533
132	0x3d77586a	0.060387053
133	0x3d8a0f0a	0.0674115
134	0xbd7e827a	-0.06213615
135	0xbcfeabad	-0.03108772
136	0x3d786e9a	0.060652353
137	0x3b66d533	0.0035222291
138	0x3db8e507	0.090280585
139	0xbdad40ed	-0.08459649
140	0x3db2d48b	0.087319456
141	0xbd3a221d	-0.04544269
142	0xbdad1fbf	-0.08453321
143	0x3ab40400	0.0013734102
144	0x3db130a5	0.08651856
145	0xbb81449a	-0.0039449455
146	0xbd07623a	-0.03305266
147	0xbd934130	-0.07190168
148	0xbbd2e01a	-0.0064354064
149	0xbca67133	-0.02031765
150	0xbd76e9f7	-0.06028172
151	0xbd892e1f	-0.0669825
152	0xbd9f95b8	-0.077922285
153	0xbd84a762	-0.06477238
154	0x3d49d41a	0.04927454
155	0xbd7683c7	-0.060184266
156	0x3dbe7acd	0.09300766
157	0xbc9ef0c0	-0.019401908
158	0xbd574aed	-0.05256169
159	0x3d191cdd	0.03738104
160	0x3d8aee92	0.06783785
161	0xbd8b931d	-0.06815169
162	0xbd66262d	-0.05618875
163	0x3d8204b7	0.063485555
164	0x3d89deda	0.06731959
165	0x3d9f41d8	0.077762306
166	0xbd7c6c73	-0.061626863
167	0xba97d19a	-0.0011582852
168	0x39f72ccd	0.0004714489
169	0x3c418a8d	0.011812818
170	0x3d805842	0.06266834
171	0xbd2c94b0	-0.042133987
172	0xbda9a58b	-0.08283528
173	0x3d97c4af	0.07410561
174	0x3d701867	0.058617022
175	0x3ca2dcd3	0.019880688
176	0xbc9dace7	-0.019247485
177	0xbd611a47	-0.0549567
178	0xbc11de73	-0.008903134
179	0x3d82a8ea	0.06379874
180	0x3d9f99e3	0.077930234
181	0xbdaa501a	-0.083160594
182	0x3ca61d53	0.020277655
183	0xbcb24273	-0.021760201
184	0xbdb859fa	-0.09001537
185	0x3d95132b	0.072790466
186	0xbdc1e313	-0.09467139
187	0x3cc333da	0.023828436
188	0x3db0ff7a	0.08642478
189	0x3d62aca3	0.05534042
190	0xbcbcd847	-0.023052348
191	0xbd72f5aa	-0.059316315
192	0x3d3c4e63	0.045973193
193	0xbd032a53	-0.032022785
194	0x3d3f24b3	0.04666586
195	0x3d42af4d	0.04753046
196	0xbd97a7e2	-0.07405068
197	0x3bcc704d	0.0062389732
198	0xbda24980	-0.07924175
199	0x3d60a943	0.05484892
200	0x3d9bc552	0.07605995
201	0xbd2b7a80	-0.041864872
202	0xbcf9e6ed	-0.030505622
203	0x3d1aa73d	0.037757147
204	0xbd726623	-0.059179436
205	0xbd8a1f57	-0.06744259
206	0xbd30a02a	-0.043121494
207	0xbdad445f	-0.084603064
208	0x3d1e0bf3	0.038585614
209	0x3dc8fbb0	0.098136306
210	0x3dbe4705	0.0929089
211	0x3dadfd9d	0.084956385
212	0xbdccc223	-0.09997966
213	0x3c01a85a	0.007913673
214	0x3d4eb897	0.050469007
215	0xbd0b189a	-0.03395901
216	0xbd710370	-0.05884117
217	0x3d2f6ada	0.04282651
218	0xbd23663d	-0.039892424
219	0x3d8f81ad	0.070071556
220	0xbd50b027	-0.050949242
221	0xbd2f1f93	-0.04275472
222	0x3d9e6557	0.07734173
223	0xbb8e564d	-0.004343784
224	0xbd9b7cd7	-0.07592171
225	0x3d592173	0.053010415
226	0x3cc1d38d	0.023660446
227	0xbc92d22d	-0.017922485
228	0xbbd29a67	-0.0064270976
229	0xbad3e600	-0.0016166568
230	0x3cc740a0	0.024322808
231	0xbcd81cda	-0.026380945
232	0xbcc6a8e7	-0.02425046
233	0xbd0682c3	-0.032839548
234	0x3ccab893	0.024746215
235	0xbb1f8533	-0.0024340868
236	0x3dc1ae1f	0.09457039
237	0x3a9d3c00	0.0011996031
238	0x3c9d155a	0.01917522
239	0x3da22a2b	0.07918199
240	0xbb27f967	-0.0025630833
241	0xbbeaa34d	-0.0071605803
242	0x3c8d76c7	0.017268552
243	0x3d8c597f	0.068530075
244	0xbdc8e600	-0.09809494
245	0xbcdf328d	-0.027245784
246	0xbc91c467	-0.017793847
247	0xbd75a490	-0.059971392
248	0xbd8c130d	-0.06839571
249	0x3da2fe47	0.07958656
250	0xbc767c40	-0.015044272
251	0xbba90900	-0.0051585436
252	0xbc316300	-0.010826826
253	0xbca87460	-0.020563304
254	0x3dbad473	0.09122553
255	0xbd8aa042	-0.06768848

updates.0.bias_ih f4 [300]
0	0x3d89725d	0.06711266
1	0xbd8e0a62	-0.06935574
2	0x3dbddd12	0.092706814
3	0xbd7dad8d	-0.06193309
4	0xbd65cd97	-0.05610427
5	0xbdc2871d	-0.09498427
6	0x3cb69913	0.022289788
7	0x3d9d3925	0.07676915
8	0x3ca4e8e7	0.020130588
9	0xbd80ad33	-0.06283035
10	0x3d836e4d	0.064175226
11	0x3bf17b9a	0.007369471
12	0x3d94c4d7	0.07264107
13	0xbd3ca777	-0.046058144
14	0x3c8ddf3a	0.017318357
15	0x3d8cc41a	0.06873341
16	0xbd8fb4a0	-0.07016873
17	0x3d7e98d7	0.06215748
18	0xbdc8ad77	-0.09798711
19	0x3db3d2d0	0.08780444
20	0xbd4caa5d	-0.04996716
21	0xbd883440	-0.06650591
22	0x3d7529b3	0.05985422
23	0xbda96c2b	-0.082725845
24	0x3d3bc560	0.04584253
25	0x3d38bcfd	0.04510211
26	0x3d1cdde3	0.038297545
27	0x3d86e0e7	0.065858655
28	0xbb432c00	-0.0029780865
29	0x3d72656d	0.05917876
30	0x3c80d1b3	0.015724992
31	0xbd52b083	-0.051437866
32	0xbcbac79a	-0.022800256
33	0x3d35c49d	0.04437696
34	0x3d040c53	0.032238316
35	0x3d8b106a	0.0679024
36	0xbd494513	-0.04913814
37	0x3da5e582	0.08100416
38	0x3d4cf7e7	0.050041106
39	0x3d899318	0.06717509
40	0x3d492be7	0.049114134
41	0xbdcc420f	-0.09973537
42	0x3da201ef	0.07910525
43	0x3d3e71ca	0.046495236
44	0x3d62df5d	0.055388797
45	0x3d8ad205	0.06778339
46	0x3cf106c7	0.029422177
47	0x3d080333	0.033206176
48	0x3dcc034b	0.099615656
49	0x3c24e44d	0.010064197
50	0xbd1baa40	-0.03800416
51	0xbc92b6f3	-0.017909503
52	0x3ccb1233	0.024788952
53	0xbdbd0683	-0.09229758
54	0xbbff511a	-0.0077916505
55	0x3cf8c07a	0.030365217
56	0x3dc11dab	0.09429487
57	0xbd357a6a	-0.044306196
58	0x3d62b40a	0.05534748
59	0x3cca08c7	0.024662388
60	0xbd24bdd0	-0.04022008
61	0xbd548b87	-0.051890876
62	0xbc1541da	-0.0091099385
63	0x3ce62d60	0.028097808
64	0xbd0e90fd	-0.03480624
65	0x3ca01a6d	0.01954385
66	0x3d8d7cc7	0.06908565
67	0x3c0ce19a	0.0085987095
68	0xbc906f27	-0.017631127
69	0x3d1a3d93	0.037656378
70	0xbd66eca7	-0.056378033
71	0x3dc3412f	0.09533917
72	0xbd88b902	-0.066759124
73	0xbd93f3ea	-0.07224257
74	0x3d743cc3	0.05962826
75	0x3a9af19a	0.001182127
76	0xbd662497	-0.05618724
77	0x3b83be33	0.0040204762
78	0xbbdae1e7	-0.0066797617
79	0x3cf267e0	0.029590547
80	0xbcd106b3	-0.02551589
81	0x3d479eb3	0.04873533
82	0xbd1b7e47	-0.037962224
83	0x3dad837a	0.08472343
84	0xbd0502da	-0.032473423
85	0x3cd5d413	0.026102101
86	0xbd464e77	-0.048414674
87	0xbd8b80aa	-0.0681165
88	0xbc1129cd	-0.008860064
89	0xbd9a9f1b	-0.07549878
90	0xbdb81c5d	-0.08989785
91	0x3dbe5c78	0.09294981
92	0xbd3e2560	-0.046422362
93	0x3dacc810	0.084365964
94	0x3d0919fd	0.03347205
95	0x3d737c17	0.059444513
96	0x3a88fb9a	0.001045096
97	0xbcc36b13	-0.023854768
98	0xbdcb4c05	-0.09926609
99	0x3d87e61b	0.06635686
100	0x3d1d916a	0.038468756
101	0xbdaef772	-0.0854329
102	0x3db4389a	0.087998584
103	0xbd47d16d	-0.04878371
104	0xbc8e472d	-0.017367924
105	0x39f7099a	0.00047118665
106	0x3bb2b69a	0.0054538967
107	0x3c426b73	0.011866438
108	0x3d17197d	0.036889542
109	0xbd947075	-0.07248012
110	0x3dac4f0b	0.08413514
111	0xbd8308aa	-0.06398137
112	0xbd5b17ea	-0.053489603
113	0xbc4094cd	-0.011754227
114	0xbcd60d40	-0.026129365
115	0xbd004170	-0.031312406
116	0xbd6de45d	-0.058079112
117	0x3d33002a	0.04370133
118	0xbd65e740	-0.05612874
119	0x3d0eaddd	0.034833778
120	0x3dc9b5ab	0.098491035
121	0x3dae4098	0.08508414
122	0xbd284730	-0.041083515
123	0x3d6dfb30	0.05810088
124	0xbc32d6e7	-0.0109154945
125	0xbce16147	-0.027512206
126	0x3dafa5b0	0.08576524
127	0x3dbaf6d5	0.09129111
128	0xbdc4d4e0	-0.09610915
129	0xbc179880	-0.009252667
130	0x3d86ec4d	0.065880395
131	0xbcf08920	-0.029362261
132	0x3cec686d	0.028858388
133	0xbca25340	-0.019815087
134	0xbd6ae547	-0.057347562
135	0x3db7c91f	0.08973908
136	0x3d8dc1aa	0.06921704
137	0x3dc8bfb7	0.09802192
138	0x3db5fc4b	0.08886012
139	0xbdbe664b	-0.092968546
140	0xbd1321f3	-0.03592105
141	0xbb82f433	-0.003996396
142	0x3cfdaca0	0.030966103
143	0xbd6e37a0	-0.058158517
144	0xbc82cce7	-0.015966846
145	0xbd4e7c27	-0.05041137
146	0x3c719a40	0.014746249
147	0x3dcaff4f	0.099119775
148	0xbcf5aaad	-0.029988611
149	0x3d08dd8a	0.0334144
150	0xbb8acfcd	-0.0042361976
151	0xba515333	-0.0007985115
152	0xba9a1467	-0.0011755348
153	0x3d33dfea	0.043914713
154	0x3d918610	0.071056485
155	0x3c3a6c27	0.011378325
156	0xbd95bc1d	-0.073112704
157	0x3d5a41c3	0.05328537
158	0x3d6865f3	0.05673785
159	0xbdc16180	-0.09442425
160	0x3be7764d	0.007063663
161	0xbd878b68	-0.066183865
162	0x3db5f797	0.08885115
163	0x3db07e5d	0.08617852
164	0x3d8cb51a	0.0687048
165	0xbd3c2e4a	-0.045942582
166	0x3d2d989d	0.04238187
167	0x3db9a665	0.0906494
168	0xbd69529a	-0.05696354
169	0x3d0c7073	0.034286927
170	0x3d7d00e3	0.061768424
171	0xbd3a7ad3	-0.04552729
172	0x3dadecaa	0.08492406
173	0x3cb76b7a	0.022390116
174	0xbc530ada	-0.012881005
175	0xbd8158ab	-0.0631574
176	0x3b416867	0.0029511692
177	0x3d966b2b	0.073446594
178	0x3cdf3933	0.027248954
179	0xbd9e0052	-0.07714905
180	0x3cb38a93	0.021916663
181	0x3dbb8c73	0.09157648
182	0xbd842140	-0.064516544
183	0x3d5f5b4a	0.05453042
184	0xbd90ccf0	-0.07070339
185	0xbc9a4473	-0.018831467
186	0xbd87a540	-0.06623316
187	0x3d444abd	0.04792284
188	0xbd047a0a	-0.032342948
189	0xbd27765a	-0.040884353
190	0xbd47b587	-0.048757102
191	0x3cc11920	0.02357155
192	0x3d59703a	0.053085543
193	0xbcc277fa	-0.02373885
194	0x3dbf46a3	0.09339645
195	0x3d86a025	0.06573514
196	0x3c9e8d73	0.019354558
197	0x3a1f2a67	0.0006071687
198	0x3d89a29b	0.06720468
199	0x3d4891b0	0.048967063
200	0xbdcb0d77	-0.099146776
201	0x3db92dcf	0.090419404
202	0x3d958152	0.073000565
203	0x3d94a3b3	0.07257786
204	0x3d854f0b	0.06509217
205	0x3da8eab3	0.0824789
206	0xbdc88183	-0.097903274
207	0x3db77827	0.08958464
208	0x3d808aa0	0.062764406
209	0xbda8cadf	-0.082418196
210	0x3d577d23	0.052609574
211	0xbc245b0d	-0.010031474
212	0xbdaf7af5	-0.08568374
213	0x3d28b7ea	0.04119102
214	0xbd9b8e25	-0.07595471
215	0xbdc6f70d	-0.0971509
216	0xbda587d0	-0.08082545
217	0xbdc5ea10	-0.096637845
218	0xba26859a	-0.00063523056
219	0xbd40162a	-0.046896137
220	0xbd990715	-0.07472054
221	0x3d95b532	0.07309951
222	0xbd3f9183	-0.04676963
223	0x3d4890ad	0.0489661
224	0xbcecdc27	-0.02891357
225	0x3d6cddb3	0.057828616
226	0x3d92a4b7	0.07160323
227	0x3d36adb0	0.044599235
228	0xbdc3ac05	-0.095542945
229	0xba924c67	-0.0011161686
230	0x3d19d08d	0.037552405
231	0x3d92f562	0.07175709
232	0xbcbba09a	-0.02290373
233	0xbcd9fba7	-0.026609255
234	0xbdbad1a0	-0.09122014
235	0x3bb507b3	0.0055245995
236	0xbc2a4380	-0.01039207
237	0xbda6ebda	-0.08150454
238	0x3b2b5a9a	0.0026146532
239	0x3bddc51a	0.006767881
240	0x3d2e76a7	0.042593624
241	0x3d413850	0.047172844
242	0x3ca5cea0	0.020240128
243	0xbd45d153	-0.04829533
244	0x3d1e2fa0	0.038619637
245	0xbd234117	-0.039856996
246	0x3dae7a7a	0.08519454
247	0x3dc80d47	0.097681575
248	0x3dabe5ef	0.08393466
249	0x3dc66ef5	0.09689132
250	0xbd7cf193	-0.06175382
251	0x3d6b57ed	0.0574569
252	0xbd22d40a	-0.039752997
253	0xbdb5780a	-0.08860786
254	0x3c882787	0.01662041
255	0x3d9ba848	0.076004565
